{"format": "graph-model", "generatedBy": "2.13.0", "convertedBy": "TensorFlow.js Converter v2.0.0", "userDefinedMetadata": {"signature": {"outputs": {"Identity:0": {"name": "Identity:0"}}}}, "modelTopology": {"node": [{"name": "model_80/tf.strided_slice_21/StridedSlice/begin", "op": "Const", "attr": {"value": {"tensor": {"dtype": "DT_INT32", "tensorShape": {"dim": [{"size": "3"}]}}}, "dtype": {"type": "DT_INT32"}}}, {"name": "model_80/tf.strided_slice_21/StridedSlice/end", "op": "Const", "attr": {"dtype": {"type": "DT_INT32"}, "value": {"tensor": {"dtype": "DT_INT32", "tensorShape": {"dim": [{"size": "3"}]}}}}}, {"name": "model_80/tf.strided_slice_21/ones_like", "op": "Const", "attr": {"value": {"tensor": {"dtype": "DT_INT32", "tensorShape": {"dim": [{"size": "3"}]}}}, "dtype": {"type": "DT_INT32"}}}, {"name": "ConstantFolding/model_80/tf.math.divide/truediv_recip", "op": "Const", "attr": {"dtype": {"type": "DT_FLOAT"}, "value": {"tensor": {"dtype": "DT_FLOAT", "tensorShape": {"dim": [{"size": "1"}, {"size": "1"}, {"size": "1"}]}}}}}, {"name": "model_80/tf.strided_slice_22/StridedSlice/begin", "op": "Const", "attr": {"value": {"tensor": {"dtype": "DT_INT32", "tensorShape": {"dim": [{"size": "3"}]}}}, "dtype": {"type": "DT_INT32"}}}, {"name": "model_80/tf.strided_slice_22/StridedSlice/end", "op": "Const", "attr": {"value": {"tensor": {"dtype": "DT_INT32", "tensorShape": {"dim": [{"size": "3"}]}}}, "dtype": {"type": "DT_INT32"}}}, {"name": "model_80/tf.strided_slice_22/ones_like", "op": "Const", "attr": {"value": {"tensor": {"dtype": "DT_INT32", "tensorShape": {"dim": [{"size": "3"}]}}}, "dtype": {"type": "DT_INT32"}}}, {"name": "model_80/tf.concat_32/concat/axis", "op": "Const", "attr": {"dtype": {"type": "DT_INT32"}, "value": {"tensor": {"dtype": "DT_INT32", "tensorShape": {}}}}}, {"name": "model_80/tf.math.add_153/Add/y", "op": "Const", "attr": {"value": {"tensor": {"dtype": "DT_FLOAT", "tensorShape": {"dim": [{"size": "1"}, {"size": "2"}, {"size": "21504"}]}}}, "dtype": {"type": "DT_FLOAT"}}}, {"name": "model_80/tf.split_2/split/split_dim", "op": "Const", "attr": {"dtype": {"type": "DT_INT32"}, "value": {"tensor": {"dtype": "DT_INT32", "tensorShape": {}}}}}, {"name": "model_80/tf.strided_slice_19/StridedSlice/begin", "op": "Const", "attr": {"value": {"tensor": {"dtype": "DT_INT64", "tensorShape": {"dim": [{"size": "3"}]}}}, "dtype": {"type": "DT_INT64"}}}, {"name": "model_80/tf.strided_slice_19/StridedSlice/end", "op": "Const", "attr": {"dtype": {"type": "DT_INT64"}, "value": {"tensor": {"dtype": "DT_INT64", "tensorShape": {"dim": [{"size": "3"}]}}}}}, {"name": "model_80/tf.strided_slice_19/StridedSlice/strides", "op": "Const", "attr": {"value": {"tensor": {"dtype": "DT_INT64", "tensorShape": {"dim": [{"size": "3"}]}}}, "dtype": {"type": "DT_INT64"}}}, {"name": "model_80/tf.reshape_29/Reshape/shape", "op": "Const", "attr": {"value": {"tensor": {"dtype": "DT_INT32", "tensorShape": {"dim": [{"size": "4"}]}}}, "dtype": {"type": "DT_INT32"}}}, {"name": "model_80/tf.compat.v1.transpose_87/transpose/perm", "op": "Const", "attr": {"dtype": {"type": "DT_INT32"}, "value": {"tensor": {"dtype": "DT_INT32", "tensorShape": {"dim": [{"size": "4"}]}}}}}, {"name": "model_80/tf.compat.v1.transpose_88/transpose/perm", "op": "Const", "attr": {"dtype": {"type": "DT_INT32"}, "value": {"tensor": {"dtype": "DT_INT32", "tensorShape": {"dim": [{"size": "4"}]}}}}}, {"name": "model_80/tf.nn.convolution_242/convolution/filter", "op": "Const", "attr": {"value": {"tensor": {"dtype": "DT_FLOAT", "tensorShape": {"dim": [{"size": "1"}, {"size": "1"}, {"size": "16"}, {"size": "1"}]}}}, "dtype": {"type": "DT_FLOAT"}}}, {"name": "model_80/tf.compat.v1.transpose_93/transpose/perm", "op": "Const", "attr": {"value": {"tensor": {"dtype": "DT_INT32", "tensorShape": {"dim": [{"size": "4"}]}}}, "dtype": {"type": "DT_INT32"}}}, {"name": "model_80/tf.reshape_32/Reshape/shape", "op": "Const", "attr": {"value": {"tensor": {"dtype": "DT_INT32", "tensorShape": {"dim": [{"size": "3"}]}}}, "dtype": {"type": "DT_INT32"}}}, {"name": "model_80/tf.concat_36/concat/axis", "op": "Const", "attr": {"dtype": {"type": "DT_INT32"}, "value": {"tensor": {"dtype": "DT_INT32", "tensorShape": {}}}}}, {"name": "model_80/tf.math.multiply_397/Mul/y", "op": "Const", "attr": {"value": {"tensor": {"dtype": "DT_FLOAT", "tensorShape": {"dim": [{"size": "1"}, {"size": "1"}, {"size": "21504"}]}}}, "dtype": {"type": "DT_FLOAT"}}}, {"name": "model_80/tf.nn.convolution_192/convolution/filter", "op": "Const", "attr": {"dtype": {"type": "DT_FLOAT"}, "value": {"tensor": {"dtype": "DT_FLOAT", "tensorShape": {"dim": [{"size": "3"}, {"size": "3"}, {"size": "64"}, {"size": "64"}]}}}}}, {"name": "model_80/tf.math.add_87/Add/y", "op": "Const", "attr": {"dtype": {"type": "DT_FLOAT"}, "value": {"tensor": {"dtype": "DT_FLOAT", "tensorShape": {"dim": [{"size": "64"}]}}}}}, {"name": "model_80/tf.nn.convolution_194/convolution/filter", "op": "Const", "attr": {"value": {"tensor": {"dtype": "DT_FLOAT", "tensorShape": {"dim": [{"size": "3"}, {"size": "3"}, {"size": "64"}, {"size": "64"}]}}}, "dtype": {"type": "DT_FLOAT"}}}, {"name": "model_80/tf.math.add_90/Add/y", "op": "Const", "attr": {"value": {"tensor": {"dtype": "DT_FLOAT", "tensorShape": {"dim": [{"size": "64"}]}}}, "dtype": {"type": "DT_FLOAT"}}}, {"name": "model_80/tf.nn.convolution_198/convolution/filter", "op": "Const", "attr": {"value": {"tensor": {"dtype": "DT_FLOAT", "tensorShape": {"dim": [{"size": "1"}, {"size": "1"}, {"size": "64"}, {"size": "64"}]}}}, "dtype": {"type": "DT_FLOAT"}}}, {"name": "model_80/tf.math.add_94/Add/y", "op": "Const", "attr": {"dtype": {"type": "DT_FLOAT"}, "value": {"tensor": {"dtype": "DT_FLOAT", "tensorShape": {"dim": [{"size": "64"}]}}}}}, {"name": "model_80/tf.compat.v1.nn.depthwise_conv2d/depthwise/filter_in", "op": "Const", "attr": {"value": {"tensor": {"dtype": "DT_FLOAT", "tensorShape": {"dim": [{"size": "3"}, {"size": "3"}, {"size": "64"}, {"size": "1"}]}}}, "dtype": {"type": "DT_FLOAT"}}}, {"name": "model_80/tf.math.add_88/Add/y", "op": "Const", "attr": {"dtype": {"type": "DT_FLOAT"}, "value": {"tensor": {"dtype": "DT_FLOAT", "tensorShape": {"dim": [{"size": "64"}]}}}}}, {"name": "model_80/tf.nn.convolution_195/convolution/filter", "op": "Const", "attr": {"value": {"tensor": {"dtype": "DT_FLOAT", "tensorShape": {"dim": [{"size": "1"}, {"size": "1"}, {"size": "64"}, {"size": "64"}]}}}, "dtype": {"type": "DT_FLOAT"}}}, {"name": "model_80/tf.math.add_91/Add/y", "op": "Const", "attr": {"dtype": {"type": "DT_FLOAT"}, "value": {"tensor": {"dtype": "DT_FLOAT", "tensorShape": {"dim": [{"size": "64"}]}}}}}, {"name": "model_80/tf.compat.v1.nn.depthwise_conv2d_1/depthwise/filter_in", "op": "Const", "attr": {"dtype": {"type": "DT_FLOAT"}, "value": {"tensor": {"dtype": "DT_FLOAT", "tensorShape": {"dim": [{"size": "3"}, {"size": "3"}, {"size": "64"}, {"size": "1"}]}}}}}, {"name": "model_80/tf.math.add_95/Add/y", "op": "Const", "attr": {"value": {"tensor": {"dtype": "DT_FLOAT", "tensorShape": {"dim": [{"size": "64"}]}}}, "dtype": {"type": "DT_FLOAT"}}}, {"name": "model_80/tf.nn.convolution_202/convolution/filter", "op": "Const", "attr": {"value": {"tensor": {"dtype": "DT_FLOAT", "tensorShape": {"dim": [{"size": "1"}, {"size": "1"}, {"size": "64"}, {"size": "64"}]}}}, "dtype": {"type": "DT_FLOAT"}}}, {"name": "model_80/tf.math.add_99/Add/y", "op": "Const", "attr": {"value": {"tensor": {"dtype": "DT_FLOAT", "tensorShape": {"dim": [{"size": "64"}]}}}, "dtype": {"type": "DT_FLOAT"}}}, {"name": "model_80/tf.nn.convolution_204/convolution/filter", "op": "Const", "attr": {"value": {"tensor": {"dtype": "DT_FLOAT", "tensorShape": {"dim": [{"size": "1"}, {"size": "1"}, {"size": "64"}, {"size": "15"}]}}}, "dtype": {"type": "DT_FLOAT"}}}, {"name": "model_80/tf.math.add_101/Add/y", "op": "Const", "attr": {"dtype": {"type": "DT_FLOAT"}, "value": {"tensor": {"dtype": "DT_FLOAT", "tensorShape": {"dim": [{"size": "15"}]}}}}}, {"name": "model_80/tf.concat_18/concat/axis", "op": "Const", "attr": {"value": {"tensor": {"dtype": "DT_INT32", "tensorShape": {}}}, "dtype": {"type": "DT_INT32"}}}, {"name": "model_80/tf.compat.v1.transpose_43/transpose/perm", "op": "Const", "attr": {"dtype": {"type": "DT_INT32"}, "value": {"tensor": {"dtype": "DT_INT32", "tensorShape": {"dim": [{"size": "4"}]}}}}}, {"name": "model_80/tf.reshape_14/Reshape/shape", "op": "Const", "attr": {"value": {"tensor": {"dtype": "DT_INT32", "tensorShape": {"dim": [{"size": "3"}]}}}, "dtype": {"type": "DT_INT32"}}}, {"name": "model_80/tf.nn.convolution_208/convolution/filter", "op": "Const", "attr": {"dtype": {"type": "DT_FLOAT"}, "value": {"tensor": {"dtype": "DT_FLOAT", "tensorShape": {"dim": [{"size": "3"}, {"size": "3"}, {"size": "128"}, {"size": "64"}]}}}}}, {"name": "model_80/tf.math.add_107/Add/y", "op": "Const", "attr": {"value": {"tensor": {"dtype": "DT_FLOAT", "tensorShape": {"dim": [{"size": "64"}]}}}, "dtype": {"type": "DT_FLOAT"}}}, {"name": "model_80/tf.nn.convolution_212/convolution/filter", "op": "Const", "attr": {"value": {"tensor": {"dtype": "DT_FLOAT", "tensorShape": {"dim": [{"size": "3"}, {"size": "3"}, {"size": "64"}, {"size": "64"}]}}}, "dtype": {"type": "DT_FLOAT"}}}, {"name": "model_80/tf.math.add_112/Add/y", "op": "Const", "attr": {"dtype": {"type": "DT_FLOAT"}, "value": {"tensor": {"dtype": "DT_FLOAT", "tensorShape": {"dim": [{"size": "64"}]}}}}}, {"name": "model_80/tf.nn.convolution_218/convolution/filter", "op": "Const", "attr": {"value": {"tensor": {"dtype": "DT_FLOAT", "tensorShape": {"dim": [{"size": "1"}, {"size": "1"}, {"size": "64"}, {"size": "64"}]}}}, "dtype": {"type": "DT_FLOAT"}}}, {"name": "model_80/tf.math.add_118/Add/y", "op": "Const", "attr": {"dtype": {"type": "DT_FLOAT"}, "value": {"tensor": {"dtype": "DT_FLOAT", "tensorShape": {"dim": [{"size": "64"}]}}}}}, {"name": "model_80/tf.compat.v1.nn.depthwise_conv2d_2/depthwise/filter_in", "op": "Const", "attr": {"dtype": {"type": "DT_FLOAT"}, "value": {"tensor": {"dtype": "DT_FLOAT", "tensorShape": {"dim": [{"size": "3"}, {"size": "3"}, {"size": "128"}, {"size": "1"}]}}}}}, {"name": "model_80/tf.math.add_108/Add/y", "op": "Const", "attr": {"value": {"tensor": {"dtype": "DT_FLOAT", "tensorShape": {"dim": [{"size": "128"}]}}}, "dtype": {"type": "DT_FLOAT"}}}, {"name": "model_80/tf.nn.convolution_213/convolution/filter", "op": "Const", "attr": {"dtype": {"type": "DT_FLOAT"}, "value": {"tensor": {"dtype": "DT_FLOAT", "tensorShape": {"dim": [{"size": "1"}, {"size": "1"}, {"size": "128"}, {"size": "64"}]}}}}}, {"name": "model_80/tf.math.add_113/Add/y", "op": "Const", "attr": {"value": {"tensor": {"dtype": "DT_FLOAT", "tensorShape": {"dim": [{"size": "64"}]}}}, "dtype": {"type": "DT_FLOAT"}}}, {"name": "model_80/tf.compat.v1.nn.depthwise_conv2d_5/depthwise/filter_in", "op": "Const", "attr": {"value": {"tensor": {"dtype": "DT_FLOAT", "tensorShape": {"dim": [{"size": "3"}, {"size": "3"}, {"size": "64"}, {"size": "1"}]}}}, "dtype": {"type": "DT_FLOAT"}}}, {"name": "model_80/tf.math.add_121/Add/y", "op": "Const", "attr": {"dtype": {"type": "DT_FLOAT"}, "value": {"tensor": {"dtype": "DT_FLOAT", "tensorShape": {"dim": [{"size": "64"}]}}}}}, {"name": "model_80/tf.nn.convolution_223/convolution/filter", "op": "Const", "attr": {"value": {"tensor": {"dtype": "DT_FLOAT", "tensorShape": {"dim": [{"size": "1"}, {"size": "1"}, {"size": "64"}, {"size": "64"}]}}}, "dtype": {"type": "DT_FLOAT"}}}, {"name": "model_80/tf.math.add_126/Add/y", "op": "Const", "attr": {"value": {"tensor": {"dtype": "DT_FLOAT", "tensorShape": {"dim": [{"size": "64"}]}}}, "dtype": {"type": "DT_FLOAT"}}}, {"name": "model_80/tf.nn.convolution_227/convolution/filter", "op": "Const", "attr": {"value": {"tensor": {"dtype": "DT_FLOAT", "tensorShape": {"dim": [{"size": "1"}, {"size": "1"}, {"size": "64"}, {"size": "15"}]}}}, "dtype": {"type": "DT_FLOAT"}}}, {"name": "model_80/tf.math.add_130/Add/y", "op": "Const", "attr": {"dtype": {"type": "DT_FLOAT"}, "value": {"tensor": {"dtype": "DT_FLOAT", "tensorShape": {"dim": [{"size": "15"}]}}}}}, {"name": "model_80/tf.concat_23/concat/axis", "op": "Const", "attr": {"dtype": {"type": "DT_INT32"}, "value": {"tensor": {"dtype": "DT_INT32", "tensorShape": {}}}}}, {"name": "model_80/tf.compat.v1.transpose_70/transpose/perm", "op": "Const", "attr": {"value": {"tensor": {"dtype": "DT_INT32", "tensorShape": {"dim": [{"size": "4"}]}}}, "dtype": {"type": "DT_INT32"}}}, {"name": "model_80/tf.reshape_20/Reshape/shape", "op": "Const", "attr": {"value": {"tensor": {"dtype": "DT_INT32", "tensorShape": {"dim": [{"size": "3"}]}}}, "dtype": {"type": "DT_INT32"}}}, {"name": "model_80/tf.nn.convolution_234/convolution/filter", "op": "Const", "attr": {"dtype": {"type": "DT_FLOAT"}, "value": {"tensor": {"dtype": "DT_FLOAT", "tensorShape": {"dim": [{"size": "3"}, {"size": "3"}, {"size": "256"}, {"size": "64"}]}}}}}, {"name": "model_80/tf.math.add_141/Add/y", "op": "Const", "attr": {"value": {"tensor": {"dtype": "DT_FLOAT", "tensorShape": {"dim": [{"size": "64"}]}}}, "dtype": {"type": "DT_FLOAT"}}}, {"name": "model_80/tf.nn.convolution_236/convolution/filter", "op": "Const", "attr": {"value": {"tensor": {"dtype": "DT_FLOAT", "tensorShape": {"dim": [{"size": "3"}, {"size": "3"}, {"size": "64"}, {"size": "64"}]}}}, "dtype": {"type": "DT_FLOAT"}}}, {"name": "model_80/tf.math.add_144/Add/y", "op": "Const", "attr": {"dtype": {"type": "DT_FLOAT"}, "value": {"tensor": {"dtype": "DT_FLOAT", "tensorShape": {"dim": [{"size": "64"}]}}}}}, {"name": "model_80/tf.nn.convolution_239/convolution/filter", "op": "Const", "attr": {"dtype": {"type": "DT_FLOAT"}, "value": {"tensor": {"dtype": "DT_FLOAT", "tensorShape": {"dim": [{"size": "1"}, {"size": "1"}, {"size": "64"}, {"size": "64"}]}}}}}, {"name": "model_80/tf.math.add_147/Add/y", "op": "Const", "attr": {"dtype": {"type": "DT_FLOAT"}, "value": {"tensor": {"dtype": "DT_FLOAT", "tensorShape": {"dim": [{"size": "64"}]}}}}}, {"name": "model_80/tf.compat.v1.nn.depthwise_conv2d_6/depthwise/filter_in", "op": "Const", "attr": {"value": {"tensor": {"dtype": "DT_FLOAT", "tensorShape": {"dim": [{"size": "3"}, {"size": "3"}, {"size": "256"}, {"size": "1"}]}}}, "dtype": {"type": "DT_FLOAT"}}}, {"name": "model_80/tf.math.add_142/Add/y", "op": "Const", "attr": {"dtype": {"type": "DT_FLOAT"}, "value": {"tensor": {"dtype": "DT_FLOAT", "tensorShape": {"dim": [{"size": "256"}]}}}}}, {"name": "model_80/tf.nn.convolution_237/convolution/filter", "op": "Const", "attr": {"dtype": {"type": "DT_FLOAT"}, "value": {"tensor": {"dtype": "DT_FLOAT", "tensorShape": {"dim": [{"size": "1"}, {"size": "1"}, {"size": "256"}, {"size": "64"}]}}}}}, {"name": "model_80/tf.math.add_145/Add/y", "op": "Const", "attr": {"dtype": {"type": "DT_FLOAT"}, "value": {"tensor": {"dtype": "DT_FLOAT", "tensorShape": {"dim": [{"size": "64"}]}}}}}, {"name": "model_80/tf.compat.v1.nn.depthwise_conv2d_7/depthwise/filter_in", "op": "Const", "attr": {"value": {"tensor": {"dtype": "DT_FLOAT", "tensorShape": {"dim": [{"size": "3"}, {"size": "3"}, {"size": "64"}, {"size": "1"}]}}}, "dtype": {"type": "DT_FLOAT"}}}, {"name": "model_80/tf.math.add_148/Add/y", "op": "Const", "attr": {"dtype": {"type": "DT_FLOAT"}, "value": {"tensor": {"dtype": "DT_FLOAT", "tensorShape": {"dim": [{"size": "64"}]}}}}}, {"name": "model_80/tf.nn.convolution_240/convolution/filter", "op": "Const", "attr": {"dtype": {"type": "DT_FLOAT"}, "value": {"tensor": {"dtype": "DT_FLOAT", "tensorShape": {"dim": [{"size": "1"}, {"size": "1"}, {"size": "64"}, {"size": "64"}]}}}}}, {"name": "model_80/tf.math.add_149/Add/y", "op": "Const", "attr": {"dtype": {"type": "DT_FLOAT"}, "value": {"tensor": {"dtype": "DT_FLOAT", "tensorShape": {"dim": [{"size": "64"}]}}}}}, {"name": "model_80/tf.nn.convolution_241/convolution/filter", "op": "Const", "attr": {"value": {"tensor": {"dtype": "DT_FLOAT", "tensorShape": {"dim": [{"size": "1"}, {"size": "1"}, {"size": "64"}, {"size": "15"}]}}}, "dtype": {"type": "DT_FLOAT"}}}, {"name": "model_80/tf.math.add_150/Add/y", "op": "Const", "attr": {"value": {"tensor": {"dtype": "DT_FLOAT", "tensorShape": {"dim": [{"size": "15"}]}}}, "dtype": {"type": "DT_FLOAT"}}}, {"name": "model_80/tf.concat_27/concat/axis", "op": "Const", "attr": {"dtype": {"type": "DT_INT32"}, "value": {"tensor": {"dtype": "DT_INT32", "tensorShape": {}}}}}, {"name": "model_80/tf.compat.v1.transpose_80/transpose/perm", "op": "Const", "attr": {"dtype": {"type": "DT_INT32"}, "value": {"tensor": {"dtype": "DT_INT32", "tensorShape": {"dim": [{"size": "4"}]}}}}}, {"name": "model_80/tf.reshape_26/Reshape/shape", "op": "Const", "attr": {"dtype": {"type": "DT_INT32"}, "value": {"tensor": {"dtype": "DT_INT32", "tensorShape": {"dim": [{"size": "3"}]}}}}}, {"name": "model_80/tf.concat_28/concat/axis", "op": "Const", "attr": {"dtype": {"type": "DT_INT32"}, "value": {"tensor": {"dtype": "DT_INT32", "tensorShape": {}}}}}, {"name": "model_80/tf.strided_slice_20/StridedSlice/begin", "op": "Const", "attr": {"dtype": {"type": "DT_INT64"}, "value": {"tensor": {"dtype": "DT_INT64", "tensorShape": {"dim": [{"size": "3"}]}}}}}, {"name": "model_80/tf.strided_slice_20/StridedSlice/end", "op": "Const", "attr": {"value": {"tensor": {"dtype": "DT_INT64", "tensorShape": {"dim": [{"size": "3"}]}}}, "dtype": {"type": "DT_INT64"}}}, {"name": "model_80/tf.strided_slice_20/StridedSlice/strides", "op": "Const", "attr": {"dtype": {"type": "DT_INT64"}, "value": {"tensor": {"dtype": "DT_INT64", "tensorShape": {"dim": [{"size": "3"}]}}}}}, {"name": "model_80/tf.nn.convolution_191/convolution/filter", "op": "Const", "attr": {"value": {"tensor": {"dtype": "DT_FLOAT", "tensorShape": {"dim": [{"size": "3"}, {"size": "3"}, {"size": "64"}, {"size": "16"}]}}}, "dtype": {"type": "DT_FLOAT"}}}, {"name": "model_80/tf.math.add_86/Add/y", "op": "Const", "attr": {"dtype": {"type": "DT_FLOAT"}, "value": {"tensor": {"dtype": "DT_FLOAT", "tensorShape": {"dim": [{"size": "16"}]}}}}}, {"name": "model_80/tf.nn.convolution_193/convolution/filter", "op": "Const", "attr": {"dtype": {"type": "DT_FLOAT"}, "value": {"tensor": {"dtype": "DT_FLOAT", "tensorShape": {"dim": [{"size": "3"}, {"size": "3"}, {"size": "16"}, {"size": "16"}]}}}}}, {"name": "model_80/tf.math.add_89/Add/y", "op": "Const", "attr": {"dtype": {"type": "DT_FLOAT"}, "value": {"tensor": {"dtype": "DT_FLOAT", "tensorShape": {"dim": [{"size": "16"}]}}}}}, {"name": "model_80/tf.nn.convolution_197/convolution/filter", "op": "Const", "attr": {"dtype": {"type": "DT_FLOAT"}, "value": {"tensor": {"dtype": "DT_FLOAT", "tensorShape": {"dim": [{"size": "1"}, {"size": "1"}, {"size": "16"}, {"size": "1"}]}}}}}, {"name": "model_80/tf.math.add_93/Add/y", "op": "Const", "attr": {"dtype": {"type": "DT_FLOAT"}, "value": {"tensor": {"dtype": "DT_FLOAT", "tensorShape": {"dim": [{"size": "1"}]}}}}}, {"name": "model_80/tf.compat.v1.transpose_35/transpose/perm", "op": "Const", "attr": {"dtype": {"type": "DT_INT32"}, "value": {"tensor": {"dtype": "DT_INT32", "tensorShape": {"dim": [{"size": "4"}]}}}}}, {"name": "model_80/tf.reshape_11/Reshape/shape", "op": "Const", "attr": {"value": {"tensor": {"dtype": "DT_INT32", "tensorShape": {"dim": [{"size": "3"}]}}}, "dtype": {"type": "DT_INT32"}}}, {"name": "model_80/tf.nn.convolution_207/convolution/filter", "op": "Const", "attr": {"dtype": {"type": "DT_FLOAT"}, "value": {"tensor": {"dtype": "DT_FLOAT", "tensorShape": {"dim": [{"size": "3"}, {"size": "3"}, {"size": "128"}, {"size": "16"}]}}}}}, {"name": "model_80/tf.math.add_106/Add/y", "op": "Const", "attr": {"dtype": {"type": "DT_FLOAT"}, "value": {"tensor": {"dtype": "DT_FLOAT", "tensorShape": {"dim": [{"size": "16"}]}}}}}, {"name": "model_80/tf.nn.convolution_209/convolution/filter", "op": "Const", "attr": {"dtype": {"type": "DT_FLOAT"}, "value": {"tensor": {"dtype": "DT_FLOAT", "tensorShape": {"dim": [{"size": "3"}, {"size": "3"}, {"size": "16"}, {"size": "16"}]}}}}}, {"name": "model_80/tf.math.add_109/Add/y", "op": "Const", "attr": {"dtype": {"type": "DT_FLOAT"}, "value": {"tensor": {"dtype": "DT_FLOAT", "tensorShape": {"dim": [{"size": "16"}]}}}}}, {"name": "model_80/tf.nn.convolution_215/convolution/filter", "op": "Const", "attr": {"dtype": {"type": "DT_FLOAT"}, "value": {"tensor": {"dtype": "DT_FLOAT", "tensorShape": {"dim": [{"size": "1"}, {"size": "1"}, {"size": "16"}, {"size": "1"}]}}}}}, {"name": "model_80/tf.math.add_115/Add/y", "op": "Const", "attr": {"dtype": {"type": "DT_FLOAT"}, "value": {"tensor": {"dtype": "DT_FLOAT", "tensorShape": {"dim": [{"size": "1"}]}}}}}, {"name": "model_80/tf.compat.v1.transpose_59/transpose/perm", "op": "Const", "attr": {"dtype": {"type": "DT_INT32"}, "value": {"tensor": {"dtype": "DT_INT32", "tensorShape": {"dim": [{"size": "4"}]}}}}}, {"name": "model_80/tf.reshape_17/Reshape/shape", "op": "Const", "attr": {"dtype": {"type": "DT_INT32"}, "value": {"tensor": {"dtype": "DT_INT32", "tensorShape": {"dim": [{"size": "3"}]}}}}}, {"name": "model_80/tf.strided_slice_17/ones_like/tensor", "op": "Const", "attr": {"value": {"tensor": {"dtype": "DT_INT64", "tensorShape": {"dim": [{"size": "4"}]}}}, "dtype": {"type": "DT_INT64"}}}, {"name": "model_80/tf.strided_slice_17/StridedSlice/end", "op": "Const", "attr": {"value": {"tensor": {"dtype": "DT_INT64", "tensorShape": {"dim": [{"size": "4"}]}}}, "dtype": {"type": "DT_INT64"}}}, {"name": "model_80/tf.strided_slice_17/ones_like", "op": "Const", "attr": {"dtype": {"type": "DT_INT64"}, "value": {"tensor": {"dtype": "DT_INT64", "tensorShape": {"dim": [{"size": "4"}]}}}}}, {"name": "model_80/tf.nn.convolution_219/convolution/filter", "op": "Const", "attr": {"dtype": {"type": "DT_FLOAT"}, "value": {"tensor": {"dtype": "DT_FLOAT", "tensorShape": {"dim": [{"size": "1"}, {"size": "1"}, {"size": "128"}, {"size": "64"}]}}}}}, {"name": "model_80/tf.math.add_122/Add/y", "op": "Const", "attr": {"dtype": {"type": "DT_FLOAT"}, "value": {"tensor": {"dtype": "DT_FLOAT", "tensorShape": {"dim": [{"size": "64"}]}}}}}, {"name": "model_80/tf.nn.convolution_224/convolution/filter", "op": "Const", "attr": {"value": {"tensor": {"dtype": "DT_FLOAT", "tensorShape": {"dim": [{"size": "3"}, {"size": "3"}, {"size": "64"}, {"size": "64"}]}}}, "dtype": {"type": "DT_FLOAT"}}}, {"name": "model_80/tf.math.add_127/Add/y", "op": "Const", "attr": {"dtype": {"type": "DT_FLOAT"}, "value": {"tensor": {"dtype": "DT_FLOAT", "tensorShape": {"dim": [{"size": "64"}]}}}}}, {"name": "model_80/tf.nn.convolution_228/convolution/filter", "op": "Const", "attr": {"dtype": {"type": "DT_FLOAT"}, "value": {"tensor": {"dtype": "DT_FLOAT", "tensorShape": {"dim": [{"size": "3"}, {"size": "3"}, {"size": "64"}, {"size": "64"}]}}}}}, {"name": "model_80/tf.math.add_131/Add/y", "op": "Const", "attr": {"dtype": {"type": "DT_FLOAT"}, "value": {"tensor": {"dtype": "DT_FLOAT", "tensorShape": {"dim": [{"size": "64"}]}}}}}, {"name": "model_80/tf.nn.convolution_229/convolution/filter", "op": "Const", "attr": {"value": {"tensor": {"dtype": "DT_FLOAT", "tensorShape": {"dim": [{"size": "3"}, {"size": "3"}, {"size": "64"}, {"size": "64"}]}}}, "dtype": {"type": "DT_FLOAT"}}}, {"name": "model_80/tf.math.add_134/Add/y", "op": "Const", "attr": {"dtype": {"type": "DT_FLOAT"}, "value": {"tensor": {"dtype": "DT_FLOAT", "tensorShape": {"dim": [{"size": "64"}]}}}}}, {"name": "model_80/tf.nn.convolution_230/convolution/filter", "op": "Const", "attr": {"dtype": {"type": "DT_FLOAT"}, "value": {"tensor": {"dtype": "DT_FLOAT", "tensorShape": {"dim": [{"size": "3"}, {"size": "3"}, {"size": "64"}, {"size": "64"}]}}}}}, {"name": "model_80/tf.math.add_135/Add/y", "op": "Const", "attr": {"value": {"tensor": {"dtype": "DT_FLOAT", "tensorShape": {"dim": [{"size": "64"}]}}}, "dtype": {"type": "DT_FLOAT"}}}, {"name": "model_80/tf.strided_slice_15/ones_like/tensor", "op": "Const", "attr": {"dtype": {"type": "DT_INT64"}, "value": {"tensor": {"dtype": "DT_INT64", "tensorShape": {"dim": [{"size": "4"}]}}}}}, {"name": "model_80/tf.strided_slice_15/StridedSlice/end", "op": "Const", "attr": {"dtype": {"type": "DT_INT64"}, "value": {"tensor": {"dtype": "DT_INT64", "tensorShape": {"dim": [{"size": "4"}]}}}}}, {"name": "model_80/tf.strided_slice_15/ones_like", "op": "Const", "attr": {"dtype": {"type": "DT_INT64"}, "value": {"tensor": {"dtype": "DT_INT64", "tensorShape": {"dim": [{"size": "4"}]}}}}}, {"name": "model_80/tf.strided_slice_13/ones_like/tensor", "op": "Const", "attr": {"dtype": {"type": "DT_INT64"}, "value": {"tensor": {"dtype": "DT_INT64", "tensorShape": {"dim": [{"size": "4"}]}}}}}, {"name": "model_80/tf.strided_slice_13/StridedSlice/end", "op": "Const", "attr": {"dtype": {"type": "DT_INT64"}, "value": {"tensor": {"dtype": "DT_INT64", "tensorShape": {"dim": [{"size": "4"}]}}}}}, {"name": "model_80/tf.strided_slice_13/ones_like", "op": "Const", "attr": {"dtype": {"type": "DT_INT64"}, "value": {"tensor": {"dtype": "DT_INT64", "tensorShape": {"dim": [{"size": "4"}]}}}}}, {"name": "model_80/tf.image.resize_1/resize/size", "op": "Const", "attr": {"dtype": {"type": "DT_INT32"}, "value": {"tensor": {"dtype": "DT_INT32", "tensorShape": {"dim": [{"size": "2"}]}}}}}, {"name": "model_80/tf.concat_13/concat/axis", "op": "Const", "attr": {"value": {"tensor": {"dtype": "DT_INT32", "tensorShape": {}}}, "dtype": {"type": "DT_INT32"}}}, {"name": "model_80/tf.nn.convolution_186/convolution/filter", "op": "Const", "attr": {"dtype": {"type": "DT_FLOAT"}, "value": {"tensor": {"dtype": "DT_FLOAT", "tensorShape": {"dim": [{"size": "1"}, {"size": "1"}, {"size": "256"}, {"size": "64"}]}}}}}, {"name": "model_80/tf.math.add_79/Add/y", "op": "Const", "attr": {"dtype": {"type": "DT_FLOAT"}, "value": {"tensor": {"dtype": "DT_FLOAT", "tensorShape": {"dim": [{"size": "64"}]}}}}}, {"name": "model_80/tf.strided_slice_14/ones_like/tensor", "op": "Const", "attr": {"dtype": {"type": "DT_INT64"}, "value": {"tensor": {"dtype": "DT_INT64", "tensorShape": {"dim": [{"size": "4"}]}}}}}, {"name": "model_80/tf.strided_slice_14/StridedSlice/end", "op": "Const", "attr": {"dtype": {"type": "DT_INT64"}, "value": {"tensor": {"dtype": "DT_INT64", "tensorShape": {"dim": [{"size": "4"}]}}}}}, {"name": "model_80/tf.strided_slice_14/ones_like", "op": "Const", "attr": {"dtype": {"type": "DT_INT64"}, "value": {"tensor": {"dtype": "DT_INT64", "tensorShape": {"dim": [{"size": "4"}]}}}}}, {"name": "model_80/tf.nn.convolution_187/convolution/filter", "op": "Const", "attr": {"dtype": {"type": "DT_FLOAT"}, "value": {"tensor": {"dtype": "DT_FLOAT", "tensorShape": {"dim": [{"size": "3"}, {"size": "3"}, {"size": "32"}, {"size": "16"}]}}}}}, {"name": "model_80/tf.math.add_80/Add/y", "op": "Const", "attr": {"value": {"tensor": {"dtype": "DT_FLOAT", "tensorShape": {"dim": [{"size": "16"}]}}}, "dtype": {"type": "DT_FLOAT"}}}, {"name": "model_80/tf.nn.convolution_188/convolution/filter", "op": "Const", "attr": {"dtype": {"type": "DT_FLOAT"}, "value": {"tensor": {"dtype": "DT_FLOAT", "tensorShape": {"dim": [{"size": "3"}, {"size": "3"}, {"size": "16"}, {"size": "32"}]}}}}}, {"name": "model_80/tf.math.add_81/Add/y", "op": "Const", "attr": {"dtype": {"type": "DT_FLOAT"}, "value": {"tensor": {"dtype": "DT_FLOAT", "tensorShape": {"dim": [{"size": "32"}]}}}}}, {"name": "model_80/tf.concat_14/concat/axis", "op": "Const", "attr": {"value": {"tensor": {"dtype": "DT_INT32", "tensorShape": {}}}, "dtype": {"type": "DT_INT32"}}}, {"name": "model_80/tf.nn.convolution_189/convolution/filter", "op": "Const", "attr": {"dtype": {"type": "DT_FLOAT"}, "value": {"tensor": {"dtype": "DT_FLOAT", "tensorShape": {"dim": [{"size": "1"}, {"size": "1"}, {"size": "96"}, {"size": "64"}]}}}}}, {"name": "model_80/tf.math.add_84/Add/y", "op": "Const", "attr": {"dtype": {"type": "DT_FLOAT"}, "value": {"tensor": {"dtype": "DT_FLOAT", "tensorShape": {"dim": [{"size": "64"}]}}}}}, {"name": "model_80/tf.compat.v1.pad_5/Pad/paddings", "op": "Const", "attr": {"dtype": {"type": "DT_INT32"}, "value": {"tensor": {"dtype": "DT_INT32", "tensorShape": {"dim": [{"size": "4"}, {"size": "2"}]}}}}}, {"name": "model_80/tf.nn.convolution_190/convolution/filter", "op": "Const", "attr": {"dtype": {"type": "DT_FLOAT"}, "value": {"tensor": {"dtype": "DT_FLOAT", "tensorShape": {"dim": [{"size": "3"}, {"size": "3"}, {"size": "64"}, {"size": "64"}]}}}}}, {"name": "model_80/tf.math.add_85/Add/y", "op": "Const", "attr": {"value": {"tensor": {"dtype": "DT_FLOAT", "tensorShape": {"dim": [{"size": "64"}]}}}, "dtype": {"type": "DT_FLOAT"}}}, {"name": "model_80/tf.strided_slice_11/ones_like/tensor", "op": "Const", "attr": {"dtype": {"type": "DT_INT64"}, "value": {"tensor": {"dtype": "DT_INT64", "tensorShape": {"dim": [{"size": "4"}]}}}}}, {"name": "model_80/tf.strided_slice_11/StridedSlice/end", "op": "Const", "attr": {"value": {"tensor": {"dtype": "DT_INT64", "tensorShape": {"dim": [{"size": "4"}]}}}, "dtype": {"type": "DT_INT64"}}}, {"name": "model_80/tf.strided_slice_11/ones_like", "op": "Const", "attr": {"dtype": {"type": "DT_INT64"}, "value": {"tensor": {"dtype": "DT_INT64", "tensorShape": {"dim": [{"size": "4"}]}}}}}, {"name": "model_80/tf.image.resize/resize/size", "op": "Const", "attr": {"value": {"tensor": {"dtype": "DT_INT32", "tensorShape": {"dim": [{"size": "2"}]}}}, "dtype": {"type": "DT_INT32"}}}, {"name": "model_80/tf.concat_9/concat/axis", "op": "Const", "attr": {"dtype": {"type": "DT_INT32"}, "value": {"tensor": {"dtype": "DT_INT32", "tensorShape": {}}}}}, {"name": "model_80/tf.nn.convolution_180/convolution/filter", "op": "Const", "attr": {"value": {"tensor": {"dtype": "DT_FLOAT", "tensorShape": {"dim": [{"size": "1"}, {"size": "1"}, {"size": "384"}, {"size": "128"}]}}}, "dtype": {"type": "DT_FLOAT"}}}, {"name": "model_80/tf.math.add_71/Add/y", "op": "Const", "attr": {"dtype": {"type": "DT_FLOAT"}, "value": {"tensor": {"dtype": "DT_FLOAT", "tensorShape": {"dim": [{"size": "128"}]}}}}}, {"name": "model_80/tf.strided_slice_12/ones_like/tensor", "op": "Const", "attr": {"dtype": {"type": "DT_INT64"}, "value": {"tensor": {"dtype": "DT_INT64", "tensorShape": {"dim": [{"size": "4"}]}}}}}, {"name": "model_80/tf.strided_slice_12/StridedSlice/end", "op": "Const", "attr": {"dtype": {"type": "DT_INT64"}, "value": {"tensor": {"dtype": "DT_INT64", "tensorShape": {"dim": [{"size": "4"}]}}}}}, {"name": "model_80/tf.strided_slice_12/ones_like", "op": "Const", "attr": {"value": {"tensor": {"dtype": "DT_INT64", "tensorShape": {"dim": [{"size": "4"}]}}}, "dtype": {"type": "DT_INT64"}}}, {"name": "model_80/tf.nn.convolution_183/convolution/filter", "op": "Const", "attr": {"dtype": {"type": "DT_FLOAT"}, "value": {"tensor": {"dtype": "DT_FLOAT", "tensorShape": {"dim": [{"size": "3"}, {"size": "3"}, {"size": "64"}, {"size": "32"}]}}}}}, {"name": "model_80/tf.math.add_74/Add/y", "op": "Const", "attr": {"dtype": {"type": "DT_FLOAT"}, "value": {"tensor": {"dtype": "DT_FLOAT", "tensorShape": {"dim": [{"size": "32"}]}}}}}, {"name": "model_80/tf.nn.convolution_184/convolution/filter", "op": "Const", "attr": {"value": {"tensor": {"dtype": "DT_FLOAT", "tensorShape": {"dim": [{"size": "3"}, {"size": "3"}, {"size": "32"}, {"size": "64"}]}}}, "dtype": {"type": "DT_FLOAT"}}}, {"name": "model_80/tf.math.add_75/Add/y", "op": "Const", "attr": {"dtype": {"type": "DT_FLOAT"}, "value": {"tensor": {"dtype": "DT_FLOAT", "tensorShape": {"dim": [{"size": "64"}]}}}}}, {"name": "model_80/tf.concat_10/concat/axis", "op": "Const", "attr": {"dtype": {"type": "DT_INT32"}, "value": {"tensor": {"dtype": "DT_INT32", "tensorShape": {}}}}}, {"name": "model_80/tf.nn.convolution_185/convolution/filter", "op": "Const", "attr": {"dtype": {"type": "DT_FLOAT"}, "value": {"tensor": {"dtype": "DT_FLOAT", "tensorShape": {"dim": [{"size": "1"}, {"size": "1"}, {"size": "192"}, {"size": "128"}]}}}}}, {"name": "model_80/tf.math.add_78/Add/y", "op": "Const", "attr": {"value": {"tensor": {"dtype": "DT_FLOAT", "tensorShape": {"dim": [{"size": "128"}]}}}, "dtype": {"type": "DT_FLOAT"}}}, {"name": "model_80/tf.concat_17/concat/axis", "op": "Const", "attr": {"value": {"tensor": {"dtype": "DT_INT32", "tensorShape": {}}}, "dtype": {"type": "DT_INT32"}}}, {"name": "model_80/tf.nn.convolution_196/convolution/filter", "op": "Const", "attr": {"dtype": {"type": "DT_FLOAT"}, "value": {"tensor": {"dtype": "DT_FLOAT", "tensorShape": {"dim": [{"size": "1"}, {"size": "1"}, {"size": "192"}, {"size": "128"}]}}}}}, {"name": "model_80/tf.math.add_92/Add/y", "op": "Const", "attr": {"dtype": {"type": "DT_FLOAT"}, "value": {"tensor": {"dtype": "DT_FLOAT", "tensorShape": {"dim": [{"size": "128"}]}}}}}, {"name": "model_80/tf.strided_slice_16/ones_like/tensor", "op": "Const", "attr": {"dtype": {"type": "DT_INT64"}, "value": {"tensor": {"dtype": "DT_INT64", "tensorShape": {"dim": [{"size": "4"}]}}}}}, {"name": "model_80/tf.strided_slice_16/StridedSlice/end", "op": "Const", "attr": {"dtype": {"type": "DT_INT64"}, "value": {"tensor": {"dtype": "DT_INT64", "tensorShape": {"dim": [{"size": "4"}]}}}}}, {"name": "model_80/tf.strided_slice_16/ones_like", "op": "Const", "attr": {"value": {"tensor": {"dtype": "DT_INT64", "tensorShape": {"dim": [{"size": "4"}]}}}, "dtype": {"type": "DT_INT64"}}}, {"name": "model_80/tf.nn.convolution_201/convolution/filter", "op": "Const", "attr": {"dtype": {"type": "DT_FLOAT"}, "value": {"tensor": {"dtype": "DT_FLOAT", "tensorShape": {"dim": [{"size": "3"}, {"size": "3"}, {"size": "64"}, {"size": "32"}]}}}}}, {"name": "model_80/tf.math.add_98/Add/y", "op": "Const", "attr": {"value": {"tensor": {"dtype": "DT_FLOAT", "tensorShape": {"dim": [{"size": "32"}]}}}, "dtype": {"type": "DT_FLOAT"}}}, {"name": "model_80/tf.nn.convolution_203/convolution/filter", "op": "Const", "attr": {"value": {"tensor": {"dtype": "DT_FLOAT", "tensorShape": {"dim": [{"size": "3"}, {"size": "3"}, {"size": "32"}, {"size": "64"}]}}}, "dtype": {"type": "DT_FLOAT"}}}, {"name": "model_80/tf.math.add_100/Add/y", "op": "Const", "attr": {"value": {"tensor": {"dtype": "DT_FLOAT", "tensorShape": {"dim": [{"size": "64"}]}}}, "dtype": {"type": "DT_FLOAT"}}}, {"name": "model_80/tf.concat_19/concat/axis", "op": "Const", "attr": {"dtype": {"type": "DT_INT32"}, "value": {"tensor": {"dtype": "DT_INT32", "tensorShape": {}}}}}, {"name": "model_80/tf.nn.convolution_205/convolution/filter", "op": "Const", "attr": {"value": {"tensor": {"dtype": "DT_FLOAT", "tensorShape": {"dim": [{"size": "1"}, {"size": "1"}, {"size": "192"}, {"size": "128"}]}}}, "dtype": {"type": "DT_FLOAT"}}}, {"name": "model_80/tf.math.add_104/Add/y", "op": "Const", "attr": {"dtype": {"type": "DT_FLOAT"}, "value": {"tensor": {"dtype": "DT_FLOAT", "tensorShape": {"dim": [{"size": "128"}]}}}}}, {"name": "model_80/tf.compat.v1.pad_6/Pad/paddings", "op": "Const", "attr": {"dtype": {"type": "DT_INT32"}, "value": {"tensor": {"dtype": "DT_INT32", "tensorShape": {"dim": [{"size": "4"}, {"size": "2"}]}}}}}, {"name": "model_80/tf.nn.convolution_206/convolution/filter", "op": "Const", "attr": {"dtype": {"type": "DT_FLOAT"}, "value": {"tensor": {"dtype": "DT_FLOAT", "tensorShape": {"dim": [{"size": "3"}, {"size": "3"}, {"size": "128"}, {"size": "128"}]}}}}}, {"name": "model_80/tf.math.add_105/Add/y", "op": "Const", "attr": {"value": {"tensor": {"dtype": "DT_FLOAT", "tensorShape": {"dim": [{"size": "128"}]}}}, "dtype": {"type": "DT_FLOAT"}}}, {"name": "model_80/tf.math.add_67/Add/y", "op": "Const", "attr": {"dtype": {"type": "DT_FLOAT"}, "value": {"tensor": {"dtype": "DT_FLOAT", "tensorShape": {"dim": [{"size": "128"}]}}}}}, {"name": "model_80/tf.math.add_63/Add/y", "op": "Const", "attr": {"value": {"tensor": {"dtype": "DT_FLOAT", "tensorShape": {"dim": [{"size": "128"}]}}}, "dtype": {"type": "DT_FLOAT"}}}, {"name": "model_80/tf.math.add_60/Add/y", "op": "Const", "attr": {"dtype": {"type": "DT_FLOAT"}, "value": {"tensor": {"dtype": "DT_FLOAT", "tensorShape": {"dim": [{"size": "128"}]}}}}}, {"name": "model_80/tf.strided_slice_8/StridedSlice/begin", "op": "Const", "attr": {"dtype": {"type": "DT_INT32"}, "value": {"tensor": {"dtype": "DT_INT32", "tensorShape": {"dim": [{"size": "4"}]}}}}}, {"name": "model_80/tf.strided_slice_8/StridedSlice/end", "op": "Const", "attr": {"value": {"tensor": {"dtype": "DT_INT32", "tensorShape": {"dim": [{"size": "4"}]}}}, "dtype": {"type": "DT_INT32"}}}, {"name": "model_80/tf.strided_slice_8/ones_like", "op": "Const", "attr": {"dtype": {"type": "DT_INT32"}, "value": {"tensor": {"dtype": "DT_INT32", "tensorShape": {"dim": [{"size": "4"}]}}}}}, {"name": "model_80/tf.strided_slice_9/StridedSlice/begin", "op": "Const", "attr": {"dtype": {"type": "DT_INT32"}, "value": {"tensor": {"dtype": "DT_INT32", "tensorShape": {"dim": [{"size": "4"}]}}}}}, {"name": "model_80/tf.strided_slice_9/StridedSlice/end", "op": "Const", "attr": {"dtype": {"type": "DT_INT32"}, "value": {"tensor": {"dtype": "DT_INT32", "tensorShape": {"dim": [{"size": "4"}]}}}}}, {"name": "model_80/tf.strided_slice_9/ones_like", "op": "Const", "attr": {"dtype": {"type": "DT_INT32"}, "value": {"tensor": {"dtype": "DT_INT32", "tensorShape": {"dim": [{"size": "4"}]}}}}}, {"name": "model_80/tf.math.multiply_149/Mul/y", "op": "Const", "attr": {"dtype": {"type": "DT_FLOAT"}, "value": {"tensor": {"dtype": "DT_FLOAT", "tensorShape": {"dim": [{"size": "1"}, {"size": "1"}, {"size": "1"}, {"size": "1"}]}}}}}, {"name": "model_80/tf.reshape_8/Reshape/shape", "op": "Const", "attr": {"dtype": {"type": "DT_INT32"}, "value": {"tensor": {"dtype": "DT_INT32", "tensorShape": {"dim": [{"size": "4"}]}}}}}, {"name": "model_80/tf.compat.v1.transpose_25/transpose/perm", "op": "Const", "attr": {"dtype": {"type": "DT_INT32"}, "value": {"tensor": {"dtype": "DT_INT32", "tensorShape": {"dim": [{"size": "4"}]}}}}}, {"name": "model_80/tf.nn.convolution_48/convolution/filter", "op": "Const", "attr": {"value": {"tensor": {"dtype": "DT_FLOAT", "tensorShape": {"dim": [{"size": "3"}, {"size": "3"}, {"size": "1"}, {"size": "1"}]}}}, "dtype": {"type": "DT_FLOAT"}}}, {"name": "model_80/tf.nn.convolution_49/convolution/filter", "op": "Const", "attr": {"value": {"tensor": {"dtype": "DT_FLOAT", "tensorShape": {"dim": [{"size": "3"}, {"size": "3"}, {"size": "1"}, {"size": "1"}]}}}, "dtype": {"type": "DT_FLOAT"}}}, {"name": "model_80/tf.nn.convolution_50/convolution/filter", "op": "Const", "attr": {"dtype": {"type": "DT_FLOAT"}, "value": {"tensor": {"dtype": "DT_FLOAT", "tensorShape": {"dim": [{"size": "3"}, {"size": "3"}, {"size": "1"}, {"size": "1"}]}}}}}, {"name": "model_80/tf.nn.convolution_51/convolution/filter", "op": "Const", "attr": {"value": {"tensor": {"dtype": "DT_FLOAT", "tensorShape": {"dim": [{"size": "3"}, {"size": "3"}, {"size": "1"}, {"size": "1"}]}}}, "dtype": {"type": "DT_FLOAT"}}}, {"name": "model_80/tf.nn.convolution_52/convolution/filter", "op": "Const", "attr": {"dtype": {"type": "DT_FLOAT"}, "value": {"tensor": {"dtype": "DT_FLOAT", "tensorShape": {"dim": [{"size": "3"}, {"size": "3"}, {"size": "1"}, {"size": "1"}]}}}}}, {"name": "model_80/tf.nn.convolution_53/convolution/filter", "op": "Const", "attr": {"dtype": {"type": "DT_FLOAT"}, "value": {"tensor": {"dtype": "DT_FLOAT", "tensorShape": {"dim": [{"size": "3"}, {"size": "3"}, {"size": "1"}, {"size": "1"}]}}}}}, {"name": "model_80/tf.nn.convolution_54/convolution/filter", "op": "Const", "attr": {"dtype": {"type": "DT_FLOAT"}, "value": {"tensor": {"dtype": "DT_FLOAT", "tensorShape": {"dim": [{"size": "3"}, {"size": "3"}, {"size": "1"}, {"size": "1"}]}}}}}, {"name": "model_80/tf.nn.convolution_55/convolution/filter", "op": "Const", "attr": {"dtype": {"type": "DT_FLOAT"}, "value": {"tensor": {"dtype": "DT_FLOAT", "tensorShape": {"dim": [{"size": "3"}, {"size": "3"}, {"size": "1"}, {"size": "1"}]}}}}}, {"name": "model_80/tf.nn.convolution_56/convolution/filter", "op": "Const", "attr": {"dtype": {"type": "DT_FLOAT"}, "value": {"tensor": {"dtype": "DT_FLOAT", "tensorShape": {"dim": [{"size": "3"}, {"size": "3"}, {"size": "1"}, {"size": "1"}]}}}}}, {"name": "model_80/tf.nn.convolution_57/convolution/filter", "op": "Const", "attr": {"value": {"tensor": {"dtype": "DT_FLOAT", "tensorShape": {"dim": [{"size": "3"}, {"size": "3"}, {"size": "1"}, {"size": "1"}]}}}, "dtype": {"type": "DT_FLOAT"}}}, {"name": "model_80/tf.nn.convolution_58/convolution/filter", "op": "Const", "attr": {"value": {"tensor": {"dtype": "DT_FLOAT", "tensorShape": {"dim": [{"size": "3"}, {"size": "3"}, {"size": "1"}, {"size": "1"}]}}}, "dtype": {"type": "DT_FLOAT"}}}, {"name": "model_80/tf.nn.convolution_59/convolution/filter", "op": "Const", "attr": {"dtype": {"type": "DT_FLOAT"}, "value": {"tensor": {"dtype": "DT_FLOAT", "tensorShape": {"dim": [{"size": "3"}, {"size": "3"}, {"size": "1"}, {"size": "1"}]}}}}}, {"name": "model_80/tf.nn.convolution_60/convolution/filter", "op": "Const", "attr": {"value": {"tensor": {"dtype": "DT_FLOAT", "tensorShape": {"dim": [{"size": "3"}, {"size": "3"}, {"size": "1"}, {"size": "1"}]}}}, "dtype": {"type": "DT_FLOAT"}}}, {"name": "model_80/tf.nn.convolution_61/convolution/filter", "op": "Const", "attr": {"value": {"tensor": {"dtype": "DT_FLOAT", "tensorShape": {"dim": [{"size": "3"}, {"size": "3"}, {"size": "1"}, {"size": "1"}]}}}, "dtype": {"type": "DT_FLOAT"}}}, {"name": "model_80/tf.nn.convolution_62/convolution/filter", "op": "Const", "attr": {"value": {"tensor": {"dtype": "DT_FLOAT", "tensorShape": {"dim": [{"size": "3"}, {"size": "3"}, {"size": "1"}, {"size": "1"}]}}}, "dtype": {"type": "DT_FLOAT"}}}, {"name": "model_80/tf.nn.convolution_63/convolution/filter", "op": "Const", "attr": {"dtype": {"type": "DT_FLOAT"}, "value": {"tensor": {"dtype": "DT_FLOAT", "tensorShape": {"dim": [{"size": "3"}, {"size": "3"}, {"size": "1"}, {"size": "1"}]}}}}}, {"name": "model_80/tf.nn.convolution_64/convolution/filter", "op": "Const", "attr": {"dtype": {"type": "DT_FLOAT"}, "value": {"tensor": {"dtype": "DT_FLOAT", "tensorShape": {"dim": [{"size": "3"}, {"size": "3"}, {"size": "1"}, {"size": "1"}]}}}}}, {"name": "model_80/tf.nn.convolution_65/convolution/filter", "op": "Const", "attr": {"dtype": {"type": "DT_FLOAT"}, "value": {"tensor": {"dtype": "DT_FLOAT", "tensorShape": {"dim": [{"size": "3"}, {"size": "3"}, {"size": "1"}, {"size": "1"}]}}}}}, {"name": "model_80/tf.nn.convolution_66/convolution/filter", "op": "Const", "attr": {"value": {"tensor": {"dtype": "DT_FLOAT", "tensorShape": {"dim": [{"size": "3"}, {"size": "3"}, {"size": "1"}, {"size": "1"}]}}}, "dtype": {"type": "DT_FLOAT"}}}, {"name": "model_80/tf.nn.convolution_67/convolution/filter", "op": "Const", "attr": {"dtype": {"type": "DT_FLOAT"}, "value": {"tensor": {"dtype": "DT_FLOAT", "tensorShape": {"dim": [{"size": "3"}, {"size": "3"}, {"size": "1"}, {"size": "1"}]}}}}}, {"name": "model_80/tf.nn.convolution_68/convolution/filter", "op": "Const", "attr": {"dtype": {"type": "DT_FLOAT"}, "value": {"tensor": {"dtype": "DT_FLOAT", "tensorShape": {"dim": [{"size": "3"}, {"size": "3"}, {"size": "1"}, {"size": "1"}]}}}}}, {"name": "model_80/tf.nn.convolution_69/convolution/filter", "op": "Const", "attr": {"dtype": {"type": "DT_FLOAT"}, "value": {"tensor": {"dtype": "DT_FLOAT", "tensorShape": {"dim": [{"size": "3"}, {"size": "3"}, {"size": "1"}, {"size": "1"}]}}}}}, {"name": "model_80/tf.nn.convolution_70/convolution/filter", "op": "Const", "attr": {"dtype": {"type": "DT_FLOAT"}, "value": {"tensor": {"dtype": "DT_FLOAT", "tensorShape": {"dim": [{"size": "3"}, {"size": "3"}, {"size": "1"}, {"size": "1"}]}}}}}, {"name": "model_80/tf.nn.convolution_71/convolution/filter", "op": "Const", "attr": {"dtype": {"type": "DT_FLOAT"}, "value": {"tensor": {"dtype": "DT_FLOAT", "tensorShape": {"dim": [{"size": "3"}, {"size": "3"}, {"size": "1"}, {"size": "1"}]}}}}}, {"name": "model_80/tf.nn.convolution_72/convolution/filter", "op": "Const", "attr": {"value": {"tensor": {"dtype": "DT_FLOAT", "tensorShape": {"dim": [{"size": "3"}, {"size": "3"}, {"size": "1"}, {"size": "1"}]}}}, "dtype": {"type": "DT_FLOAT"}}}, {"name": "model_80/tf.nn.convolution_73/convolution/filter", "op": "Const", "attr": {"value": {"tensor": {"dtype": "DT_FLOAT", "tensorShape": {"dim": [{"size": "3"}, {"size": "3"}, {"size": "1"}, {"size": "1"}]}}}, "dtype": {"type": "DT_FLOAT"}}}, {"name": "model_80/tf.nn.convolution_74/convolution/filter", "op": "Const", "attr": {"value": {"tensor": {"dtype": "DT_FLOAT", "tensorShape": {"dim": [{"size": "3"}, {"size": "3"}, {"size": "1"}, {"size": "1"}]}}}, "dtype": {"type": "DT_FLOAT"}}}, {"name": "model_80/tf.nn.convolution_75/convolution/filter", "op": "Const", "attr": {"dtype": {"type": "DT_FLOAT"}, "value": {"tensor": {"dtype": "DT_FLOAT", "tensorShape": {"dim": [{"size": "3"}, {"size": "3"}, {"size": "1"}, {"size": "1"}]}}}}}, {"name": "model_80/tf.nn.convolution_76/convolution/filter", "op": "Const", "attr": {"value": {"tensor": {"dtype": "DT_FLOAT", "tensorShape": {"dim": [{"size": "3"}, {"size": "3"}, {"size": "1"}, {"size": "1"}]}}}, "dtype": {"type": "DT_FLOAT"}}}, {"name": "model_80/tf.nn.convolution_77/convolution/filter", "op": "Const", "attr": {"dtype": {"type": "DT_FLOAT"}, "value": {"tensor": {"dtype": "DT_FLOAT", "tensorShape": {"dim": [{"size": "3"}, {"size": "3"}, {"size": "1"}, {"size": "1"}]}}}}}, {"name": "model_80/tf.nn.convolution_78/convolution/filter", "op": "Const", "attr": {"value": {"tensor": {"dtype": "DT_FLOAT", "tensorShape": {"dim": [{"size": "3"}, {"size": "3"}, {"size": "1"}, {"size": "1"}]}}}, "dtype": {"type": "DT_FLOAT"}}}, {"name": "model_80/tf.nn.convolution_79/convolution/filter", "op": "Const", "attr": {"dtype": {"type": "DT_FLOAT"}, "value": {"tensor": {"dtype": "DT_FLOAT", "tensorShape": {"dim": [{"size": "3"}, {"size": "3"}, {"size": "1"}, {"size": "1"}]}}}}}, {"name": "model_80/tf.nn.convolution_80/convolution/filter", "op": "Const", "attr": {"dtype": {"type": "DT_FLOAT"}, "value": {"tensor": {"dtype": "DT_FLOAT", "tensorShape": {"dim": [{"size": "3"}, {"size": "3"}, {"size": "1"}, {"size": "1"}]}}}}}, {"name": "model_80/tf.nn.convolution_81/convolution/filter", "op": "Const", "attr": {"value": {"tensor": {"dtype": "DT_FLOAT", "tensorShape": {"dim": [{"size": "3"}, {"size": "3"}, {"size": "1"}, {"size": "1"}]}}}, "dtype": {"type": "DT_FLOAT"}}}, {"name": "model_80/tf.nn.convolution_82/convolution/filter", "op": "Const", "attr": {"value": {"tensor": {"dtype": "DT_FLOAT", "tensorShape": {"dim": [{"size": "3"}, {"size": "3"}, {"size": "1"}, {"size": "1"}]}}}, "dtype": {"type": "DT_FLOAT"}}}, {"name": "model_80/tf.nn.convolution_83/convolution/filter", "op": "Const", "attr": {"value": {"tensor": {"dtype": "DT_FLOAT", "tensorShape": {"dim": [{"size": "3"}, {"size": "3"}, {"size": "1"}, {"size": "1"}]}}}, "dtype": {"type": "DT_FLOAT"}}}, {"name": "model_80/tf.nn.convolution_84/convolution/filter", "op": "Const", "attr": {"dtype": {"type": "DT_FLOAT"}, "value": {"tensor": {"dtype": "DT_FLOAT", "tensorShape": {"dim": [{"size": "3"}, {"size": "3"}, {"size": "1"}, {"size": "1"}]}}}}}, {"name": "model_80/tf.nn.convolution_85/convolution/filter", "op": "Const", "attr": {"dtype": {"type": "DT_FLOAT"}, "value": {"tensor": {"dtype": "DT_FLOAT", "tensorShape": {"dim": [{"size": "3"}, {"size": "3"}, {"size": "1"}, {"size": "1"}]}}}}}, {"name": "model_80/tf.nn.convolution_86/convolution/filter", "op": "Const", "attr": {"dtype": {"type": "DT_FLOAT"}, "value": {"tensor": {"dtype": "DT_FLOAT", "tensorShape": {"dim": [{"size": "3"}, {"size": "3"}, {"size": "1"}, {"size": "1"}]}}}}}, {"name": "model_80/tf.nn.convolution_87/convolution/filter", "op": "Const", "attr": {"value": {"tensor": {"dtype": "DT_FLOAT", "tensorShape": {"dim": [{"size": "3"}, {"size": "3"}, {"size": "1"}, {"size": "1"}]}}}, "dtype": {"type": "DT_FLOAT"}}}, {"name": "model_80/tf.nn.convolution_88/convolution/filter", "op": "Const", "attr": {"dtype": {"type": "DT_FLOAT"}, "value": {"tensor": {"dtype": "DT_FLOAT", "tensorShape": {"dim": [{"size": "3"}, {"size": "3"}, {"size": "1"}, {"size": "1"}]}}}}}, {"name": "model_80/tf.nn.convolution_89/convolution/filter", "op": "Const", "attr": {"value": {"tensor": {"dtype": "DT_FLOAT", "tensorShape": {"dim": [{"size": "3"}, {"size": "3"}, {"size": "1"}, {"size": "1"}]}}}, "dtype": {"type": "DT_FLOAT"}}}, {"name": "model_80/tf.nn.convolution_90/convolution/filter", "op": "Const", "attr": {"value": {"tensor": {"dtype": "DT_FLOAT", "tensorShape": {"dim": [{"size": "3"}, {"size": "3"}, {"size": "1"}, {"size": "1"}]}}}, "dtype": {"type": "DT_FLOAT"}}}, {"name": "model_80/tf.nn.convolution_91/convolution/filter", "op": "Const", "attr": {"dtype": {"type": "DT_FLOAT"}, "value": {"tensor": {"dtype": "DT_FLOAT", "tensorShape": {"dim": [{"size": "3"}, {"size": "3"}, {"size": "1"}, {"size": "1"}]}}}}}, {"name": "model_80/tf.nn.convolution_92/convolution/filter", "op": "Const", "attr": {"value": {"tensor": {"dtype": "DT_FLOAT", "tensorShape": {"dim": [{"size": "3"}, {"size": "3"}, {"size": "1"}, {"size": "1"}]}}}, "dtype": {"type": "DT_FLOAT"}}}, {"name": "model_80/tf.nn.convolution_93/convolution/filter", "op": "Const", "attr": {"value": {"tensor": {"dtype": "DT_FLOAT", "tensorShape": {"dim": [{"size": "3"}, {"size": "3"}, {"size": "1"}, {"size": "1"}]}}}, "dtype": {"type": "DT_FLOAT"}}}, {"name": "model_80/tf.nn.convolution_94/convolution/filter", "op": "Const", "attr": {"dtype": {"type": "DT_FLOAT"}, "value": {"tensor": {"dtype": "DT_FLOAT", "tensorShape": {"dim": [{"size": "3"}, {"size": "3"}, {"size": "1"}, {"size": "1"}]}}}}}, {"name": "model_80/tf.nn.convolution_95/convolution/filter", "op": "Const", "attr": {"dtype": {"type": "DT_FLOAT"}, "value": {"tensor": {"dtype": "DT_FLOAT", "tensorShape": {"dim": [{"size": "3"}, {"size": "3"}, {"size": "1"}, {"size": "1"}]}}}}}, {"name": "model_80/tf.nn.convolution_96/convolution/filter", "op": "Const", "attr": {"dtype": {"type": "DT_FLOAT"}, "value": {"tensor": {"dtype": "DT_FLOAT", "tensorShape": {"dim": [{"size": "3"}, {"size": "3"}, {"size": "1"}, {"size": "1"}]}}}}}, {"name": "model_80/tf.nn.convolution_97/convolution/filter", "op": "Const", "attr": {"value": {"tensor": {"dtype": "DT_FLOAT", "tensorShape": {"dim": [{"size": "3"}, {"size": "3"}, {"size": "1"}, {"size": "1"}]}}}, "dtype": {"type": "DT_FLOAT"}}}, {"name": "model_80/tf.nn.convolution_98/convolution/filter", "op": "Const", "attr": {"value": {"tensor": {"dtype": "DT_FLOAT", "tensorShape": {"dim": [{"size": "3"}, {"size": "3"}, {"size": "1"}, {"size": "1"}]}}}, "dtype": {"type": "DT_FLOAT"}}}, {"name": "model_80/tf.nn.convolution_99/convolution/filter", "op": "Const", "attr": {"dtype": {"type": "DT_FLOAT"}, "value": {"tensor": {"dtype": "DT_FLOAT", "tensorShape": {"dim": [{"size": "3"}, {"size": "3"}, {"size": "1"}, {"size": "1"}]}}}}}, {"name": "model_80/tf.nn.convolution_100/convolution/filter", "op": "Const", "attr": {"value": {"tensor": {"dtype": "DT_FLOAT", "tensorShape": {"dim": [{"size": "3"}, {"size": "3"}, {"size": "1"}, {"size": "1"}]}}}, "dtype": {"type": "DT_FLOAT"}}}, {"name": "model_80/tf.nn.convolution_101/convolution/filter", "op": "Const", "attr": {"dtype": {"type": "DT_FLOAT"}, "value": {"tensor": {"dtype": "DT_FLOAT", "tensorShape": {"dim": [{"size": "3"}, {"size": "3"}, {"size": "1"}, {"size": "1"}]}}}}}, {"name": "model_80/tf.nn.convolution_102/convolution/filter", "op": "Const", "attr": {"value": {"tensor": {"dtype": "DT_FLOAT", "tensorShape": {"dim": [{"size": "3"}, {"size": "3"}, {"size": "1"}, {"size": "1"}]}}}, "dtype": {"type": "DT_FLOAT"}}}, {"name": "model_80/tf.nn.convolution_103/convolution/filter", "op": "Const", "attr": {"dtype": {"type": "DT_FLOAT"}, "value": {"tensor": {"dtype": "DT_FLOAT", "tensorShape": {"dim": [{"size": "3"}, {"size": "3"}, {"size": "1"}, {"size": "1"}]}}}}}, {"name": "model_80/tf.nn.convolution_104/convolution/filter", "op": "Const", "attr": {"value": {"tensor": {"dtype": "DT_FLOAT", "tensorShape": {"dim": [{"size": "3"}, {"size": "3"}, {"size": "1"}, {"size": "1"}]}}}, "dtype": {"type": "DT_FLOAT"}}}, {"name": "model_80/tf.nn.convolution_105/convolution/filter", "op": "Const", "attr": {"dtype": {"type": "DT_FLOAT"}, "value": {"tensor": {"dtype": "DT_FLOAT", "tensorShape": {"dim": [{"size": "3"}, {"size": "3"}, {"size": "1"}, {"size": "1"}]}}}}}, {"name": "model_80/tf.nn.convolution_106/convolution/filter", "op": "Const", "attr": {"dtype": {"type": "DT_FLOAT"}, "value": {"tensor": {"dtype": "DT_FLOAT", "tensorShape": {"dim": [{"size": "3"}, {"size": "3"}, {"size": "1"}, {"size": "1"}]}}}}}, {"name": "model_80/tf.nn.convolution_107/convolution/filter", "op": "Const", "attr": {"value": {"tensor": {"dtype": "DT_FLOAT", "tensorShape": {"dim": [{"size": "3"}, {"size": "3"}, {"size": "1"}, {"size": "1"}]}}}, "dtype": {"type": "DT_FLOAT"}}}, {"name": "model_80/tf.nn.convolution_108/convolution/filter", "op": "Const", "attr": {"value": {"tensor": {"dtype": "DT_FLOAT", "tensorShape": {"dim": [{"size": "3"}, {"size": "3"}, {"size": "1"}, {"size": "1"}]}}}, "dtype": {"type": "DT_FLOAT"}}}, {"name": "model_80/tf.nn.convolution_109/convolution/filter", "op": "Const", "attr": {"dtype": {"type": "DT_FLOAT"}, "value": {"tensor": {"dtype": "DT_FLOAT", "tensorShape": {"dim": [{"size": "3"}, {"size": "3"}, {"size": "1"}, {"size": "1"}]}}}}}, {"name": "model_80/tf.nn.convolution_110/convolution/filter", "op": "Const", "attr": {"dtype": {"type": "DT_FLOAT"}, "value": {"tensor": {"dtype": "DT_FLOAT", "tensorShape": {"dim": [{"size": "3"}, {"size": "3"}, {"size": "1"}, {"size": "1"}]}}}}}, {"name": "model_80/tf.nn.convolution_111/convolution/filter", "op": "Const", "attr": {"dtype": {"type": "DT_FLOAT"}, "value": {"tensor": {"dtype": "DT_FLOAT", "tensorShape": {"dim": [{"size": "3"}, {"size": "3"}, {"size": "1"}, {"size": "1"}]}}}}}, {"name": "model_80/tf.nn.convolution_112/convolution/filter", "op": "Const", "attr": {"dtype": {"type": "DT_FLOAT"}, "value": {"tensor": {"dtype": "DT_FLOAT", "tensorShape": {"dim": [{"size": "3"}, {"size": "3"}, {"size": "1"}, {"size": "1"}]}}}}}, {"name": "model_80/tf.nn.convolution_113/convolution/filter", "op": "Const", "attr": {"value": {"tensor": {"dtype": "DT_FLOAT", "tensorShape": {"dim": [{"size": "3"}, {"size": "3"}, {"size": "1"}, {"size": "1"}]}}}, "dtype": {"type": "DT_FLOAT"}}}, {"name": "model_80/tf.nn.convolution_114/convolution/filter", "op": "Const", "attr": {"dtype": {"type": "DT_FLOAT"}, "value": {"tensor": {"dtype": "DT_FLOAT", "tensorShape": {"dim": [{"size": "3"}, {"size": "3"}, {"size": "1"}, {"size": "1"}]}}}}}, {"name": "model_80/tf.nn.convolution_115/convolution/filter", "op": "Const", "attr": {"value": {"tensor": {"dtype": "DT_FLOAT", "tensorShape": {"dim": [{"size": "3"}, {"size": "3"}, {"size": "1"}, {"size": "1"}]}}}, "dtype": {"type": "DT_FLOAT"}}}, {"name": "model_80/tf.nn.convolution_116/convolution/filter", "op": "Const", "attr": {"dtype": {"type": "DT_FLOAT"}, "value": {"tensor": {"dtype": "DT_FLOAT", "tensorShape": {"dim": [{"size": "3"}, {"size": "3"}, {"size": "1"}, {"size": "1"}]}}}}}, {"name": "model_80/tf.nn.convolution_117/convolution/filter", "op": "Const", "attr": {"dtype": {"type": "DT_FLOAT"}, "value": {"tensor": {"dtype": "DT_FLOAT", "tensorShape": {"dim": [{"size": "3"}, {"size": "3"}, {"size": "1"}, {"size": "1"}]}}}}}, {"name": "model_80/tf.nn.convolution_118/convolution/filter", "op": "Const", "attr": {"value": {"tensor": {"dtype": "DT_FLOAT", "tensorShape": {"dim": [{"size": "3"}, {"size": "3"}, {"size": "1"}, {"size": "1"}]}}}, "dtype": {"type": "DT_FLOAT"}}}, {"name": "model_80/tf.nn.convolution_119/convolution/filter", "op": "Const", "attr": {"dtype": {"type": "DT_FLOAT"}, "value": {"tensor": {"dtype": "DT_FLOAT", "tensorShape": {"dim": [{"size": "3"}, {"size": "3"}, {"size": "1"}, {"size": "1"}]}}}}}, {"name": "model_80/tf.nn.convolution_120/convolution/filter", "op": "Const", "attr": {"value": {"tensor": {"dtype": "DT_FLOAT", "tensorShape": {"dim": [{"size": "3"}, {"size": "3"}, {"size": "1"}, {"size": "1"}]}}}, "dtype": {"type": "DT_FLOAT"}}}, {"name": "model_80/tf.nn.convolution_121/convolution/filter", "op": "Const", "attr": {"value": {"tensor": {"dtype": "DT_FLOAT", "tensorShape": {"dim": [{"size": "3"}, {"size": "3"}, {"size": "1"}, {"size": "1"}]}}}, "dtype": {"type": "DT_FLOAT"}}}, {"name": "model_80/tf.nn.convolution_122/convolution/filter", "op": "Const", "attr": {"dtype": {"type": "DT_FLOAT"}, "value": {"tensor": {"dtype": "DT_FLOAT", "tensorShape": {"dim": [{"size": "3"}, {"size": "3"}, {"size": "1"}, {"size": "1"}]}}}}}, {"name": "model_80/tf.nn.convolution_123/convolution/filter", "op": "Const", "attr": {"value": {"tensor": {"dtype": "DT_FLOAT", "tensorShape": {"dim": [{"size": "3"}, {"size": "3"}, {"size": "1"}, {"size": "1"}]}}}, "dtype": {"type": "DT_FLOAT"}}}, {"name": "model_80/tf.nn.convolution_124/convolution/filter", "op": "Const", "attr": {"value": {"tensor": {"dtype": "DT_FLOAT", "tensorShape": {"dim": [{"size": "3"}, {"size": "3"}, {"size": "1"}, {"size": "1"}]}}}, "dtype": {"type": "DT_FLOAT"}}}, {"name": "model_80/tf.nn.convolution_125/convolution/filter", "op": "Const", "attr": {"dtype": {"type": "DT_FLOAT"}, "value": {"tensor": {"dtype": "DT_FLOAT", "tensorShape": {"dim": [{"size": "3"}, {"size": "3"}, {"size": "1"}, {"size": "1"}]}}}}}, {"name": "model_80/tf.nn.convolution_126/convolution/filter", "op": "Const", "attr": {"dtype": {"type": "DT_FLOAT"}, "value": {"tensor": {"dtype": "DT_FLOAT", "tensorShape": {"dim": [{"size": "3"}, {"size": "3"}, {"size": "1"}, {"size": "1"}]}}}}}, {"name": "model_80/tf.nn.convolution_127/convolution/filter", "op": "Const", "attr": {"value": {"tensor": {"dtype": "DT_FLOAT", "tensorShape": {"dim": [{"size": "3"}, {"size": "3"}, {"size": "1"}, {"size": "1"}]}}}, "dtype": {"type": "DT_FLOAT"}}}, {"name": "model_80/tf.nn.convolution_128/convolution/filter", "op": "Const", "attr": {"dtype": {"type": "DT_FLOAT"}, "value": {"tensor": {"dtype": "DT_FLOAT", "tensorShape": {"dim": [{"size": "3"}, {"size": "3"}, {"size": "1"}, {"size": "1"}]}}}}}, {"name": "model_80/tf.nn.convolution_129/convolution/filter", "op": "Const", "attr": {"dtype": {"type": "DT_FLOAT"}, "value": {"tensor": {"dtype": "DT_FLOAT", "tensorShape": {"dim": [{"size": "3"}, {"size": "3"}, {"size": "1"}, {"size": "1"}]}}}}}, {"name": "model_80/tf.nn.convolution_130/convolution/filter", "op": "Const", "attr": {"dtype": {"type": "DT_FLOAT"}, "value": {"tensor": {"dtype": "DT_FLOAT", "tensorShape": {"dim": [{"size": "3"}, {"size": "3"}, {"size": "1"}, {"size": "1"}]}}}}}, {"name": "model_80/tf.nn.convolution_131/convolution/filter", "op": "Const", "attr": {"value": {"tensor": {"dtype": "DT_FLOAT", "tensorShape": {"dim": [{"size": "3"}, {"size": "3"}, {"size": "1"}, {"size": "1"}]}}}, "dtype": {"type": "DT_FLOAT"}}}, {"name": "model_80/tf.nn.convolution_132/convolution/filter", "op": "Const", "attr": {"value": {"tensor": {"dtype": "DT_FLOAT", "tensorShape": {"dim": [{"size": "3"}, {"size": "3"}, {"size": "1"}, {"size": "1"}]}}}, "dtype": {"type": "DT_FLOAT"}}}, {"name": "model_80/tf.nn.convolution_133/convolution/filter", "op": "Const", "attr": {"value": {"tensor": {"dtype": "DT_FLOAT", "tensorShape": {"dim": [{"size": "3"}, {"size": "3"}, {"size": "1"}, {"size": "1"}]}}}, "dtype": {"type": "DT_FLOAT"}}}, {"name": "model_80/tf.nn.convolution_134/convolution/filter", "op": "Const", "attr": {"value": {"tensor": {"dtype": "DT_FLOAT", "tensorShape": {"dim": [{"size": "3"}, {"size": "3"}, {"size": "1"}, {"size": "1"}]}}}, "dtype": {"type": "DT_FLOAT"}}}, {"name": "model_80/tf.nn.convolution_135/convolution/filter", "op": "Const", "attr": {"dtype": {"type": "DT_FLOAT"}, "value": {"tensor": {"dtype": "DT_FLOAT", "tensorShape": {"dim": [{"size": "3"}, {"size": "3"}, {"size": "1"}, {"size": "1"}]}}}}}, {"name": "model_80/tf.nn.convolution_136/convolution/filter", "op": "Const", "attr": {"value": {"tensor": {"dtype": "DT_FLOAT", "tensorShape": {"dim": [{"size": "3"}, {"size": "3"}, {"size": "1"}, {"size": "1"}]}}}, "dtype": {"type": "DT_FLOAT"}}}, {"name": "model_80/tf.nn.convolution_137/convolution/filter", "op": "Const", "attr": {"dtype": {"type": "DT_FLOAT"}, "value": {"tensor": {"dtype": "DT_FLOAT", "tensorShape": {"dim": [{"size": "3"}, {"size": "3"}, {"size": "1"}, {"size": "1"}]}}}}}, {"name": "model_80/tf.nn.convolution_138/convolution/filter", "op": "Const", "attr": {"value": {"tensor": {"dtype": "DT_FLOAT", "tensorShape": {"dim": [{"size": "3"}, {"size": "3"}, {"size": "1"}, {"size": "1"}]}}}, "dtype": {"type": "DT_FLOAT"}}}, {"name": "model_80/tf.nn.convolution_139/convolution/filter", "op": "Const", "attr": {"value": {"tensor": {"dtype": "DT_FLOAT", "tensorShape": {"dim": [{"size": "3"}, {"size": "3"}, {"size": "1"}, {"size": "1"}]}}}, "dtype": {"type": "DT_FLOAT"}}}, {"name": "model_80/tf.nn.convolution_140/convolution/filter", "op": "Const", "attr": {"dtype": {"type": "DT_FLOAT"}, "value": {"tensor": {"dtype": "DT_FLOAT", "tensorShape": {"dim": [{"size": "3"}, {"size": "3"}, {"size": "1"}, {"size": "1"}]}}}}}, {"name": "model_80/tf.nn.convolution_141/convolution/filter", "op": "Const", "attr": {"value": {"tensor": {"dtype": "DT_FLOAT", "tensorShape": {"dim": [{"size": "3"}, {"size": "3"}, {"size": "1"}, {"size": "1"}]}}}, "dtype": {"type": "DT_FLOAT"}}}, {"name": "model_80/tf.nn.convolution_142/convolution/filter", "op": "Const", "attr": {"value": {"tensor": {"dtype": "DT_FLOAT", "tensorShape": {"dim": [{"size": "3"}, {"size": "3"}, {"size": "1"}, {"size": "1"}]}}}, "dtype": {"type": "DT_FLOAT"}}}, {"name": "model_80/tf.nn.convolution_143/convolution/filter", "op": "Const", "attr": {"value": {"tensor": {"dtype": "DT_FLOAT", "tensorShape": {"dim": [{"size": "3"}, {"size": "3"}, {"size": "1"}, {"size": "1"}]}}}, "dtype": {"type": "DT_FLOAT"}}}, {"name": "model_80/tf.nn.convolution_144/convolution/filter", "op": "Const", "attr": {"value": {"tensor": {"dtype": "DT_FLOAT", "tensorShape": {"dim": [{"size": "3"}, {"size": "3"}, {"size": "1"}, {"size": "1"}]}}}, "dtype": {"type": "DT_FLOAT"}}}, {"name": "model_80/tf.nn.convolution_145/convolution/filter", "op": "Const", "attr": {"value": {"tensor": {"dtype": "DT_FLOAT", "tensorShape": {"dim": [{"size": "3"}, {"size": "3"}, {"size": "1"}, {"size": "1"}]}}}, "dtype": {"type": "DT_FLOAT"}}}, {"name": "model_80/tf.nn.convolution_146/convolution/filter", "op": "Const", "attr": {"dtype": {"type": "DT_FLOAT"}, "value": {"tensor": {"dtype": "DT_FLOAT", "tensorShape": {"dim": [{"size": "3"}, {"size": "3"}, {"size": "1"}, {"size": "1"}]}}}}}, {"name": "model_80/tf.nn.convolution_147/convolution/filter", "op": "Const", "attr": {"value": {"tensor": {"dtype": "DT_FLOAT", "tensorShape": {"dim": [{"size": "3"}, {"size": "3"}, {"size": "1"}, {"size": "1"}]}}}, "dtype": {"type": "DT_FLOAT"}}}, {"name": "model_80/tf.nn.convolution_148/convolution/filter", "op": "Const", "attr": {"dtype": {"type": "DT_FLOAT"}, "value": {"tensor": {"dtype": "DT_FLOAT", "tensorShape": {"dim": [{"size": "3"}, {"size": "3"}, {"size": "1"}, {"size": "1"}]}}}}}, {"name": "model_80/tf.nn.convolution_149/convolution/filter", "op": "Const", "attr": {"value": {"tensor": {"dtype": "DT_FLOAT", "tensorShape": {"dim": [{"size": "3"}, {"size": "3"}, {"size": "1"}, {"size": "1"}]}}}, "dtype": {"type": "DT_FLOAT"}}}, {"name": "model_80/tf.nn.convolution_150/convolution/filter", "op": "Const", "attr": {"value": {"tensor": {"dtype": "DT_FLOAT", "tensorShape": {"dim": [{"size": "3"}, {"size": "3"}, {"size": "1"}, {"size": "1"}]}}}, "dtype": {"type": "DT_FLOAT"}}}, {"name": "model_80/tf.nn.convolution_151/convolution/filter", "op": "Const", "attr": {"dtype": {"type": "DT_FLOAT"}, "value": {"tensor": {"dtype": "DT_FLOAT", "tensorShape": {"dim": [{"size": "3"}, {"size": "3"}, {"size": "1"}, {"size": "1"}]}}}}}, {"name": "model_80/tf.nn.convolution_152/convolution/filter", "op": "Const", "attr": {"value": {"tensor": {"dtype": "DT_FLOAT", "tensorShape": {"dim": [{"size": "3"}, {"size": "3"}, {"size": "1"}, {"size": "1"}]}}}, "dtype": {"type": "DT_FLOAT"}}}, {"name": "model_80/tf.nn.convolution_153/convolution/filter", "op": "Const", "attr": {"value": {"tensor": {"dtype": "DT_FLOAT", "tensorShape": {"dim": [{"size": "3"}, {"size": "3"}, {"size": "1"}, {"size": "1"}]}}}, "dtype": {"type": "DT_FLOAT"}}}, {"name": "model_80/tf.nn.convolution_154/convolution/filter", "op": "Const", "attr": {"value": {"tensor": {"dtype": "DT_FLOAT", "tensorShape": {"dim": [{"size": "3"}, {"size": "3"}, {"size": "1"}, {"size": "1"}]}}}, "dtype": {"type": "DT_FLOAT"}}}, {"name": "model_80/tf.nn.convolution_155/convolution/filter", "op": "Const", "attr": {"value": {"tensor": {"dtype": "DT_FLOAT", "tensorShape": {"dim": [{"size": "3"}, {"size": "3"}, {"size": "1"}, {"size": "1"}]}}}, "dtype": {"type": "DT_FLOAT"}}}, {"name": "model_80/tf.nn.convolution_156/convolution/filter", "op": "Const", "attr": {"value": {"tensor": {"dtype": "DT_FLOAT", "tensorShape": {"dim": [{"size": "3"}, {"size": "3"}, {"size": "1"}, {"size": "1"}]}}}, "dtype": {"type": "DT_FLOAT"}}}, {"name": "model_80/tf.nn.convolution_157/convolution/filter", "op": "Const", "attr": {"dtype": {"type": "DT_FLOAT"}, "value": {"tensor": {"dtype": "DT_FLOAT", "tensorShape": {"dim": [{"size": "3"}, {"size": "3"}, {"size": "1"}, {"size": "1"}]}}}}}, {"name": "model_80/tf.nn.convolution_158/convolution/filter", "op": "Const", "attr": {"value": {"tensor": {"dtype": "DT_FLOAT", "tensorShape": {"dim": [{"size": "3"}, {"size": "3"}, {"size": "1"}, {"size": "1"}]}}}, "dtype": {"type": "DT_FLOAT"}}}, {"name": "model_80/tf.nn.convolution_159/convolution/filter", "op": "Const", "attr": {"dtype": {"type": "DT_FLOAT"}, "value": {"tensor": {"dtype": "DT_FLOAT", "tensorShape": {"dim": [{"size": "3"}, {"size": "3"}, {"size": "1"}, {"size": "1"}]}}}}}, {"name": "model_80/tf.nn.convolution_160/convolution/filter", "op": "Const", "attr": {"value": {"tensor": {"dtype": "DT_FLOAT", "tensorShape": {"dim": [{"size": "3"}, {"size": "3"}, {"size": "1"}, {"size": "1"}]}}}, "dtype": {"type": "DT_FLOAT"}}}, {"name": "model_80/tf.nn.convolution_161/convolution/filter", "op": "Const", "attr": {"value": {"tensor": {"dtype": "DT_FLOAT", "tensorShape": {"dim": [{"size": "3"}, {"size": "3"}, {"size": "1"}, {"size": "1"}]}}}, "dtype": {"type": "DT_FLOAT"}}}, {"name": "model_80/tf.nn.convolution_162/convolution/filter", "op": "Const", "attr": {"value": {"tensor": {"dtype": "DT_FLOAT", "tensorShape": {"dim": [{"size": "3"}, {"size": "3"}, {"size": "1"}, {"size": "1"}]}}}, "dtype": {"type": "DT_FLOAT"}}}, {"name": "model_80/tf.nn.convolution_163/convolution/filter", "op": "Const", "attr": {"value": {"tensor": {"dtype": "DT_FLOAT", "tensorShape": {"dim": [{"size": "3"}, {"size": "3"}, {"size": "1"}, {"size": "1"}]}}}, "dtype": {"type": "DT_FLOAT"}}}, {"name": "model_80/tf.nn.convolution_164/convolution/filter", "op": "Const", "attr": {"value": {"tensor": {"dtype": "DT_FLOAT", "tensorShape": {"dim": [{"size": "3"}, {"size": "3"}, {"size": "1"}, {"size": "1"}]}}}, "dtype": {"type": "DT_FLOAT"}}}, {"name": "model_80/tf.nn.convolution_165/convolution/filter", "op": "Const", "attr": {"value": {"tensor": {"dtype": "DT_FLOAT", "tensorShape": {"dim": [{"size": "3"}, {"size": "3"}, {"size": "1"}, {"size": "1"}]}}}, "dtype": {"type": "DT_FLOAT"}}}, {"name": "model_80/tf.nn.convolution_166/convolution/filter", "op": "Const", "attr": {"value": {"tensor": {"dtype": "DT_FLOAT", "tensorShape": {"dim": [{"size": "3"}, {"size": "3"}, {"size": "1"}, {"size": "1"}]}}}, "dtype": {"type": "DT_FLOAT"}}}, {"name": "model_80/tf.nn.convolution_167/convolution/filter", "op": "Const", "attr": {"value": {"tensor": {"dtype": "DT_FLOAT", "tensorShape": {"dim": [{"size": "3"}, {"size": "3"}, {"size": "1"}, {"size": "1"}]}}}, "dtype": {"type": "DT_FLOAT"}}}, {"name": "model_80/tf.nn.convolution_168/convolution/filter", "op": "Const", "attr": {"value": {"tensor": {"dtype": "DT_FLOAT", "tensorShape": {"dim": [{"size": "3"}, {"size": "3"}, {"size": "1"}, {"size": "1"}]}}}, "dtype": {"type": "DT_FLOAT"}}}, {"name": "model_80/tf.nn.convolution_169/convolution/filter", "op": "Const", "attr": {"value": {"tensor": {"dtype": "DT_FLOAT", "tensorShape": {"dim": [{"size": "3"}, {"size": "3"}, {"size": "1"}, {"size": "1"}]}}}, "dtype": {"type": "DT_FLOAT"}}}, {"name": "model_80/tf.nn.convolution_170/convolution/filter", "op": "Const", "attr": {"dtype": {"type": "DT_FLOAT"}, "value": {"tensor": {"dtype": "DT_FLOAT", "tensorShape": {"dim": [{"size": "3"}, {"size": "3"}, {"size": "1"}, {"size": "1"}]}}}}}, {"name": "model_80/tf.nn.convolution_171/convolution/filter", "op": "Const", "attr": {"value": {"tensor": {"dtype": "DT_FLOAT", "tensorShape": {"dim": [{"size": "3"}, {"size": "3"}, {"size": "1"}, {"size": "1"}]}}}, "dtype": {"type": "DT_FLOAT"}}}, {"name": "model_80/tf.nn.convolution_172/convolution/filter", "op": "Const", "attr": {"dtype": {"type": "DT_FLOAT"}, "value": {"tensor": {"dtype": "DT_FLOAT", "tensorShape": {"dim": [{"size": "3"}, {"size": "3"}, {"size": "1"}, {"size": "1"}]}}}}}, {"name": "model_80/tf.nn.convolution_173/convolution/filter", "op": "Const", "attr": {"value": {"tensor": {"dtype": "DT_FLOAT", "tensorShape": {"dim": [{"size": "3"}, {"size": "3"}, {"size": "1"}, {"size": "1"}]}}}, "dtype": {"type": "DT_FLOAT"}}}, {"name": "model_80/tf.nn.convolution_174/convolution/filter", "op": "Const", "attr": {"value": {"tensor": {"dtype": "DT_FLOAT", "tensorShape": {"dim": [{"size": "3"}, {"size": "3"}, {"size": "1"}, {"size": "1"}]}}}, "dtype": {"type": "DT_FLOAT"}}}, {"name": "model_80/tf.split_1/split/split_dim", "op": "Const", "attr": {"value": {"tensor": {"dtype": "DT_INT32", "tensorShape": {}}}, "dtype": {"type": "DT_INT32"}}}, {"name": "model_80/tf.split/split/split_dim", "op": "Const", "attr": {"dtype": {"type": "DT_INT32"}, "value": {"tensor": {"dtype": "DT_INT32", "tensorShape": {}}}}}, {"name": "model_80/tf.strided_slice_6/ones_like/tensor", "op": "Const", "attr": {"dtype": {"type": "DT_INT64"}, "value": {"tensor": {"dtype": "DT_INT64", "tensorShape": {"dim": [{"size": "4"}]}}}}}, {"name": "model_80/tf.strided_slice_6/StridedSlice/end", "op": "Const", "attr": {"value": {"tensor": {"dtype": "DT_INT64", "tensorShape": {"dim": [{"size": "4"}]}}}, "dtype": {"type": "DT_INT64"}}}, {"name": "model_80/tf.strided_slice_6/ones_like", "op": "Const", "attr": {"value": {"tensor": {"dtype": "DT_INT64", "tensorShape": {"dim": [{"size": "4"}]}}}, "dtype": {"type": "DT_INT64"}}}, {"name": "model_80/tf.nn.convolution_36/convolution/filter", "op": "Const", "attr": {"value": {"tensor": {"dtype": "DT_FLOAT", "tensorShape": {"dim": [{"size": "1"}, {"size": "1"}, {"size": "128"}, {"size": "64"}]}}}, "dtype": {"type": "DT_FLOAT"}}}, {"name": "model_80/tf.math.add_44/Add/y", "op": "Const", "attr": {"dtype": {"type": "DT_FLOAT"}, "value": {"tensor": {"dtype": "DT_FLOAT", "tensorShape": {"dim": [{"size": "64"}]}}}}}, {"name": "model_80/tf.nn.convolution_38/convolution/filter", "op": "Const", "attr": {"dtype": {"type": "DT_FLOAT"}, "value": {"tensor": {"dtype": "DT_FLOAT", "tensorShape": {"dim": [{"size": "3"}, {"size": "3"}, {"size": "64"}, {"size": "64"}]}}}}}, {"name": "model_80/tf.math.add_46/Add/y", "op": "Const", "attr": {"value": {"tensor": {"dtype": "DT_FLOAT", "tensorShape": {"dim": [{"size": "64"}]}}}, "dtype": {"type": "DT_FLOAT"}}}, {"name": "model_80/tf.nn.convolution_39/convolution/filter", "op": "Const", "attr": {"value": {"tensor": {"dtype": "DT_FLOAT", "tensorShape": {"dim": [{"size": "3"}, {"size": "3"}, {"size": "64"}, {"size": "64"}]}}}, "dtype": {"type": "DT_FLOAT"}}}, {"name": "model_80/tf.math.add_47/Add/y", "op": "Const", "attr": {"dtype": {"type": "DT_FLOAT"}, "value": {"tensor": {"dtype": "DT_FLOAT", "tensorShape": {"dim": [{"size": "64"}]}}}}}, {"name": "model_80/tf.nn.convolution_40/convolution/filter", "op": "Const", "attr": {"value": {"tensor": {"dtype": "DT_FLOAT", "tensorShape": {"dim": [{"size": "3"}, {"size": "3"}, {"size": "64"}, {"size": "64"}]}}}, "dtype": {"type": "DT_FLOAT"}}}, {"name": "model_80/tf.math.add_50/Add/y", "op": "Const", "attr": {"dtype": {"type": "DT_FLOAT"}, "value": {"tensor": {"dtype": "DT_FLOAT", "tensorShape": {"dim": [{"size": "64"}]}}}}}, {"name": "model_80/tf.nn.convolution_41/convolution/filter", "op": "Const", "attr": {"value": {"tensor": {"dtype": "DT_FLOAT", "tensorShape": {"dim": [{"size": "3"}, {"size": "3"}, {"size": "64"}, {"size": "64"}]}}}, "dtype": {"type": "DT_FLOAT"}}}, {"name": "model_80/tf.math.add_51/Add/y", "op": "Const", "attr": {"dtype": {"type": "DT_FLOAT"}, "value": {"tensor": {"dtype": "DT_FLOAT", "tensorShape": {"dim": [{"size": "64"}]}}}}}, {"name": "model_80/tf.strided_slice_4/ones_like/tensor", "op": "Const", "attr": {"value": {"tensor": {"dtype": "DT_INT64", "tensorShape": {"dim": [{"size": "4"}]}}}, "dtype": {"type": "DT_INT64"}}}, {"name": "model_80/tf.strided_slice_4/StridedSlice/end", "op": "Const", "attr": {"value": {"tensor": {"dtype": "DT_INT64", "tensorShape": {"dim": [{"size": "4"}]}}}, "dtype": {"type": "DT_INT64"}}}, {"name": "model_80/tf.strided_slice_4/ones_like", "op": "Const", "attr": {"dtype": {"type": "DT_INT64"}, "value": {"tensor": {"dtype": "DT_INT64", "tensorShape": {"dim": [{"size": "4"}]}}}}}, {"name": "model_80/tf.nn.convolution_22/convolution/filter", "op": "Const", "attr": {"dtype": {"type": "DT_FLOAT"}, "value": {"tensor": {"dtype": "DT_FLOAT", "tensorShape": {"dim": [{"size": "1"}, {"size": "1"}, {"size": "64"}, {"size": "32"}]}}}}}, {"name": "model_80/tf.math.add_26/Add/y", "op": "Const", "attr": {"dtype": {"type": "DT_FLOAT"}, "value": {"tensor": {"dtype": "DT_FLOAT", "tensorShape": {"dim": [{"size": "32"}]}}}}}, {"name": "model_80/tf.nn.convolution_26/convolution/filter", "op": "Const", "attr": {"value": {"tensor": {"dtype": "DT_FLOAT", "tensorShape": {"dim": [{"size": "3"}, {"size": "3"}, {"size": "32"}, {"size": "32"}]}}}, "dtype": {"type": "DT_FLOAT"}}}, {"name": "model_80/tf.math.add_30/Add/y", "op": "Const", "attr": {"value": {"tensor": {"dtype": "DT_FLOAT", "tensorShape": {"dim": [{"size": "32"}]}}}, "dtype": {"type": "DT_FLOAT"}}}, {"name": "model_80/tf.nn.convolution_27/convolution/filter", "op": "Const", "attr": {"value": {"tensor": {"dtype": "DT_FLOAT", "tensorShape": {"dim": [{"size": "3"}, {"size": "3"}, {"size": "32"}, {"size": "32"}]}}}, "dtype": {"type": "DT_FLOAT"}}}, {"name": "model_80/tf.math.add_31/Add/y", "op": "Const", "attr": {"dtype": {"type": "DT_FLOAT"}, "value": {"tensor": {"dtype": "DT_FLOAT", "tensorShape": {"dim": [{"size": "32"}]}}}}}, {"name": "model_80/tf.nn.convolution_28/convolution/filter", "op": "Const", "attr": {"value": {"tensor": {"dtype": "DT_FLOAT", "tensorShape": {"dim": [{"size": "3"}, {"size": "3"}, {"size": "32"}, {"size": "32"}]}}}, "dtype": {"type": "DT_FLOAT"}}}, {"name": "model_80/tf.math.add_34/Add/y", "op": "Const", "attr": {"value": {"tensor": {"dtype": "DT_FLOAT", "tensorShape": {"dim": [{"size": "32"}]}}}, "dtype": {"type": "DT_FLOAT"}}}, {"name": "model_80/tf.nn.convolution_29/convolution/filter", "op": "Const", "attr": {"value": {"tensor": {"dtype": "DT_FLOAT", "tensorShape": {"dim": [{"size": "3"}, {"size": "3"}, {"size": "32"}, {"size": "32"}]}}}, "dtype": {"type": "DT_FLOAT"}}}, {"name": "model_80/tf.math.add_35/Add/y", "op": "Const", "attr": {"value": {"tensor": {"dtype": "DT_FLOAT", "tensorShape": {"dim": [{"size": "32"}]}}}, "dtype": {"type": "DT_FLOAT"}}}, {"name": "model_80/tf.strided_slice_2/ones_like/tensor", "op": "Const", "attr": {"value": {"tensor": {"dtype": "DT_INT64", "tensorShape": {"dim": [{"size": "4"}]}}}, "dtype": {"type": "DT_INT64"}}}, {"name": "model_80/tf.strided_slice_2/StridedSlice/end", "op": "Const", "attr": {"dtype": {"type": "DT_INT64"}, "value": {"tensor": {"dtype": "DT_INT64", "tensorShape": {"dim": [{"size": "4"}]}}}}}, {"name": "model_80/tf.strided_slice_2/ones_like", "op": "Const", "attr": {"value": {"tensor": {"dtype": "DT_INT64", "tensorShape": {"dim": [{"size": "4"}]}}}, "dtype": {"type": "DT_INT64"}}}, {"name": "model_80/tf.strided_slice/ones_like/tensor", "op": "Const", "attr": {"value": {"tensor": {"dtype": "DT_INT64", "tensorShape": {"dim": [{"size": "4"}]}}}, "dtype": {"type": "DT_INT64"}}}, {"name": "model_80/tf.strided_slice/StridedSlice/end", "op": "Const", "attr": {"value": {"tensor": {"dtype": "DT_INT64", "tensorShape": {"dim": [{"size": "4"}]}}}, "dtype": {"type": "DT_INT64"}}}, {"name": "model_80/tf.strided_slice/ones_like", "op": "Const", "attr": {"dtype": {"type": "DT_INT64"}, "value": {"tensor": {"dtype": "DT_INT64", "tensorShape": {"dim": [{"size": "4"}]}}}}}, {"name": "model_80/tf.compat.v1.pad/Pad/paddings", "op": "Const", "attr": {"value": {"tensor": {"dtype": "DT_INT32", "tensorShape": {"dim": [{"size": "4"}, {"size": "2"}]}}}, "dtype": {"type": "DT_INT32"}}}, {"name": "model_80/tf.nn.convolution/convolution/filter", "op": "Const", "attr": {"dtype": {"type": "DT_FLOAT"}, "value": {"tensor": {"dtype": "DT_FLOAT", "tensorShape": {"dim": [{"size": "3"}, {"size": "3"}, {"size": "3"}, {"size": "16"}]}}}}}, {"name": "model_80/tf.math.add/Add/y", "op": "Const", "attr": {"value": {"tensor": {"dtype": "DT_FLOAT", "tensorShape": {"dim": [{"size": "16"}]}}}, "dtype": {"type": "DT_FLOAT"}}}, {"name": "model_80/tf.compat.v1.pad_1/Pad/paddings", "op": "Const", "attr": {"value": {"tensor": {"dtype": "DT_INT32", "tensorShape": {"dim": [{"size": "4"}, {"size": "2"}]}}}, "dtype": {"type": "DT_INT32"}}}, {"name": "model_80/tf.nn.convolution_1/convolution/filter", "op": "Const", "attr": {"dtype": {"type": "DT_FLOAT"}, "value": {"tensor": {"dtype": "DT_FLOAT", "tensorShape": {"dim": [{"size": "3"}, {"size": "3"}, {"size": "16"}, {"size": "32"}]}}}}}, {"name": "model_80/tf.math.add_1/Add/y", "op": "Const", "attr": {"value": {"tensor": {"dtype": "DT_FLOAT", "tensorShape": {"dim": [{"size": "32"}]}}}, "dtype": {"type": "DT_FLOAT"}}}, {"name": "model_80/tf.nn.convolution_2/convolution/filter", "op": "Const", "attr": {"value": {"tensor": {"dtype": "DT_FLOAT", "tensorShape": {"dim": [{"size": "1"}, {"size": "1"}, {"size": "32"}, {"size": "32"}]}}}, "dtype": {"type": "DT_FLOAT"}}}, {"name": "model_80/tf.math.add_2/Add/y", "op": "Const", "attr": {"dtype": {"type": "DT_FLOAT"}, "value": {"tensor": {"dtype": "DT_FLOAT", "tensorShape": {"dim": [{"size": "32"}]}}}}}, {"name": "model_80/tf.strided_slice_1/ones_like/tensor", "op": "Const", "attr": {"dtype": {"type": "DT_INT64"}, "value": {"tensor": {"dtype": "DT_INT64", "tensorShape": {"dim": [{"size": "4"}]}}}}}, {"name": "model_80/tf.strided_slice_1/StridedSlice/end", "op": "Const", "attr": {"value": {"tensor": {"dtype": "DT_INT64", "tensorShape": {"dim": [{"size": "4"}]}}}, "dtype": {"type": "DT_INT64"}}}, {"name": "model_80/tf.strided_slice_1/ones_like", "op": "Const", "attr": {"value": {"tensor": {"dtype": "DT_INT64", "tensorShape": {"dim": [{"size": "4"}]}}}, "dtype": {"type": "DT_INT64"}}}, {"name": "model_80/tf.nn.convolution_3/convolution/filter", "op": "Const", "attr": {"value": {"tensor": {"dtype": "DT_FLOAT", "tensorShape": {"dim": [{"size": "3"}, {"size": "3"}, {"size": "16"}, {"size": "8"}]}}}, "dtype": {"type": "DT_FLOAT"}}}, {"name": "model_80/tf.math.add_3/Add/y", "op": "Const", "attr": {"dtype": {"type": "DT_FLOAT"}, "value": {"tensor": {"dtype": "DT_FLOAT", "tensorShape": {"dim": [{"size": "8"}]}}}}}, {"name": "model_80/tf.nn.convolution_4/convolution/filter", "op": "Const", "attr": {"value": {"tensor": {"dtype": "DT_FLOAT", "tensorShape": {"dim": [{"size": "3"}, {"size": "3"}, {"size": "8"}, {"size": "16"}]}}}, "dtype": {"type": "DT_FLOAT"}}}, {"name": "model_80/tf.math.add_4/Add/y", "op": "Const", "attr": {"value": {"tensor": {"dtype": "DT_FLOAT", "tensorShape": {"dim": [{"size": "16"}]}}}, "dtype": {"type": "DT_FLOAT"}}}, {"name": "model_80/tf.concat/concat/axis", "op": "Const", "attr": {"value": {"tensor": {"dtype": "DT_INT32", "tensorShape": {}}}, "dtype": {"type": "DT_INT32"}}}, {"name": "model_80/tf.nn.convolution_5/convolution/filter", "op": "Const", "attr": {"value": {"tensor": {"dtype": "DT_FLOAT", "tensorShape": {"dim": [{"size": "1"}, {"size": "1"}, {"size": "48"}, {"size": "64"}]}}}, "dtype": {"type": "DT_FLOAT"}}}, {"name": "model_80/tf.math.add_7/Add/y", "op": "Const", "attr": {"value": {"tensor": {"dtype": "DT_FLOAT", "tensorShape": {"dim": [{"size": "64"}]}}}, "dtype": {"type": "DT_FLOAT"}}}, {"name": "model_80/tf.compat.v1.pad_2/Pad/paddings", "op": "Const", "attr": {"dtype": {"type": "DT_INT32"}, "value": {"tensor": {"dtype": "DT_INT32", "tensorShape": {"dim": [{"size": "4"}, {"size": "2"}]}}}}}, {"name": "model_80/tf.nn.convolution_6/convolution/filter", "op": "Const", "attr": {"value": {"tensor": {"dtype": "DT_FLOAT", "tensorShape": {"dim": [{"size": "3"}, {"size": "3"}, {"size": "64"}, {"size": "64"}]}}}, "dtype": {"type": "DT_FLOAT"}}}, {"name": "model_80/tf.math.add_8/Add/y", "op": "Const", "attr": {"dtype": {"type": "DT_FLOAT"}, "value": {"tensor": {"dtype": "DT_FLOAT", "tensorShape": {"dim": [{"size": "64"}]}}}}}, {"name": "model_80/tf.nn.convolution_7/convolution/filter", "op": "Const", "attr": {"value": {"tensor": {"dtype": "DT_FLOAT", "tensorShape": {"dim": [{"size": "1"}, {"size": "1"}, {"size": "64"}, {"size": "64"}]}}}, "dtype": {"type": "DT_FLOAT"}}}, {"name": "model_80/tf.math.add_9/Add/y", "op": "Const", "attr": {"dtype": {"type": "DT_FLOAT"}, "value": {"tensor": {"dtype": "DT_FLOAT", "tensorShape": {"dim": [{"size": "64"}]}}}}}, {"name": "model_80/tf.strided_slice_3/ones_like/tensor", "op": "Const", "attr": {"value": {"tensor": {"dtype": "DT_INT64", "tensorShape": {"dim": [{"size": "4"}]}}}, "dtype": {"type": "DT_INT64"}}}, {"name": "model_80/tf.strided_slice_3/StridedSlice/end", "op": "Const", "attr": {"dtype": {"type": "DT_INT64"}, "value": {"tensor": {"dtype": "DT_INT64", "tensorShape": {"dim": [{"size": "4"}]}}}}}, {"name": "model_80/tf.strided_slice_3/ones_like", "op": "Const", "attr": {"value": {"tensor": {"dtype": "DT_INT64", "tensorShape": {"dim": [{"size": "4"}]}}}, "dtype": {"type": "DT_INT64"}}}, {"name": "model_80/tf.nn.convolution_8/convolution/filter", "op": "Const", "attr": {"dtype": {"type": "DT_FLOAT"}, "value": {"tensor": {"dtype": "DT_FLOAT", "tensorShape": {"dim": [{"size": "3"}, {"size": "3"}, {"size": "32"}, {"size": "16"}]}}}}}, {"name": "model_80/tf.math.add_10/Add/y", "op": "Const", "attr": {"value": {"tensor": {"dtype": "DT_FLOAT", "tensorShape": {"dim": [{"size": "16"}]}}}, "dtype": {"type": "DT_FLOAT"}}}, {"name": "model_80/tf.nn.convolution_9/convolution/filter", "op": "Const", "attr": {"dtype": {"type": "DT_FLOAT"}, "value": {"tensor": {"dtype": "DT_FLOAT", "tensorShape": {"dim": [{"size": "3"}, {"size": "3"}, {"size": "16"}, {"size": "32"}]}}}}}, {"name": "model_80/tf.math.add_11/Add/y", "op": "Const", "attr": {"dtype": {"type": "DT_FLOAT"}, "value": {"tensor": {"dtype": "DT_FLOAT", "tensorShape": {"dim": [{"size": "32"}]}}}}}, {"name": "model_80/tf.concat_1/concat/axis", "op": "Const", "attr": {"value": {"tensor": {"dtype": "DT_INT32", "tensorShape": {}}}, "dtype": {"type": "DT_INT32"}}}, {"name": "model_80/tf.nn.convolution_10/convolution/filter", "op": "Const", "attr": {"value": {"tensor": {"dtype": "DT_FLOAT", "tensorShape": {"dim": [{"size": "1"}, {"size": "1"}, {"size": "96"}, {"size": "128"}]}}}, "dtype": {"type": "DT_FLOAT"}}}, {"name": "model_80/tf.math.add_14/Add/y", "op": "Const", "attr": {"dtype": {"type": "DT_FLOAT"}, "value": {"tensor": {"dtype": "DT_FLOAT", "tensorShape": {"dim": [{"size": "128"}]}}}}}, {"name": "model_80/tf.compat.v1.pad_3/Pad/paddings", "op": "Const", "attr": {"dtype": {"type": "DT_INT32"}, "value": {"tensor": {"dtype": "DT_INT32", "tensorShape": {"dim": [{"size": "4"}, {"size": "2"}]}}}}}, {"name": "model_80/tf.nn.convolution_18/convolution/filter", "op": "Const", "attr": {"value": {"tensor": {"dtype": "DT_FLOAT", "tensorShape": {"dim": [{"size": "3"}, {"size": "3"}, {"size": "128"}, {"size": "128"}]}}}, "dtype": {"type": "DT_FLOAT"}}}, {"name": "model_80/tf.math.add_22/Add/y", "op": "Const", "attr": {"value": {"tensor": {"dtype": "DT_FLOAT", "tensorShape": {"dim": [{"size": "128"}]}}}, "dtype": {"type": "DT_FLOAT"}}}, {"name": "model_80/tf.nn.convolution_19/convolution/filter", "op": "Const", "attr": {"value": {"tensor": {"dtype": "DT_FLOAT", "tensorShape": {"dim": [{"size": "1"}, {"size": "1"}, {"size": "128"}, {"size": "128"}]}}}, "dtype": {"type": "DT_FLOAT"}}}, {"name": "model_80/tf.math.add_23/Add/y", "op": "Const", "attr": {"value": {"tensor": {"dtype": "DT_FLOAT", "tensorShape": {"dim": [{"size": "128"}]}}}, "dtype": {"type": "DT_FLOAT"}}}, {"name": "model_80/tf.strided_slice_5/ones_like/tensor", "op": "Const", "attr": {"dtype": {"type": "DT_INT64"}, "value": {"tensor": {"dtype": "DT_INT64", "tensorShape": {"dim": [{"size": "4"}]}}}}}, {"name": "model_80/tf.strided_slice_5/StridedSlice/end", "op": "Const", "attr": {"value": {"tensor": {"dtype": "DT_INT64", "tensorShape": {"dim": [{"size": "4"}]}}}, "dtype": {"type": "DT_INT64"}}}, {"name": "model_80/tf.strided_slice_5/ones_like", "op": "Const", "attr": {"dtype": {"type": "DT_INT64"}, "value": {"tensor": {"dtype": "DT_INT64", "tensorShape": {"dim": [{"size": "4"}]}}}}}, {"name": "model_80/tf.nn.convolution_25/convolution/filter", "op": "Const", "attr": {"dtype": {"type": "DT_FLOAT"}, "value": {"tensor": {"dtype": "DT_FLOAT", "tensorShape": {"dim": [{"size": "1"}, {"size": "1"}, {"size": "64"}, {"size": "32"}]}}}}}, {"name": "model_80/tf.math.add_29/Add/y", "op": "Const", "attr": {"dtype": {"type": "DT_FLOAT"}, "value": {"tensor": {"dtype": "DT_FLOAT", "tensorShape": {"dim": [{"size": "32"}]}}}}}, {"name": "model_80/tf.concat_2/concat/axis", "op": "Const", "attr": {"value": {"tensor": {"dtype": "DT_INT32", "tensorShape": {}}}, "dtype": {"type": "DT_INT32"}}}, {"name": "model_80/tf.nn.convolution_32/convolution/filter", "op": "Const", "attr": {"dtype": {"type": "DT_FLOAT"}, "value": {"tensor": {"dtype": "DT_FLOAT", "tensorShape": {"dim": [{"size": "1"}, {"size": "1"}, {"size": "64"}, {"size": "64"}]}}}}}, {"name": "model_80/tf.math.add_40/Add/y", "op": "Const", "attr": {"value": {"tensor": {"dtype": "DT_FLOAT", "tensorShape": {"dim": [{"size": "64"}]}}}, "dtype": {"type": "DT_FLOAT"}}}, {"name": "model_80/tf.concat_3/concat/axis", "op": "Const", "attr": {"dtype": {"type": "DT_INT32"}, "value": {"tensor": {"dtype": "DT_INT32", "tensorShape": {}}}}}, {"name": "model_80/tf.nn.convolution_33/convolution/filter", "op": "Const", "attr": {"value": {"tensor": {"dtype": "DT_FLOAT", "tensorShape": {"dim": [{"size": "1"}, {"size": "1"}, {"size": "192"}, {"size": "128"}]}}}, "dtype": {"type": "DT_FLOAT"}}}, {"name": "model_80/tf.math.add_41/Add/y", "op": "Const", "attr": {"value": {"tensor": {"dtype": "DT_FLOAT", "tensorShape": {"dim": [{"size": "128"}]}}}, "dtype": {"type": "DT_FLOAT"}}}, {"name": "model_80/tf.compat.v1.pad_4/Pad/paddings", "op": "Const", "attr": {"dtype": {"type": "DT_INT32"}, "value": {"tensor": {"dtype": "DT_INT32", "tensorShape": {"dim": [{"size": "4"}, {"size": "2"}]}}}}}, {"name": "model_80/tf.nn.convolution_34/convolution/filter", "op": "Const", "attr": {"dtype": {"type": "DT_FLOAT"}, "value": {"tensor": {"dtype": "DT_FLOAT", "tensorShape": {"dim": [{"size": "3"}, {"size": "3"}, {"size": "128"}, {"size": "256"}]}}}}}, {"name": "model_80/tf.math.add_42/Add/y", "op": "Const", "attr": {"dtype": {"type": "DT_FLOAT"}, "value": {"tensor": {"dtype": "DT_FLOAT", "tensorShape": {"dim": [{"size": "256"}]}}}}}, {"name": "model_80/tf.nn.convolution_35/convolution/filter", "op": "Const", "attr": {"dtype": {"type": "DT_FLOAT"}, "value": {"tensor": {"dtype": "DT_FLOAT", "tensorShape": {"dim": [{"size": "1"}, {"size": "1"}, {"size": "256"}, {"size": "256"}]}}}}}, {"name": "model_80/tf.math.add_43/Add/y", "op": "Const", "attr": {"value": {"tensor": {"dtype": "DT_FLOAT", "tensorShape": {"dim": [{"size": "256"}]}}}, "dtype": {"type": "DT_FLOAT"}}}, {"name": "model_80/tf.strided_slice_7/ones_like/tensor", "op": "Const", "attr": {"dtype": {"type": "DT_INT64"}, "value": {"tensor": {"dtype": "DT_INT64", "tensorShape": {"dim": [{"size": "4"}]}}}}}, {"name": "model_80/tf.strided_slice_7/StridedSlice/end", "op": "Const", "attr": {"value": {"tensor": {"dtype": "DT_INT64", "tensorShape": {"dim": [{"size": "4"}]}}}, "dtype": {"type": "DT_INT64"}}}, {"name": "model_80/tf.strided_slice_7/ones_like", "op": "Const", "attr": {"value": {"tensor": {"dtype": "DT_INT64", "tensorShape": {"dim": [{"size": "4"}]}}}, "dtype": {"type": "DT_INT64"}}}, {"name": "model_80/tf.nn.convolution_37/convolution/filter", "op": "Const", "attr": {"value": {"tensor": {"dtype": "DT_FLOAT", "tensorShape": {"dim": [{"size": "1"}, {"size": "1"}, {"size": "128"}, {"size": "64"}]}}}, "dtype": {"type": "DT_FLOAT"}}}, {"name": "model_80/tf.math.add_45/Add/y", "op": "Const", "attr": {"value": {"tensor": {"dtype": "DT_FLOAT", "tensorShape": {"dim": [{"size": "64"}]}}}, "dtype": {"type": "DT_FLOAT"}}}, {"name": "model_80/tf.concat_4/concat/axis", "op": "Const", "attr": {"value": {"tensor": {"dtype": "DT_INT32", "tensorShape": {}}}, "dtype": {"type": "DT_INT32"}}}, {"name": "model_80/tf.nn.convolution_42/convolution/filter", "op": "Const", "attr": {"value": {"tensor": {"dtype": "DT_FLOAT", "tensorShape": {"dim": [{"size": "1"}, {"size": "1"}, {"size": "128"}, {"size": "128"}]}}}, "dtype": {"type": "DT_FLOAT"}}}, {"name": "model_80/tf.math.add_54/Add/y", "op": "Const", "attr": {"dtype": {"type": "DT_FLOAT"}, "value": {"tensor": {"dtype": "DT_FLOAT", "tensorShape": {"dim": [{"size": "128"}]}}}}}, {"name": "model_80/tf.concat_5/concat/axis", "op": "Const", "attr": {"value": {"tensor": {"dtype": "DT_INT32", "tensorShape": {}}}, "dtype": {"type": "DT_INT32"}}}, {"name": "model_80/tf.nn.convolution_43/convolution/filter", "op": "Const", "attr": {"value": {"tensor": {"dtype": "DT_FLOAT", "tensorShape": {"dim": [{"size": "1"}, {"size": "1"}, {"size": "384"}, {"size": "256"}]}}}, "dtype": {"type": "DT_FLOAT"}}}, {"name": "model_80/tf.math.add_55/Add/y", "op": "Const", "attr": {"value": {"tensor": {"dtype": "DT_FLOAT", "tensorShape": {"dim": [{"size": "256"}]}}}, "dtype": {"type": "DT_FLOAT"}}}, {"name": "model_80/tf.nn.convolution_44/convolution/filter", "op": "Const", "attr": {"value": {"tensor": {"dtype": "DT_FLOAT", "tensorShape": {"dim": [{"size": "1"}, {"size": "1"}, {"size": "256"}, {"size": "128"}]}}}, "dtype": {"type": "DT_FLOAT"}}}, {"name": "model_80/tf.math.add_56/Add/y", "op": "Const", "attr": {"value": {"tensor": {"dtype": "DT_FLOAT", "tensorShape": {"dim": [{"size": "128"}]}}}, "dtype": {"type": "DT_FLOAT"}}}, {"name": "model_80/tf.concat_6/concat/axis", "op": "Const", "attr": {"dtype": {"type": "DT_INT32"}, "value": {"tensor": {"dtype": "DT_INT32", "tensorShape": {}}}}}, {"name": "model_80/tf.nn.convolution_45/convolution/filter", "op": "Const", "attr": {"dtype": {"type": "DT_FLOAT"}, "value": {"tensor": {"dtype": "DT_FLOAT", "tensorShape": {"dim": [{"size": "1"}, {"size": "1"}, {"size": "512"}, {"size": "256"}]}}}}}, {"name": "model_80/tf.math.add_57/Add/y", "op": "Const", "attr": {"dtype": {"type": "DT_FLOAT"}, "value": {"tensor": {"dtype": "DT_FLOAT", "tensorShape": {"dim": [{"size": "256"}]}}}}}, {"name": "model_80/tf.nn.convolution_46/convolution/filter", "op": "Const", "attr": {"value": {"tensor": {"dtype": "DT_FLOAT", "tensorShape": {"dim": [{"size": "1"}, {"size": "1"}, {"size": "256"}, {"size": "256"}]}}}, "dtype": {"type": "DT_FLOAT"}}}, {"name": "model_80/tf.math.add_58/Add/y", "op": "Const", "attr": {"value": {"tensor": {"dtype": "DT_FLOAT", "tensorShape": {"dim": [{"size": "256"}]}}}, "dtype": {"type": "DT_FLOAT"}}}, {"name": "model_80/tf.nn.convolution_47/convolution/filter", "op": "Const", "attr": {"value": {"tensor": {"dtype": "DT_FLOAT", "tensorShape": {"dim": [{"size": "1"}, {"size": "1"}, {"size": "128"}, {"size": "256"}]}}}, "dtype": {"type": "DT_FLOAT"}}}, {"name": "model_80/tf.math.add_59/Add/y", "op": "Const", "attr": {"value": {"tensor": {"dtype": "DT_FLOAT", "tensorShape": {"dim": [{"size": "256"}]}}}, "dtype": {"type": "DT_FLOAT"}}}, {"name": "model_80/tf.compat.v1.transpose_10/transpose/perm", "op": "Const", "attr": {"value": {"tensor": {"dtype": "DT_INT32", "tensorShape": {"dim": [{"size": "4"}]}}}, "dtype": {"type": "DT_INT32"}}}, {"name": "model_80/tf.reshape_2/Reshape/shape", "op": "Const", "attr": {"dtype": {"type": "DT_INT32"}, "value": {"tensor": {"dtype": "DT_INT32", "tensorShape": {"dim": [{"size": "4"}]}}}}}, {"name": "model_80/tf.strided_slice_10/StridedSlice/begin", "op": "Const", "attr": {"value": {"tensor": {"dtype": "DT_INT32", "tensorShape": {"dim": [{"size": "4"}]}}}, "dtype": {"type": "DT_INT32"}}}, {"name": "model_80/tf.strided_slice_10/StridedSlice/end", "op": "Const", "attr": {"value": {"tensor": {"dtype": "DT_INT32", "tensorShape": {"dim": [{"size": "4"}]}}}, "dtype": {"type": "DT_INT32"}}}, {"name": "model_80/tf.strided_slice_10/ones_like", "op": "Const", "attr": {"value": {"tensor": {"dtype": "DT_INT32", "tensorShape": {"dim": [{"size": "4"}]}}}, "dtype": {"type": "DT_INT32"}}}, {"name": "model_80/tf.reshape_5/Reshape/shape", "op": "Const", "attr": {"value": {"tensor": {"dtype": "DT_INT32", "tensorShape": {"dim": [{"size": "4"}]}}}, "dtype": {"type": "DT_INT32"}}}, {"name": "model_80/tf.compat.v1.transpose_18/transpose/perm", "op": "Const", "attr": {"value": {"tensor": {"dtype": "DT_INT32", "tensorShape": {"dim": [{"size": "4"}]}}}, "dtype": {"type": "DT_INT32"}}}, {"name": "model_80/tf.nn.convolution_175/convolution/filter", "op": "Const", "attr": {"value": {"tensor": {"dtype": "DT_FLOAT", "tensorShape": {"dim": [{"size": "3"}, {"size": "3"}, {"size": "1"}, {"size": "1"}]}}}, "dtype": {"type": "DT_FLOAT"}}}, {"name": "model_80/tf.concat_7/concat/axis", "op": "Const", "attr": {"dtype": {"type": "DT_INT32"}, "value": {"tensor": {"dtype": "DT_INT32", "tensorShape": {}}}}}, {"name": "model_80/tf.nn.convolution_176/convolution/filter", "op": "Const", "attr": {"dtype": {"type": "DT_FLOAT"}, "value": {"tensor": {"dtype": "DT_FLOAT", "tensorShape": {"dim": [{"size": "1"}, {"size": "1"}, {"size": "128"}, {"size": "128"}]}}}}}, {"name": "model_80/tf.nn.convolution_177/convolution/filter", "op": "Const", "attr": {"value": {"tensor": {"dtype": "DT_FLOAT", "tensorShape": {"dim": [{"size": "1"}, {"size": "1"}, {"size": "128"}, {"size": "256"}]}}}, "dtype": {"type": "DT_FLOAT"}}}, {"name": "model_80/tf.math.add_66/Add/y", "op": "Const", "attr": {"value": {"tensor": {"dtype": "DT_FLOAT", "tensorShape": {"dim": [{"size": "256"}]}}}, "dtype": {"type": "DT_FLOAT"}}}, {"name": "model_80/tf.nn.convolution_178/convolution/filter", "op": "Const", "attr": {"value": {"tensor": {"dtype": "DT_FLOAT", "tensorShape": {"dim": [{"size": "1"}, {"size": "1"}, {"size": "256"}, {"size": "128"}]}}}, "dtype": {"type": "DT_FLOAT"}}}, {"name": "model_80/tf.concat_8/concat/axis", "op": "Const", "attr": {"value": {"tensor": {"dtype": "DT_INT32", "tensorShape": {}}}, "dtype": {"type": "DT_INT32"}}}, {"name": "model_80/tf.nn.convolution_179/convolution/filter", "op": "Const", "attr": {"value": {"tensor": {"dtype": "DT_FLOAT", "tensorShape": {"dim": [{"size": "1"}, {"size": "1"}, {"size": "256"}, {"size": "256"}]}}}, "dtype": {"type": "DT_FLOAT"}}}, {"name": "model_80/tf.math.add_70/Add/y", "op": "Const", "attr": {"value": {"tensor": {"dtype": "DT_FLOAT", "tensorShape": {"dim": [{"size": "256"}]}}}, "dtype": {"type": "DT_FLOAT"}}}, {"name": "model_80/tf.concat_20/concat/axis", "op": "Const", "attr": {"value": {"tensor": {"dtype": "DT_INT32", "tensorShape": {}}}, "dtype": {"type": "DT_INT32"}}}, {"name": "model_80/tf.nn.convolution_214/convolution/filter", "op": "Const", "attr": {"dtype": {"type": "DT_FLOAT"}, "value": {"tensor": {"dtype": "DT_FLOAT", "tensorShape": {"dim": [{"size": "1"}, {"size": "1"}, {"size": "384"}, {"size": "256"}]}}}}}, {"name": "model_80/tf.math.add_114/Add/y", "op": "Const", "attr": {"dtype": {"type": "DT_FLOAT"}, "value": {"tensor": {"dtype": "DT_FLOAT", "tensorShape": {"dim": [{"size": "256"}]}}}}}, {"name": "model_80/tf.strided_slice_18/ones_like/tensor", "op": "Const", "attr": {"value": {"tensor": {"dtype": "DT_INT64", "tensorShape": {"dim": [{"size": "4"}]}}}, "dtype": {"type": "DT_INT64"}}}, {"name": "model_80/tf.strided_slice_18/StridedSlice/end", "op": "Const", "attr": {"value": {"tensor": {"dtype": "DT_INT64", "tensorShape": {"dim": [{"size": "4"}]}}}, "dtype": {"type": "DT_INT64"}}}, {"name": "model_80/tf.strided_slice_18/ones_like", "op": "Const", "attr": {"dtype": {"type": "DT_INT64"}, "value": {"tensor": {"dtype": "DT_INT64", "tensorShape": {"dim": [{"size": "4"}]}}}}}, {"name": "model_80/tf.nn.convolution_220/convolution/filter", "op": "Const", "attr": {"dtype": {"type": "DT_FLOAT"}, "value": {"tensor": {"dtype": "DT_FLOAT", "tensorShape": {"dim": [{"size": "1"}, {"size": "1"}, {"size": "128"}, {"size": "64"}]}}}}}, {"name": "model_80/tf.math.add_123/Add/y", "op": "Const", "attr": {"dtype": {"type": "DT_FLOAT"}, "value": {"tensor": {"dtype": "DT_FLOAT", "tensorShape": {"dim": [{"size": "64"}]}}}}}, {"name": "model_80/tf.concat_24/concat/axis", "op": "Const", "attr": {"dtype": {"type": "DT_INT32"}, "value": {"tensor": {"dtype": "DT_INT32", "tensorShape": {}}}}}, {"name": "model_80/tf.nn.convolution_231/convolution/filter", "op": "Const", "attr": {"dtype": {"type": "DT_FLOAT"}, "value": {"tensor": {"dtype": "DT_FLOAT", "tensorShape": {"dim": [{"size": "1"}, {"size": "1"}, {"size": "128"}, {"size": "128"}]}}}}}, {"name": "model_80/tf.math.add_138/Add/y", "op": "Const", "attr": {"dtype": {"type": "DT_FLOAT"}, "value": {"tensor": {"dtype": "DT_FLOAT", "tensorShape": {"dim": [{"size": "128"}]}}}}}, {"name": "model_80/tf.concat_25/concat/axis", "op": "Const", "attr": {"dtype": {"type": "DT_INT32"}, "value": {"tensor": {"dtype": "DT_INT32", "tensorShape": {}}}}}, {"name": "model_80/tf.nn.convolution_232/convolution/filter", "op": "Const", "attr": {"dtype": {"type": "DT_FLOAT"}, "value": {"tensor": {"dtype": "DT_FLOAT", "tensorShape": {"dim": [{"size": "1"}, {"size": "1"}, {"size": "384"}, {"size": "256"}]}}}}}, {"name": "model_80/tf.math.add_139/Add/y", "op": "Const", "attr": {"dtype": {"type": "DT_FLOAT"}, "value": {"tensor": {"dtype": "DT_FLOAT", "tensorShape": {"dim": [{"size": "256"}]}}}}}, {"name": "model_80/tf.nn.convolution_233/convolution/filter", "op": "Const", "attr": {"dtype": {"type": "DT_FLOAT"}, "value": {"tensor": {"dtype": "DT_FLOAT", "tensorShape": {"dim": [{"size": "3"}, {"size": "3"}, {"size": "256"}, {"size": "16"}]}}}}}, {"name": "model_80/tf.math.add_140/Add/y", "op": "Const", "attr": {"dtype": {"type": "DT_FLOAT"}, "value": {"tensor": {"dtype": "DT_FLOAT", "tensorShape": {"dim": [{"size": "16"}]}}}}}, {"name": "model_80/tf.nn.convolution_235/convolution/filter", "op": "Const", "attr": {"dtype": {"type": "DT_FLOAT"}, "value": {"tensor": {"dtype": "DT_FLOAT", "tensorShape": {"dim": [{"size": "3"}, {"size": "3"}, {"size": "16"}, {"size": "16"}]}}}}}, {"name": "model_80/tf.math.add_143/Add/y", "op": "Const", "attr": {"dtype": {"type": "DT_FLOAT"}, "value": {"tensor": {"dtype": "DT_FLOAT", "tensorShape": {"dim": [{"size": "16"}]}}}}}, {"name": "model_80/tf.nn.convolution_238/convolution/filter", "op": "Const", "attr": {"value": {"tensor": {"dtype": "DT_FLOAT", "tensorShape": {"dim": [{"size": "1"}, {"size": "1"}, {"size": "16"}, {"size": "1"}]}}}, "dtype": {"type": "DT_FLOAT"}}}, {"name": "model_80/tf.math.add_146/Add/y", "op": "Const", "attr": {"dtype": {"type": "DT_FLOAT"}, "value": {"tensor": {"dtype": "DT_FLOAT", "tensorShape": {"dim": [{"size": "1"}]}}}}}, {"name": "model_80/tf.compat.v1.transpose_75/transpose/perm", "op": "Const", "attr": {"value": {"tensor": {"dtype": "DT_INT32", "tensorShape": {"dim": [{"size": "4"}]}}}, "dtype": {"type": "DT_INT32"}}}, {"name": "model_80/tf.reshape_23/Reshape/shape", "op": "Const", "attr": {"dtype": {"type": "DT_INT32"}, "value": {"tensor": {"dtype": "DT_INT32", "tensorShape": {"dim": [{"size": "3"}]}}}}}, {"name": "model_80/tf.concat_26/concat/axis", "op": "Const", "attr": {"value": {"tensor": {"dtype": "DT_INT32", "tensorShape": {}}}, "dtype": {"type": "DT_INT32"}}}, {"name": "model_80/tf.math.subtract/Sub/y", "op": "Const", "attr": {"dtype": {"type": "DT_FLOAT"}, "value": {"tensor": {"dtype": "DT_FLOAT", "tensorShape": {"dim": [{"size": "1"}, {"size": "1"}, {"size": "1"}]}}}}}, {"name": "model_80/tf.math.multiply_360/Mul/y", "op": "Const", "attr": {"dtype": {"type": "DT_FLOAT"}, "value": {"tensor": {"dtype": "DT_FLOAT", "tensorShape": {"dim": [{"size": "1"}, {"size": "1"}, {"size": "1"}]}}}}}, {"name": "model_80/output0/concat/axis", "op": "Const", "attr": {"value": {"tensor": {"dtype": "DT_INT32", "tensorShape": {}}}, "dtype": {"type": "DT_INT32"}}}, {"name": "x", "op": "Placeholder", "attr": {"dtype": {"type": "DT_FLOAT"}, "shape": {"shape": {"dim": [{"size": "1"}, {"size": "1024"}, {"size": "1024"}, {"size": "3"}]}}}}, {"name": "model_80/tf.compat.v1.pad/Pad", "op": "Pad", "input": ["x", "model_80/tf.compat.v1.pad/Pad/paddings"], "attr": {"T": {"type": "DT_FLOAT"}, "Tpaddings": {"type": "DT_INT32"}}}, {"name": "model_80/tf.nn.convolution/convolution", "op": "Conv2D", "input": ["model_80/tf.compat.v1.pad/Pad", "model_80/tf.nn.convolution/convolution/filter"], "device": "/device:CPU:0", "attr": {"strides": {"list": {"i": ["1", "2", "2", "1"]}}, "explicit_paddings": {"list": {}}, "data_format": {"s": "TkhXQw=="}, "padding": {"s": "VkFMSUQ="}, "dilations": {"list": {"i": ["1", "1", "1", "1"]}}, "use_cudnn_on_gpu": {"b": true}, "T": {"type": "DT_FLOAT"}}}, {"name": "model_80/tf.math.add/Add", "op": "AddV2", "input": ["model_80/tf.nn.convolution/convolution", "model_80/tf.math.add/Add/y"], "attr": {"T": {"type": "DT_FLOAT"}}}, {"name": "model_80/tf.math.sigmoid/Sigmoid", "op": "Sigmoid", "input": ["model_80/tf.math.add/Add"], "attr": {"T": {"type": "DT_FLOAT"}}}, {"name": "model_80/tf.math.multiply_3/Mul", "op": "Mul", "input": ["model_80/tf.math.add/Add", "model_80/tf.math.sigmoid/Sigmoid"], "attr": {"T": {"type": "DT_FLOAT"}}}, {"name": "model_80/tf.compat.v1.pad_1/Pad", "op": "Pad", "input": ["model_80/tf.math.multiply_3/Mul", "model_80/tf.compat.v1.pad_1/Pad/paddings"], "attr": {"Tpaddings": {"type": "DT_INT32"}, "T": {"type": "DT_FLOAT"}}}, {"name": "model_80/tf.nn.convolution_1/convolution", "op": "Conv2D", "input": ["model_80/tf.compat.v1.pad_1/Pad", "model_80/tf.nn.convolution_1/convolution/filter"], "device": "/device:CPU:0", "attr": {"explicit_paddings": {"list": {}}, "padding": {"s": "VkFMSUQ="}, "data_format": {"s": "TkhXQw=="}, "dilations": {"list": {"i": ["1", "1", "1", "1"]}}, "strides": {"list": {"i": ["1", "2", "2", "1"]}}, "use_cudnn_on_gpu": {"b": true}, "T": {"type": "DT_FLOAT"}}}, {"name": "model_80/tf.math.add_1/Add", "op": "AddV2", "input": ["model_80/tf.nn.convolution_1/convolution", "model_80/tf.math.add_1/Add/y"], "attr": {"T": {"type": "DT_FLOAT"}}}, {"name": "model_80/tf.math.sigmoid_1/Sigmoid", "op": "Sigmoid", "input": ["model_80/tf.math.add_1/Add"], "attr": {"T": {"type": "DT_FLOAT"}}}, {"name": "model_80/tf.math.multiply_7/Mul", "op": "Mul", "input": ["model_80/tf.math.add_1/Add", "model_80/tf.math.sigmoid_1/Sigmoid"], "attr": {"T": {"type": "DT_FLOAT"}}}, {"name": "model_80/tf.nn.convolution_2/convolution", "op": "Conv2D", "input": ["model_80/tf.math.multiply_7/Mul", "model_80/tf.nn.convolution_2/convolution/filter"], "device": "/device:CPU:0", "attr": {"explicit_paddings": {"list": {}}, "padding": {"s": "U0FNRQ=="}, "strides": {"list": {"i": ["1", "1", "1", "1"]}}, "dilations": {"list": {"i": ["1", "1", "1", "1"]}}, "data_format": {"s": "TkhXQw=="}, "T": {"type": "DT_FLOAT"}, "use_cudnn_on_gpu": {"b": true}}}, {"name": "model_80/tf.math.add_2/Add", "op": "AddV2", "input": ["model_80/tf.nn.convolution_2/convolution", "model_80/tf.math.add_2/Add/y"], "attr": {"T": {"type": "DT_FLOAT"}}}, {"name": "model_80/tf.math.sigmoid_2/Sigmoid", "op": "Sigmoid", "input": ["model_80/tf.math.add_2/Add"], "attr": {"T": {"type": "DT_FLOAT"}}}, {"name": "model_80/tf.math.multiply_11/Mul", "op": "Mul", "input": ["model_80/tf.math.add_2/Add", "model_80/tf.math.sigmoid_2/Sigmoid"], "attr": {"T": {"type": "DT_FLOAT"}}}, {"name": "model_80/tf.strided_slice/StridedSlice", "op": "StridedSlice", "input": ["model_80/tf.math.multiply_11/Mul", "model_80/tf.strided_slice/ones_like/tensor", "model_80/tf.strided_slice/StridedSlice/end", "model_80/tf.strided_slice/ones_like"], "attr": {"ellipsis_mask": {"i": "0"}, "Index": {"type": "DT_INT64"}, "new_axis_mask": {"i": "0"}, "end_mask": {"i": "7"}, "begin_mask": {"i": "15"}, "T": {"type": "DT_FLOAT"}, "shrink_axis_mask": {"i": "0"}}}, {"name": "model_80/tf.strided_slice_1/StridedSlice", "op": "StridedSlice", "input": ["model_80/tf.math.multiply_11/Mul", "model_80/tf.strided_slice_1/ones_like/tensor", "model_80/tf.strided_slice_1/StridedSlice/end", "model_80/tf.strided_slice_1/ones_like"], "attr": {"T": {"type": "DT_FLOAT"}, "ellipsis_mask": {"i": "0"}, "new_axis_mask": {"i": "0"}, "Index": {"type": "DT_INT64"}, "begin_mask": {"i": "7"}, "end_mask": {"i": "7"}, "shrink_axis_mask": {"i": "0"}}}, {"name": "model_80/tf.nn.convolution_3/convolution", "op": "Conv2D", "input": ["model_80/tf.strided_slice_1/StridedSlice", "model_80/tf.nn.convolution_3/convolution/filter"], "device": "/device:CPU:0", "attr": {"T": {"type": "DT_FLOAT"}, "padding": {"s": "U0FNRQ=="}, "data_format": {"s": "TkhXQw=="}, "strides": {"list": {"i": ["1", "1", "1", "1"]}}, "dilations": {"list": {"i": ["1", "1", "1", "1"]}}, "explicit_paddings": {"list": {}}, "use_cudnn_on_gpu": {"b": true}}}, {"name": "model_80/tf.math.add_3/Add", "op": "AddV2", "input": ["model_80/tf.nn.convolution_3/convolution", "model_80/tf.math.add_3/Add/y"], "attr": {"T": {"type": "DT_FLOAT"}}}, {"name": "model_80/tf.math.sigmoid_3/Sigmoid", "op": "Sigmoid", "input": ["model_80/tf.math.add_3/Add"], "attr": {"T": {"type": "DT_FLOAT"}}}, {"name": "model_80/tf.math.multiply_15/Mul", "op": "Mul", "input": ["model_80/tf.math.add_3/Add", "model_80/tf.math.sigmoid_3/Sigmoid"], "attr": {"T": {"type": "DT_FLOAT"}}}, {"name": "model_80/tf.nn.convolution_4/convolution", "op": "Conv2D", "input": ["model_80/tf.math.multiply_15/Mul", "model_80/tf.nn.convolution_4/convolution/filter"], "device": "/device:CPU:0", "attr": {"padding": {"s": "U0FNRQ=="}, "strides": {"list": {"i": ["1", "1", "1", "1"]}}, "explicit_paddings": {"list": {}}, "data_format": {"s": "TkhXQw=="}, "dilations": {"list": {"i": ["1", "1", "1", "1"]}}, "T": {"type": "DT_FLOAT"}, "use_cudnn_on_gpu": {"b": true}}}, {"name": "model_80/tf.math.add_4/Add", "op": "AddV2", "input": ["model_80/tf.nn.convolution_4/convolution", "model_80/tf.math.add_4/Add/y"], "attr": {"T": {"type": "DT_FLOAT"}}}, {"name": "model_80/tf.math.sigmoid_4/Sigmoid", "op": "Sigmoid", "input": ["model_80/tf.math.add_4/Add"], "attr": {"T": {"type": "DT_FLOAT"}}}, {"name": "model_80/tf.math.multiply_19/Mul", "op": "Mul", "input": ["model_80/tf.math.add_4/Add", "model_80/tf.math.sigmoid_4/Sigmoid"], "attr": {"T": {"type": "DT_FLOAT"}}}, {"name": "model_80/tf.math.add_6/Add", "op": "AddV2", "input": ["model_80/tf.strided_slice_1/StridedSlice", "model_80/tf.math.multiply_19/Mul"], "attr": {"T": {"type": "DT_FLOAT"}}}, {"name": "model_80/tf.concat/concat", "op": "ConcatV2", "input": ["model_80/tf.strided_slice/StridedSlice", "model_80/tf.strided_slice_1/StridedSlice", "model_80/tf.math.add_6/Add", "model_80/tf.concat/concat/axis"], "attr": {"Tidx": {"type": "DT_INT32"}, "T": {"type": "DT_FLOAT"}, "N": {"i": "3"}}}, {"name": "model_80/tf.nn.convolution_5/convolution", "op": "Conv2D", "input": ["model_80/tf.concat/concat", "model_80/tf.nn.convolution_5/convolution/filter"], "device": "/device:CPU:0", "attr": {"padding": {"s": "U0FNRQ=="}, "explicit_paddings": {"list": {}}, "data_format": {"s": "TkhXQw=="}, "dilations": {"list": {"i": ["1", "1", "1", "1"]}}, "strides": {"list": {"i": ["1", "1", "1", "1"]}}, "T": {"type": "DT_FLOAT"}, "use_cudnn_on_gpu": {"b": true}}}, {"name": "model_80/tf.math.add_7/Add", "op": "AddV2", "input": ["model_80/tf.nn.convolution_5/convolution", "model_80/tf.math.add_7/Add/y"], "attr": {"T": {"type": "DT_FLOAT"}}}, {"name": "model_80/tf.math.sigmoid_5/Sigmoid", "op": "Sigmoid", "input": ["model_80/tf.math.add_7/Add"], "attr": {"T": {"type": "DT_FLOAT"}}}, {"name": "model_80/tf.math.multiply_25/Mul", "op": "Mul", "input": ["model_80/tf.math.add_7/Add", "model_80/tf.math.sigmoid_5/Sigmoid"], "attr": {"T": {"type": "DT_FLOAT"}}}, {"name": "model_80/tf.compat.v1.pad_2/Pad", "op": "Pad", "input": ["model_80/tf.math.multiply_25/Mul", "model_80/tf.compat.v1.pad_2/Pad/paddings"], "attr": {"T": {"type": "DT_FLOAT"}, "Tpaddings": {"type": "DT_INT32"}}}, {"name": "model_80/tf.nn.convolution_6/convolution", "op": "Conv2D", "input": ["model_80/tf.compat.v1.pad_2/Pad", "model_80/tf.nn.convolution_6/convolution/filter"], "device": "/device:CPU:0", "attr": {"T": {"type": "DT_FLOAT"}, "data_format": {"s": "TkhXQw=="}, "padding": {"s": "VkFMSUQ="}, "dilations": {"list": {"i": ["1", "1", "1", "1"]}}, "use_cudnn_on_gpu": {"b": true}, "explicit_paddings": {"list": {}}, "strides": {"list": {"i": ["1", "2", "2", "1"]}}}}, {"name": "model_80/tf.math.add_8/Add", "op": "AddV2", "input": ["model_80/tf.nn.convolution_6/convolution", "model_80/tf.math.add_8/Add/y"], "attr": {"T": {"type": "DT_FLOAT"}}}, {"name": "model_80/tf.math.sigmoid_6/Sigmoid", "op": "Sigmoid", "input": ["model_80/tf.math.add_8/Add"], "attr": {"T": {"type": "DT_FLOAT"}}}, {"name": "model_80/tf.math.multiply_29/Mul", "op": "Mul", "input": ["model_80/tf.math.add_8/Add", "model_80/tf.math.sigmoid_6/Sigmoid"], "attr": {"T": {"type": "DT_FLOAT"}}}, {"name": "model_80/tf.nn.convolution_7/convolution", "op": "Conv2D", "input": ["model_80/tf.math.multiply_29/Mul", "model_80/tf.nn.convolution_7/convolution/filter"], "device": "/device:CPU:0", "attr": {"T": {"type": "DT_FLOAT"}, "data_format": {"s": "TkhXQw=="}, "padding": {"s": "U0FNRQ=="}, "dilations": {"list": {"i": ["1", "1", "1", "1"]}}, "use_cudnn_on_gpu": {"b": true}, "strides": {"list": {"i": ["1", "1", "1", "1"]}}, "explicit_paddings": {"list": {}}}}, {"name": "model_80/tf.math.add_9/Add", "op": "AddV2", "input": ["model_80/tf.nn.convolution_7/convolution", "model_80/tf.math.add_9/Add/y"], "attr": {"T": {"type": "DT_FLOAT"}}}, {"name": "model_80/tf.math.sigmoid_7/Sigmoid", "op": "Sigmoid", "input": ["model_80/tf.math.add_9/Add"], "attr": {"T": {"type": "DT_FLOAT"}}}, {"name": "model_80/tf.math.multiply_33/Mul", "op": "Mul", "input": ["model_80/tf.math.add_9/Add", "model_80/tf.math.sigmoid_7/Sigmoid"], "attr": {"T": {"type": "DT_FLOAT"}}}, {"name": "model_80/tf.strided_slice_2/StridedSlice", "op": "StridedSlice", "input": ["model_80/tf.math.multiply_33/Mul", "model_80/tf.strided_slice_2/ones_like/tensor", "model_80/tf.strided_slice_2/StridedSlice/end", "model_80/tf.strided_slice_2/ones_like"], "attr": {"T": {"type": "DT_FLOAT"}, "ellipsis_mask": {"i": "0"}, "Index": {"type": "DT_INT64"}, "new_axis_mask": {"i": "0"}, "end_mask": {"i": "7"}, "begin_mask": {"i": "15"}, "shrink_axis_mask": {"i": "0"}}}, {"name": "model_80/tf.strided_slice_3/StridedSlice", "op": "StridedSlice", "input": ["model_80/tf.math.multiply_33/Mul", "model_80/tf.strided_slice_3/ones_like/tensor", "model_80/tf.strided_slice_3/StridedSlice/end", "model_80/tf.strided_slice_3/ones_like"], "attr": {"new_axis_mask": {"i": "0"}, "begin_mask": {"i": "7"}, "shrink_axis_mask": {"i": "0"}, "end_mask": {"i": "7"}, "T": {"type": "DT_FLOAT"}, "ellipsis_mask": {"i": "0"}, "Index": {"type": "DT_INT64"}}}, {"name": "model_80/tf.nn.convolution_8/convolution", "op": "Conv2D", "input": ["model_80/tf.strided_slice_3/StridedSlice", "model_80/tf.nn.convolution_8/convolution/filter"], "device": "/device:CPU:0", "attr": {"dilations": {"list": {"i": ["1", "1", "1", "1"]}}, "use_cudnn_on_gpu": {"b": true}, "T": {"type": "DT_FLOAT"}, "explicit_paddings": {"list": {}}, "strides": {"list": {"i": ["1", "1", "1", "1"]}}, "data_format": {"s": "TkhXQw=="}, "padding": {"s": "U0FNRQ=="}}}, {"name": "model_80/tf.math.add_10/Add", "op": "AddV2", "input": ["model_80/tf.nn.convolution_8/convolution", "model_80/tf.math.add_10/Add/y"], "attr": {"T": {"type": "DT_FLOAT"}}}, {"name": "model_80/tf.math.sigmoid_8/Sigmoid", "op": "Sigmoid", "input": ["model_80/tf.math.add_10/Add"], "attr": {"T": {"type": "DT_FLOAT"}}}, {"name": "model_80/tf.math.multiply_37/Mul", "op": "Mul", "input": ["model_80/tf.math.add_10/Add", "model_80/tf.math.sigmoid_8/Sigmoid"], "attr": {"T": {"type": "DT_FLOAT"}}}, {"name": "model_80/tf.nn.convolution_9/convolution", "op": "Conv2D", "input": ["model_80/tf.math.multiply_37/Mul", "model_80/tf.nn.convolution_9/convolution/filter"], "device": "/device:CPU:0", "attr": {"dilations": {"list": {"i": ["1", "1", "1", "1"]}}, "use_cudnn_on_gpu": {"b": true}, "explicit_paddings": {"list": {}}, "padding": {"s": "U0FNRQ=="}, "strides": {"list": {"i": ["1", "1", "1", "1"]}}, "T": {"type": "DT_FLOAT"}, "data_format": {"s": "TkhXQw=="}}}, {"name": "model_80/tf.math.add_11/Add", "op": "AddV2", "input": ["model_80/tf.nn.convolution_9/convolution", "model_80/tf.math.add_11/Add/y"], "attr": {"T": {"type": "DT_FLOAT"}}}, {"name": "model_80/tf.math.sigmoid_9/Sigmoid", "op": "Sigmoid", "input": ["model_80/tf.math.add_11/Add"], "attr": {"T": {"type": "DT_FLOAT"}}}, {"name": "model_80/tf.math.multiply_41/Mul", "op": "Mul", "input": ["model_80/tf.math.add_11/Add", "model_80/tf.math.sigmoid_9/Sigmoid"], "attr": {"T": {"type": "DT_FLOAT"}}}, {"name": "model_80/tf.math.add_13/Add", "op": "AddV2", "input": ["model_80/tf.strided_slice_3/StridedSlice", "model_80/tf.math.multiply_41/Mul"], "attr": {"T": {"type": "DT_FLOAT"}}}, {"name": "model_80/tf.concat_1/concat", "op": "ConcatV2", "input": ["model_80/tf.strided_slice_2/StridedSlice", "model_80/tf.strided_slice_3/StridedSlice", "model_80/tf.math.add_13/Add", "model_80/tf.concat_1/concat/axis"], "attr": {"T": {"type": "DT_FLOAT"}, "N": {"i": "3"}, "Tidx": {"type": "DT_INT32"}}}, {"name": "model_80/tf.nn.convolution_10/convolution", "op": "Conv2D", "input": ["model_80/tf.concat_1/concat", "model_80/tf.nn.convolution_10/convolution/filter"], "device": "/device:CPU:0", "attr": {"T": {"type": "DT_FLOAT"}, "strides": {"list": {"i": ["1", "1", "1", "1"]}}, "data_format": {"s": "TkhXQw=="}, "dilations": {"list": {"i": ["1", "1", "1", "1"]}}, "use_cudnn_on_gpu": {"b": true}, "explicit_paddings": {"list": {}}, "padding": {"s": "U0FNRQ=="}}}, {"name": "model_80/tf.math.add_14/Add", "op": "AddV2", "input": ["model_80/tf.nn.convolution_10/convolution", "model_80/tf.math.add_14/Add/y"], "attr": {"T": {"type": "DT_FLOAT"}}}, {"name": "model_80/tf.math.sigmoid_10/Sigmoid", "op": "Sigmoid", "input": ["model_80/tf.math.add_14/Add"], "attr": {"T": {"type": "DT_FLOAT"}}}, {"name": "model_80/tf.math.multiply_47/Mul", "op": "Mul", "input": ["model_80/tf.math.add_14/Add", "model_80/tf.math.sigmoid_10/Sigmoid"], "attr": {"T": {"type": "DT_FLOAT"}}}, {"name": "model_80/tf.compat.v1.pad_3/Pad", "op": "Pad", "input": ["model_80/tf.math.multiply_47/Mul", "model_80/tf.compat.v1.pad_3/Pad/paddings"], "attr": {"T": {"type": "DT_FLOAT"}, "Tpaddings": {"type": "DT_INT32"}}}, {"name": "model_80/tf.nn.convolution_18/convolution", "op": "Conv2D", "input": ["model_80/tf.compat.v1.pad_3/Pad", "model_80/tf.nn.convolution_18/convolution/filter"], "device": "/device:CPU:0", "attr": {"explicit_paddings": {"list": {}}, "padding": {"s": "VkFMSUQ="}, "strides": {"list": {"i": ["1", "2", "2", "1"]}}, "data_format": {"s": "TkhXQw=="}, "dilations": {"list": {"i": ["1", "1", "1", "1"]}}, "T": {"type": "DT_FLOAT"}, "use_cudnn_on_gpu": {"b": true}}}, {"name": "model_80/tf.math.add_22/Add", "op": "AddV2", "input": ["model_80/tf.nn.convolution_18/convolution", "model_80/tf.math.add_22/Add/y"], "attr": {"T": {"type": "DT_FLOAT"}}}, {"name": "model_80/tf.math.sigmoid_11/Sigmoid", "op": "Sigmoid", "input": ["model_80/tf.math.add_22/Add"], "attr": {"T": {"type": "DT_FLOAT"}}}, {"name": "model_80/tf.math.multiply_51/Mul", "op": "Mul", "input": ["model_80/tf.math.add_22/Add", "model_80/tf.math.sigmoid_11/Sigmoid"], "attr": {"T": {"type": "DT_FLOAT"}}}, {"name": "model_80/tf.nn.convolution_19/convolution", "op": "Conv2D", "input": ["model_80/tf.math.multiply_51/Mul", "model_80/tf.nn.convolution_19/convolution/filter"], "device": "/device:CPU:0", "attr": {"data_format": {"s": "TkhXQw=="}, "dilations": {"list": {"i": ["1", "1", "1", "1"]}}, "use_cudnn_on_gpu": {"b": true}, "explicit_paddings": {"list": {}}, "strides": {"list": {"i": ["1", "1", "1", "1"]}}, "T": {"type": "DT_FLOAT"}, "padding": {"s": "U0FNRQ=="}}}, {"name": "model_80/tf.math.add_23/Add", "op": "AddV2", "input": ["model_80/tf.nn.convolution_19/convolution", "model_80/tf.math.add_23/Add/y"], "attr": {"T": {"type": "DT_FLOAT"}}}, {"name": "model_80/tf.math.sigmoid_12/Sigmoid", "op": "Sigmoid", "input": ["model_80/tf.math.add_23/Add"], "attr": {"T": {"type": "DT_FLOAT"}}}, {"name": "model_80/tf.math.multiply_55/Mul", "op": "Mul", "input": ["model_80/tf.math.add_23/Add", "model_80/tf.math.sigmoid_12/Sigmoid"], "attr": {"T": {"type": "DT_FLOAT"}}}, {"name": "model_80/tf.strided_slice_4/StridedSlice", "op": "StridedSlice", "input": ["model_80/tf.math.multiply_55/Mul", "model_80/tf.strided_slice_4/ones_like/tensor", "model_80/tf.strided_slice_4/StridedSlice/end", "model_80/tf.strided_slice_4/ones_like"], "attr": {"begin_mask": {"i": "15"}, "end_mask": {"i": "7"}, "Index": {"type": "DT_INT64"}, "new_axis_mask": {"i": "0"}, "ellipsis_mask": {"i": "0"}, "shrink_axis_mask": {"i": "0"}, "T": {"type": "DT_FLOAT"}}}, {"name": "model_80/tf.strided_slice_5/StridedSlice", "op": "StridedSlice", "input": ["model_80/tf.math.multiply_55/Mul", "model_80/tf.strided_slice_5/ones_like/tensor", "model_80/tf.strided_slice_5/StridedSlice/end", "model_80/tf.strided_slice_5/ones_like"], "attr": {"Index": {"type": "DT_INT64"}, "begin_mask": {"i": "7"}, "T": {"type": "DT_FLOAT"}, "end_mask": {"i": "7"}, "ellipsis_mask": {"i": "0"}, "new_axis_mask": {"i": "0"}, "shrink_axis_mask": {"i": "0"}}}, {"name": "model_80/tf.nn.convolution_22/convolution", "op": "Conv2D", "input": ["model_80/tf.strided_slice_5/StridedSlice", "model_80/tf.nn.convolution_22/convolution/filter"], "device": "/device:CPU:0", "attr": {"use_cudnn_on_gpu": {"b": true}, "padding": {"s": "U0FNRQ=="}, "explicit_paddings": {"list": {}}, "T": {"type": "DT_FLOAT"}, "dilations": {"list": {"i": ["1", "1", "1", "1"]}}, "data_format": {"s": "TkhXQw=="}, "strides": {"list": {"i": ["1", "1", "1", "1"]}}}}, {"name": "model_80/tf.nn.convolution_25/convolution", "op": "Conv2D", "input": ["model_80/tf.strided_slice_5/StridedSlice", "model_80/tf.nn.convolution_25/convolution/filter"], "device": "/device:CPU:0", "attr": {"data_format": {"s": "TkhXQw=="}, "T": {"type": "DT_FLOAT"}, "dilations": {"list": {"i": ["1", "1", "1", "1"]}}, "strides": {"list": {"i": ["1", "1", "1", "1"]}}, "use_cudnn_on_gpu": {"b": true}, "padding": {"s": "U0FNRQ=="}, "explicit_paddings": {"list": {}}}}, {"name": "model_80/tf.math.add_26/Add", "op": "AddV2", "input": ["model_80/tf.nn.convolution_22/convolution", "model_80/tf.math.add_26/Add/y"], "attr": {"T": {"type": "DT_FLOAT"}}}, {"name": "model_80/tf.math.add_29/Add", "op": "AddV2", "input": ["model_80/tf.nn.convolution_25/convolution", "model_80/tf.math.add_29/Add/y"], "attr": {"T": {"type": "DT_FLOAT"}}}, {"name": "model_80/tf.math.sigmoid_13/Sigmoid", "op": "Sigmoid", "input": ["model_80/tf.math.add_26/Add"], "attr": {"T": {"type": "DT_FLOAT"}}}, {"name": "model_80/tf.math.sigmoid_14/Sigmoid", "op": "Sigmoid", "input": ["model_80/tf.math.add_29/Add"], "attr": {"T": {"type": "DT_FLOAT"}}}, {"name": "model_80/tf.math.multiply_59/Mul", "op": "Mul", "input": ["model_80/tf.math.add_26/Add", "model_80/tf.math.sigmoid_13/Sigmoid"], "attr": {"T": {"type": "DT_FLOAT"}}}, {"name": "model_80/tf.math.multiply_63/Mul", "op": "Mul", "input": ["model_80/tf.math.add_29/Add", "model_80/tf.math.sigmoid_14/Sigmoid"], "attr": {"T": {"type": "DT_FLOAT"}}}, {"name": "model_80/tf.nn.convolution_26/convolution", "op": "Conv2D", "input": ["model_80/tf.math.multiply_59/Mul", "model_80/tf.nn.convolution_26/convolution/filter"], "device": "/device:CPU:0", "attr": {"padding": {"s": "U0FNRQ=="}, "dilations": {"list": {"i": ["1", "1", "1", "1"]}}, "use_cudnn_on_gpu": {"b": true}, "T": {"type": "DT_FLOAT"}, "explicit_paddings": {"list": {}}, "strides": {"list": {"i": ["1", "1", "1", "1"]}}, "data_format": {"s": "TkhXQw=="}}}, {"name": "model_80/tf.math.add_30/Add", "op": "AddV2", "input": ["model_80/tf.nn.convolution_26/convolution", "model_80/tf.math.add_30/Add/y"], "attr": {"T": {"type": "DT_FLOAT"}}}, {"name": "model_80/tf.math.sigmoid_15/Sigmoid", "op": "Sigmoid", "input": ["model_80/tf.math.add_30/Add"], "attr": {"T": {"type": "DT_FLOAT"}}}, {"name": "model_80/tf.math.multiply_67/Mul", "op": "Mul", "input": ["model_80/tf.math.add_30/Add", "model_80/tf.math.sigmoid_15/Sigmoid"], "attr": {"T": {"type": "DT_FLOAT"}}}, {"name": "model_80/tf.nn.convolution_27/convolution", "op": "Conv2D", "input": ["model_80/tf.math.multiply_67/Mul", "model_80/tf.nn.convolution_27/convolution/filter"], "device": "/device:CPU:0", "attr": {"T": {"type": "DT_FLOAT"}, "data_format": {"s": "TkhXQw=="}, "dilations": {"list": {"i": ["1", "1", "1", "1"]}}, "use_cudnn_on_gpu": {"b": true}, "strides": {"list": {"i": ["1", "1", "1", "1"]}}, "padding": {"s": "U0FNRQ=="}, "explicit_paddings": {"list": {}}}}, {"name": "model_80/tf.math.add_31/Add", "op": "AddV2", "input": ["model_80/tf.nn.convolution_27/convolution", "model_80/tf.math.add_31/Add/y"], "attr": {"T": {"type": "DT_FLOAT"}}}, {"name": "model_80/tf.math.sigmoid_16/Sigmoid", "op": "Sigmoid", "input": ["model_80/tf.math.add_31/Add"], "attr": {"T": {"type": "DT_FLOAT"}}}, {"name": "model_80/tf.math.multiply_71/Mul", "op": "Mul", "input": ["model_80/tf.math.add_31/Add", "model_80/tf.math.sigmoid_16/Sigmoid"], "attr": {"T": {"type": "DT_FLOAT"}}}, {"name": "model_80/tf.math.add_33/Add", "op": "AddV2", "input": ["model_80/tf.math.multiply_59/Mul", "model_80/tf.math.multiply_71/Mul"], "attr": {"T": {"type": "DT_FLOAT"}}}, {"name": "model_80/tf.nn.convolution_28/convolution", "op": "Conv2D", "input": ["model_80/tf.math.add_33/Add", "model_80/tf.nn.convolution_28/convolution/filter"], "device": "/device:CPU:0", "attr": {"T": {"type": "DT_FLOAT"}, "data_format": {"s": "TkhXQw=="}, "dilations": {"list": {"i": ["1", "1", "1", "1"]}}, "use_cudnn_on_gpu": {"b": true}, "padding": {"s": "U0FNRQ=="}, "strides": {"list": {"i": ["1", "1", "1", "1"]}}, "explicit_paddings": {"list": {}}}}, {"name": "model_80/tf.math.add_34/Add", "op": "AddV2", "input": ["model_80/tf.nn.convolution_28/convolution", "model_80/tf.math.add_34/Add/y"], "attr": {"T": {"type": "DT_FLOAT"}}}, {"name": "model_80/tf.math.sigmoid_17/Sigmoid", "op": "Sigmoid", "input": ["model_80/tf.math.add_34/Add"], "attr": {"T": {"type": "DT_FLOAT"}}}, {"name": "model_80/tf.math.multiply_77/Mul", "op": "Mul", "input": ["model_80/tf.math.add_34/Add", "model_80/tf.math.sigmoid_17/Sigmoid"], "attr": {"T": {"type": "DT_FLOAT"}}}, {"name": "model_80/tf.nn.convolution_29/convolution", "op": "Conv2D", "input": ["model_80/tf.math.multiply_77/Mul", "model_80/tf.nn.convolution_29/convolution/filter"], "device": "/device:CPU:0", "attr": {"padding": {"s": "U0FNRQ=="}, "strides": {"list": {"i": ["1", "1", "1", "1"]}}, "data_format": {"s": "TkhXQw=="}, "dilations": {"list": {"i": ["1", "1", "1", "1"]}}, "use_cudnn_on_gpu": {"b": true}, "T": {"type": "DT_FLOAT"}, "explicit_paddings": {"list": {}}}}, {"name": "model_80/tf.math.add_35/Add", "op": "AddV2", "input": ["model_80/tf.nn.convolution_29/convolution", "model_80/tf.math.add_35/Add/y"], "attr": {"T": {"type": "DT_FLOAT"}}}, {"name": "model_80/tf.math.sigmoid_18/Sigmoid", "op": "Sigmoid", "input": ["model_80/tf.math.add_35/Add"], "attr": {"T": {"type": "DT_FLOAT"}}}, {"name": "model_80/tf.math.multiply_81/Mul", "op": "Mul", "input": ["model_80/tf.math.add_35/Add", "model_80/tf.math.sigmoid_18/Sigmoid"], "attr": {"T": {"type": "DT_FLOAT"}}}, {"name": "model_80/tf.math.add_37/Add", "op": "AddV2", "input": ["model_80/tf.math.add_33/Add", "model_80/tf.math.multiply_81/Mul"], "attr": {"T": {"type": "DT_FLOAT"}}}, {"name": "model_80/tf.concat_2/concat", "op": "ConcatV2", "input": ["model_80/tf.math.add_37/Add", "model_80/tf.math.multiply_63/Mul", "model_80/tf.concat_2/concat/axis"], "attr": {"N": {"i": "2"}, "Tidx": {"type": "DT_INT32"}, "T": {"type": "DT_FLOAT"}}}, {"name": "model_80/tf.nn.convolution_32/convolution", "op": "Conv2D", "input": ["model_80/tf.concat_2/concat", "model_80/tf.nn.convolution_32/convolution/filter"], "device": "/device:CPU:0", "attr": {"explicit_paddings": {"list": {}}, "padding": {"s": "U0FNRQ=="}, "T": {"type": "DT_FLOAT"}, "strides": {"list": {"i": ["1", "1", "1", "1"]}}, "data_format": {"s": "TkhXQw=="}, "dilations": {"list": {"i": ["1", "1", "1", "1"]}}, "use_cudnn_on_gpu": {"b": true}}}, {"name": "model_80/tf.math.add_40/Add", "op": "AddV2", "input": ["model_80/tf.nn.convolution_32/convolution", "model_80/tf.math.add_40/Add/y"], "attr": {"T": {"type": "DT_FLOAT"}}}, {"name": "model_80/tf.math.sigmoid_19/Sigmoid", "op": "Sigmoid", "input": ["model_80/tf.math.add_40/Add"], "attr": {"T": {"type": "DT_FLOAT"}}}, {"name": "model_80/tf.math.multiply_87/Mul", "op": "Mul", "input": ["model_80/tf.math.add_40/Add", "model_80/tf.math.sigmoid_19/Sigmoid"], "attr": {"T": {"type": "DT_FLOAT"}}}, {"name": "model_80/tf.concat_3/concat", "op": "ConcatV2", "input": ["model_80/tf.strided_slice_4/StridedSlice", "model_80/tf.strided_slice_5/StridedSlice", "model_80/tf.math.multiply_87/Mul", "model_80/tf.concat_3/concat/axis"], "attr": {"T": {"type": "DT_FLOAT"}, "N": {"i": "3"}, "Tidx": {"type": "DT_INT32"}}}, {"name": "model_80/tf.nn.convolution_33/convolution", "op": "Conv2D", "input": ["model_80/tf.concat_3/concat", "model_80/tf.nn.convolution_33/convolution/filter"], "device": "/device:CPU:0", "attr": {"data_format": {"s": "TkhXQw=="}, "dilations": {"list": {"i": ["1", "1", "1", "1"]}}, "use_cudnn_on_gpu": {"b": true}, "explicit_paddings": {"list": {}}, "strides": {"list": {"i": ["1", "1", "1", "1"]}}, "padding": {"s": "U0FNRQ=="}, "T": {"type": "DT_FLOAT"}}}, {"name": "model_80/tf.math.add_41/Add", "op": "AddV2", "input": ["model_80/tf.nn.convolution_33/convolution", "model_80/tf.math.add_41/Add/y"], "attr": {"T": {"type": "DT_FLOAT"}}}, {"name": "model_80/tf.math.sigmoid_20/Sigmoid", "op": "Sigmoid", "input": ["model_80/tf.math.add_41/Add"], "attr": {"T": {"type": "DT_FLOAT"}}}, {"name": "model_80/tf.math.multiply_91/Mul", "op": "Mul", "input": ["model_80/tf.math.add_41/Add", "model_80/tf.math.sigmoid_20/Sigmoid"], "attr": {"T": {"type": "DT_FLOAT"}}}, {"name": "model_80/tf.compat.v1.pad_4/Pad", "op": "Pad", "input": ["model_80/tf.math.multiply_91/Mul", "model_80/tf.compat.v1.pad_4/Pad/paddings"], "attr": {"Tpaddings": {"type": "DT_INT32"}, "T": {"type": "DT_FLOAT"}}}, {"name": "model_80/tf.nn.convolution_34/convolution", "op": "Conv2D", "input": ["model_80/tf.compat.v1.pad_4/Pad", "model_80/tf.nn.convolution_34/convolution/filter"], "device": "/device:CPU:0", "attr": {"explicit_paddings": {"list": {}}, "strides": {"list": {"i": ["1", "2", "2", "1"]}}, "data_format": {"s": "TkhXQw=="}, "dilations": {"list": {"i": ["1", "1", "1", "1"]}}, "padding": {"s": "VkFMSUQ="}, "use_cudnn_on_gpu": {"b": true}, "T": {"type": "DT_FLOAT"}}}, {"name": "model_80/tf.math.add_42/Add", "op": "AddV2", "input": ["model_80/tf.nn.convolution_34/convolution", "model_80/tf.math.add_42/Add/y"], "attr": {"T": {"type": "DT_FLOAT"}}}, {"name": "model_80/tf.math.sigmoid_21/Sigmoid", "op": "Sigmoid", "input": ["model_80/tf.math.add_42/Add"], "attr": {"T": {"type": "DT_FLOAT"}}}, {"name": "model_80/tf.math.multiply_95/Mul", "op": "Mul", "input": ["model_80/tf.math.add_42/Add", "model_80/tf.math.sigmoid_21/Sigmoid"], "attr": {"T": {"type": "DT_FLOAT"}}}, {"name": "model_80/tf.nn.convolution_35/convolution", "op": "Conv2D", "input": ["model_80/tf.math.multiply_95/Mul", "model_80/tf.nn.convolution_35/convolution/filter"], "device": "/device:CPU:0", "attr": {"explicit_paddings": {"list": {}}, "strides": {"list": {"i": ["1", "1", "1", "1"]}}, "padding": {"s": "U0FNRQ=="}, "T": {"type": "DT_FLOAT"}, "dilations": {"list": {"i": ["1", "1", "1", "1"]}}, "data_format": {"s": "TkhXQw=="}, "use_cudnn_on_gpu": {"b": true}}}, {"name": "model_80/tf.math.add_43/Add", "op": "AddV2", "input": ["model_80/tf.nn.convolution_35/convolution", "model_80/tf.math.add_43/Add/y"], "attr": {"T": {"type": "DT_FLOAT"}}}, {"name": "model_80/tf.math.sigmoid_22/Sigmoid", "op": "Sigmoid", "input": ["model_80/tf.math.add_43/Add"], "attr": {"T": {"type": "DT_FLOAT"}}}, {"name": "model_80/tf.math.multiply_99/Mul", "op": "Mul", "input": ["model_80/tf.math.add_43/Add", "model_80/tf.math.sigmoid_22/Sigmoid"], "attr": {"T": {"type": "DT_FLOAT"}}}, {"name": "model_80/tf.strided_slice_6/StridedSlice", "op": "StridedSlice", "input": ["model_80/tf.math.multiply_99/Mul", "model_80/tf.strided_slice_6/ones_like/tensor", "model_80/tf.strided_slice_6/StridedSlice/end", "model_80/tf.strided_slice_6/ones_like"], "attr": {"ellipsis_mask": {"i": "0"}, "shrink_axis_mask": {"i": "0"}, "new_axis_mask": {"i": "0"}, "end_mask": {"i": "7"}, "begin_mask": {"i": "15"}, "Index": {"type": "DT_INT64"}, "T": {"type": "DT_FLOAT"}}}, {"name": "model_80/tf.strided_slice_7/StridedSlice", "op": "StridedSlice", "input": ["model_80/tf.math.multiply_99/Mul", "model_80/tf.strided_slice_7/ones_like/tensor", "model_80/tf.strided_slice_7/StridedSlice/end", "model_80/tf.strided_slice_7/ones_like"], "attr": {"shrink_axis_mask": {"i": "0"}, "Index": {"type": "DT_INT64"}, "T": {"type": "DT_FLOAT"}, "begin_mask": {"i": "7"}, "ellipsis_mask": {"i": "0"}, "new_axis_mask": {"i": "0"}, "end_mask": {"i": "7"}}}, {"name": "model_80/tf.nn.convolution_36/convolution", "op": "Conv2D", "input": ["model_80/tf.strided_slice_7/StridedSlice", "model_80/tf.nn.convolution_36/convolution/filter"], "device": "/device:CPU:0", "attr": {"explicit_paddings": {"list": {}}, "use_cudnn_on_gpu": {"b": true}, "padding": {"s": "U0FNRQ=="}, "T": {"type": "DT_FLOAT"}, "dilations": {"list": {"i": ["1", "1", "1", "1"]}}, "data_format": {"s": "TkhXQw=="}, "strides": {"list": {"i": ["1", "1", "1", "1"]}}}}, {"name": "model_80/tf.nn.convolution_37/convolution", "op": "Conv2D", "input": ["model_80/tf.strided_slice_7/StridedSlice", "model_80/tf.nn.convolution_37/convolution/filter"], "device": "/device:CPU:0", "attr": {"T": {"type": "DT_FLOAT"}, "dilations": {"list": {"i": ["1", "1", "1", "1"]}}, "explicit_paddings": {"list": {}}, "data_format": {"s": "TkhXQw=="}, "use_cudnn_on_gpu": {"b": true}, "padding": {"s": "U0FNRQ=="}, "strides": {"list": {"i": ["1", "1", "1", "1"]}}}}, {"name": "model_80/tf.math.add_44/Add", "op": "AddV2", "input": ["model_80/tf.nn.convolution_36/convolution", "model_80/tf.math.add_44/Add/y"], "attr": {"T": {"type": "DT_FLOAT"}}}, {"name": "model_80/tf.math.add_45/Add", "op": "AddV2", "input": ["model_80/tf.nn.convolution_37/convolution", "model_80/tf.math.add_45/Add/y"], "attr": {"T": {"type": "DT_FLOAT"}}}, {"name": "model_80/tf.math.sigmoid_23/Sigmoid", "op": "Sigmoid", "input": ["model_80/tf.math.add_44/Add"], "attr": {"T": {"type": "DT_FLOAT"}}}, {"name": "model_80/tf.math.sigmoid_24/Sigmoid", "op": "Sigmoid", "input": ["model_80/tf.math.add_45/Add"], "attr": {"T": {"type": "DT_FLOAT"}}}, {"name": "model_80/tf.math.multiply_103/Mul", "op": "Mul", "input": ["model_80/tf.math.add_44/Add", "model_80/tf.math.sigmoid_23/Sigmoid"], "attr": {"T": {"type": "DT_FLOAT"}}}, {"name": "model_80/tf.math.multiply_107/Mul", "op": "Mul", "input": ["model_80/tf.math.add_45/Add", "model_80/tf.math.sigmoid_24/Sigmoid"], "attr": {"T": {"type": "DT_FLOAT"}}}, {"name": "model_80/tf.nn.convolution_38/convolution", "op": "Conv2D", "input": ["model_80/tf.math.multiply_103/Mul", "model_80/tf.nn.convolution_38/convolution/filter"], "device": "/device:CPU:0", "attr": {"padding": {"s": "U0FNRQ=="}, "data_format": {"s": "TkhXQw=="}, "explicit_paddings": {"list": {}}, "use_cudnn_on_gpu": {"b": true}, "T": {"type": "DT_FLOAT"}, "strides": {"list": {"i": ["1", "1", "1", "1"]}}, "dilations": {"list": {"i": ["1", "1", "1", "1"]}}}}, {"name": "model_80/tf.math.add_46/Add", "op": "AddV2", "input": ["model_80/tf.nn.convolution_38/convolution", "model_80/tf.math.add_46/Add/y"], "attr": {"T": {"type": "DT_FLOAT"}}}, {"name": "model_80/tf.math.sigmoid_25/Sigmoid", "op": "Sigmoid", "input": ["model_80/tf.math.add_46/Add"], "attr": {"T": {"type": "DT_FLOAT"}}}, {"name": "model_80/tf.math.multiply_111/Mul", "op": "Mul", "input": ["model_80/tf.math.add_46/Add", "model_80/tf.math.sigmoid_25/Sigmoid"], "attr": {"T": {"type": "DT_FLOAT"}}}, {"name": "model_80/tf.nn.convolution_39/convolution", "op": "Conv2D", "input": ["model_80/tf.math.multiply_111/Mul", "model_80/tf.nn.convolution_39/convolution/filter"], "device": "/device:CPU:0", "attr": {"dilations": {"list": {"i": ["1", "1", "1", "1"]}}, "data_format": {"s": "TkhXQw=="}, "use_cudnn_on_gpu": {"b": true}, "explicit_paddings": {"list": {}}, "strides": {"list": {"i": ["1", "1", "1", "1"]}}, "padding": {"s": "U0FNRQ=="}, "T": {"type": "DT_FLOAT"}}}, {"name": "model_80/tf.math.add_47/Add", "op": "AddV2", "input": ["model_80/tf.nn.convolution_39/convolution", "model_80/tf.math.add_47/Add/y"], "attr": {"T": {"type": "DT_FLOAT"}}}, {"name": "model_80/tf.math.sigmoid_26/Sigmoid", "op": "Sigmoid", "input": ["model_80/tf.math.add_47/Add"], "attr": {"T": {"type": "DT_FLOAT"}}}, {"name": "model_80/tf.math.multiply_115/Mul", "op": "Mul", "input": ["model_80/tf.math.add_47/Add", "model_80/tf.math.sigmoid_26/Sigmoid"], "attr": {"T": {"type": "DT_FLOAT"}}}, {"name": "model_80/tf.math.add_49/Add", "op": "AddV2", "input": ["model_80/tf.math.multiply_103/Mul", "model_80/tf.math.multiply_115/Mul"], "attr": {"T": {"type": "DT_FLOAT"}}}, {"name": "model_80/tf.nn.convolution_40/convolution", "op": "Conv2D", "input": ["model_80/tf.math.add_49/Add", "model_80/tf.nn.convolution_40/convolution/filter"], "device": "/device:CPU:0", "attr": {"dilations": {"list": {"i": ["1", "1", "1", "1"]}}, "T": {"type": "DT_FLOAT"}, "strides": {"list": {"i": ["1", "1", "1", "1"]}}, "padding": {"s": "U0FNRQ=="}, "data_format": {"s": "TkhXQw=="}, "explicit_paddings": {"list": {}}, "use_cudnn_on_gpu": {"b": true}}}, {"name": "model_80/tf.math.add_50/Add", "op": "AddV2", "input": ["model_80/tf.nn.convolution_40/convolution", "model_80/tf.math.add_50/Add/y"], "attr": {"T": {"type": "DT_FLOAT"}}}, {"name": "model_80/tf.math.sigmoid_27/Sigmoid", "op": "Sigmoid", "input": ["model_80/tf.math.add_50/Add"], "attr": {"T": {"type": "DT_FLOAT"}}}, {"name": "model_80/tf.math.multiply_121/Mul", "op": "Mul", "input": ["model_80/tf.math.add_50/Add", "model_80/tf.math.sigmoid_27/Sigmoid"], "attr": {"T": {"type": "DT_FLOAT"}}}, {"name": "model_80/tf.nn.convolution_41/convolution", "op": "Conv2D", "input": ["model_80/tf.math.multiply_121/Mul", "model_80/tf.nn.convolution_41/convolution/filter"], "device": "/device:CPU:0", "attr": {"data_format": {"s": "TkhXQw=="}, "strides": {"list": {"i": ["1", "1", "1", "1"]}}, "explicit_paddings": {"list": {}}, "use_cudnn_on_gpu": {"b": true}, "T": {"type": "DT_FLOAT"}, "dilations": {"list": {"i": ["1", "1", "1", "1"]}}, "padding": {"s": "U0FNRQ=="}}}, {"name": "model_80/tf.math.add_51/Add", "op": "AddV2", "input": ["model_80/tf.nn.convolution_41/convolution", "model_80/tf.math.add_51/Add/y"], "attr": {"T": {"type": "DT_FLOAT"}}}, {"name": "model_80/tf.math.sigmoid_28/Sigmoid", "op": "Sigmoid", "input": ["model_80/tf.math.add_51/Add"], "attr": {"T": {"type": "DT_FLOAT"}}}, {"name": "model_80/tf.math.multiply_125/Mul", "op": "Mul", "input": ["model_80/tf.math.add_51/Add", "model_80/tf.math.sigmoid_28/Sigmoid"], "attr": {"T": {"type": "DT_FLOAT"}}}, {"name": "model_80/tf.math.add_53/Add", "op": "AddV2", "input": ["model_80/tf.math.add_49/Add", "model_80/tf.math.multiply_125/Mul"], "attr": {"T": {"type": "DT_FLOAT"}}}, {"name": "model_80/tf.concat_4/concat", "op": "ConcatV2", "input": ["model_80/tf.math.add_53/Add", "model_80/tf.math.multiply_107/Mul", "model_80/tf.concat_4/concat/axis"], "attr": {"N": {"i": "2"}, "T": {"type": "DT_FLOAT"}, "Tidx": {"type": "DT_INT32"}}}, {"name": "model_80/tf.nn.convolution_42/convolution", "op": "Conv2D", "input": ["model_80/tf.concat_4/concat", "model_80/tf.nn.convolution_42/convolution/filter"], "device": "/device:CPU:0", "attr": {"padding": {"s": "U0FNRQ=="}, "strides": {"list": {"i": ["1", "1", "1", "1"]}}, "data_format": {"s": "TkhXQw=="}, "explicit_paddings": {"list": {}}, "use_cudnn_on_gpu": {"b": true}, "T": {"type": "DT_FLOAT"}, "dilations": {"list": {"i": ["1", "1", "1", "1"]}}}}, {"name": "model_80/tf.math.add_54/Add", "op": "AddV2", "input": ["model_80/tf.nn.convolution_42/convolution", "model_80/tf.math.add_54/Add/y"], "attr": {"T": {"type": "DT_FLOAT"}}}, {"name": "model_80/tf.math.sigmoid_29/Sigmoid", "op": "Sigmoid", "input": ["model_80/tf.math.add_54/Add"], "attr": {"T": {"type": "DT_FLOAT"}}}, {"name": "model_80/tf.math.multiply_131/Mul", "op": "Mul", "input": ["model_80/tf.math.add_54/Add", "model_80/tf.math.sigmoid_29/Sigmoid"], "attr": {"T": {"type": "DT_FLOAT"}}}, {"name": "model_80/tf.concat_5/concat", "op": "ConcatV2", "input": ["model_80/tf.strided_slice_6/StridedSlice", "model_80/tf.strided_slice_7/StridedSlice", "model_80/tf.math.multiply_131/Mul", "model_80/tf.concat_5/concat/axis"], "attr": {"Tidx": {"type": "DT_INT32"}, "N": {"i": "3"}, "T": {"type": "DT_FLOAT"}}}, {"name": "model_80/tf.nn.convolution_43/convolution", "op": "Conv2D", "input": ["model_80/tf.concat_5/concat", "model_80/tf.nn.convolution_43/convolution/filter"], "device": "/device:CPU:0", "attr": {"strides": {"list": {"i": ["1", "1", "1", "1"]}}, "T": {"type": "DT_FLOAT"}, "use_cudnn_on_gpu": {"b": true}, "explicit_paddings": {"list": {}}, "dilations": {"list": {"i": ["1", "1", "1", "1"]}}, "data_format": {"s": "TkhXQw=="}, "padding": {"s": "U0FNRQ=="}}}, {"name": "model_80/tf.math.add_55/Add", "op": "AddV2", "input": ["model_80/tf.nn.convolution_43/convolution", "model_80/tf.math.add_55/Add/y"], "attr": {"T": {"type": "DT_FLOAT"}}}, {"name": "model_80/tf.math.sigmoid_30/Sigmoid", "op": "Sigmoid", "input": ["model_80/tf.math.add_55/Add"], "attr": {"T": {"type": "DT_FLOAT"}}}, {"name": "model_80/tf.math.multiply_135/Mul", "op": "Mul", "input": ["model_80/tf.math.add_55/Add", "model_80/tf.math.sigmoid_30/Sigmoid"], "attr": {"T": {"type": "DT_FLOAT"}}}, {"name": "model_80/tf.nn.convolution_44/convolution", "op": "Conv2D", "input": ["model_80/tf.math.multiply_135/Mul", "model_80/tf.nn.convolution_44/convolution/filter"], "device": "/device:CPU:0", "attr": {"use_cudnn_on_gpu": {"b": true}, "padding": {"s": "U0FNRQ=="}, "dilations": {"list": {"i": ["1", "1", "1", "1"]}}, "data_format": {"s": "TkhXQw=="}, "T": {"type": "DT_FLOAT"}, "strides": {"list": {"i": ["1", "1", "1", "1"]}}, "explicit_paddings": {"list": {}}}}, {"name": "model_80/tf.math.add_56/Add", "op": "AddV2", "input": ["model_80/tf.nn.convolution_44/convolution", "model_80/tf.math.add_56/Add/y"], "attr": {"T": {"type": "DT_FLOAT"}}}, {"name": "model_80/tf.math.sigmoid_31/Sigmoid", "op": "Sigmoid", "input": ["model_80/tf.math.add_56/Add"], "attr": {"T": {"type": "DT_FLOAT"}}}, {"name": "model_80/tf.math.multiply_139/Mul", "op": "Mul", "input": ["model_80/tf.math.add_56/Add", "model_80/tf.math.sigmoid_31/Sigmoid"], "attr": {"T": {"type": "DT_FLOAT"}}}, {"name": "model_80/tf.compat.v1.nn.pool/max_pool", "op": "MaxPool", "input": ["model_80/tf.math.multiply_139/Mul"], "attr": {"ksize": {"list": {"i": ["1", "5", "5", "1"]}}, "data_format": {"s": "TkhXQw=="}, "padding": {"s": "U0FNRQ=="}, "explicit_paddings": {"list": {}}, "T": {"type": "DT_FLOAT"}, "strides": {"list": {"i": ["1", "1", "1", "1"]}}}}, {"name": "model_80/tf.compat.v1.nn.pool_1/max_pool", "op": "MaxPool", "input": ["model_80/tf.compat.v1.nn.pool/max_pool"], "attr": {"strides": {"list": {"i": ["1", "1", "1", "1"]}}, "T": {"type": "DT_FLOAT"}, "padding": {"s": "U0FNRQ=="}, "ksize": {"list": {"i": ["1", "5", "5", "1"]}}, "data_format": {"s": "TkhXQw=="}, "explicit_paddings": {"list": {}}}}, {"name": "model_80/tf.compat.v1.nn.pool_2/max_pool", "op": "MaxPool", "input": ["model_80/tf.compat.v1.nn.pool_1/max_pool"], "attr": {"strides": {"list": {"i": ["1", "1", "1", "1"]}}, "T": {"type": "DT_FLOAT"}, "data_format": {"s": "TkhXQw=="}, "explicit_paddings": {"list": {}}, "padding": {"s": "U0FNRQ=="}, "ksize": {"list": {"i": ["1", "5", "5", "1"]}}}}, {"name": "model_80/tf.concat_6/concat", "op": "ConcatV2", "input": ["model_80/tf.math.multiply_139/Mul", "model_80/tf.compat.v1.nn.pool/max_pool", "model_80/tf.compat.v1.nn.pool_1/max_pool", "model_80/tf.compat.v1.nn.pool_2/max_pool", "model_80/tf.concat_6/concat/axis"], "attr": {"N": {"i": "4"}, "Tidx": {"type": "DT_INT32"}, "T": {"type": "DT_FLOAT"}}}, {"name": "model_80/tf.nn.convolution_45/convolution", "op": "Conv2D", "input": ["model_80/tf.concat_6/concat", "model_80/tf.nn.convolution_45/convolution/filter"], "device": "/device:CPU:0", "attr": {"dilations": {"list": {"i": ["1", "1", "1", "1"]}}, "strides": {"list": {"i": ["1", "1", "1", "1"]}}, "T": {"type": "DT_FLOAT"}, "explicit_paddings": {"list": {}}, "data_format": {"s": "TkhXQw=="}, "use_cudnn_on_gpu": {"b": true}, "padding": {"s": "U0FNRQ=="}}}, {"name": "model_80/tf.math.add_57/Add", "op": "AddV2", "input": ["model_80/tf.nn.convolution_45/convolution", "model_80/tf.math.add_57/Add/y"], "attr": {"T": {"type": "DT_FLOAT"}}}, {"name": "model_80/tf.math.sigmoid_32/Sigmoid", "op": "Sigmoid", "input": ["model_80/tf.math.add_57/Add"], "attr": {"T": {"type": "DT_FLOAT"}}}, {"name": "model_80/tf.math.multiply_143/Mul", "op": "Mul", "input": ["model_80/tf.math.add_57/Add", "model_80/tf.math.sigmoid_32/Sigmoid"], "attr": {"T": {"type": "DT_FLOAT"}}}, {"name": "model_80/tf.nn.convolution_46/convolution", "op": "Conv2D", "input": ["model_80/tf.math.multiply_143/Mul", "model_80/tf.nn.convolution_46/convolution/filter"], "device": "/device:CPU:0", "attr": {"padding": {"s": "U0FNRQ=="}, "use_cudnn_on_gpu": {"b": true}, "explicit_paddings": {"list": {}}, "T": {"type": "DT_FLOAT"}, "strides": {"list": {"i": ["1", "1", "1", "1"]}}, "dilations": {"list": {"i": ["1", "1", "1", "1"]}}, "data_format": {"s": "TkhXQw=="}}}, {"name": "model_80/tf.math.add_58/Add", "op": "AddV2", "input": ["model_80/tf.nn.convolution_46/convolution", "model_80/tf.math.add_58/Add/y"], "attr": {"T": {"type": "DT_FLOAT"}}}, {"name": "model_80/tf.math.sigmoid_33/Sigmoid", "op": "Sigmoid", "input": ["model_80/tf.math.add_58/Add"], "attr": {"T": {"type": "DT_FLOAT"}}}, {"name": "model_80/tf.math.multiply_147/Mul", "op": "Mul", "input": ["model_80/tf.math.add_58/Add", "model_80/tf.math.sigmoid_33/Sigmoid"], "attr": {"T": {"type": "DT_FLOAT"}}}, {"name": "model_80/tf.split/split", "op": "Split", "input": ["model_80/tf.split/split/split_dim", "model_80/tf.math.multiply_147/Mul"], "attr": {"num_split": {"i": "2"}, "T": {"type": "DT_FLOAT"}}}, {"name": "model_80/tf.nn.convolution_47/convolution", "op": "Conv2D", "input": ["model_80/tf.split/split:1", "model_80/tf.nn.convolution_47/convolution/filter"], "device": "/device:CPU:0", "attr": {"strides": {"list": {"i": ["1", "1", "1", "1"]}}, "use_cudnn_on_gpu": {"b": true}, "explicit_paddings": {"list": {}}, "T": {"type": "DT_FLOAT"}, "dilations": {"list": {"i": ["1", "1", "1", "1"]}}, "padding": {"s": "U0FNRQ=="}, "data_format": {"s": "TkhXQw=="}}}, {"name": "model_80/tf.math.add_59/Add", "op": "AddV2", "input": ["model_80/tf.nn.convolution_47/convolution", "model_80/tf.math.add_59/Add/y"], "attr": {"T": {"type": "DT_FLOAT"}}}, {"name": "model_80/tf.compat.v1.transpose_10/transpose", "op": "Transpose", "input": ["model_80/tf.math.add_59/Add", "model_80/tf.compat.v1.transpose_10/transpose/perm"], "attr": {"T": {"type": "DT_FLOAT"}, "Tperm": {"type": "DT_INT32"}}}, {"name": "model_80/tf.reshape_2/Reshape", "op": "Reshape", "input": ["model_80/tf.compat.v1.transpose_10/transpose", "model_80/tf.reshape_2/Reshape/shape"], "attr": {"Tshape": {"type": "DT_INT32"}, "T": {"type": "DT_FLOAT"}}}, {"name": "model_80/tf.strided_slice_8/StridedSlice", "op": "StridedSlice", "input": ["model_80/tf.reshape_2/Reshape", "model_80/tf.strided_slice_8/StridedSlice/begin", "model_80/tf.strided_slice_8/StridedSlice/end", "model_80/tf.strided_slice_8/ones_like"], "attr": {"end_mask": {"i": "11"}, "shrink_axis_mask": {"i": "0"}, "ellipsis_mask": {"i": "0"}, "new_axis_mask": {"i": "0"}, "begin_mask": {"i": "11"}, "T": {"type": "DT_FLOAT"}, "Index": {"type": "DT_INT32"}}}, {"name": "model_80/tf.strided_slice_9/StridedSlice", "op": "StridedSlice", "input": ["model_80/tf.reshape_2/Reshape", "model_80/tf.strided_slice_9/StridedSlice/begin", "model_80/tf.strided_slice_9/StridedSlice/end", "model_80/tf.strided_slice_9/ones_like"], "attr": {"shrink_axis_mask": {"i": "0"}, "begin_mask": {"i": "11"}, "ellipsis_mask": {"i": "0"}, "new_axis_mask": {"i": "0"}, "end_mask": {"i": "11"}, "Index": {"type": "DT_INT32"}, "T": {"type": "DT_FLOAT"}}}, {"name": "model_80/tf.strided_slice_10/StridedSlice", "op": "StridedSlice", "input": ["model_80/tf.reshape_2/Reshape", "model_80/tf.strided_slice_10/StridedSlice/begin", "model_80/tf.strided_slice_10/StridedSlice/end", "model_80/tf.strided_slice_10/ones_like"], "attr": {"begin_mask": {"i": "11"}, "T": {"type": "DT_FLOAT"}, "new_axis_mask": {"i": "0"}, "end_mask": {"i": "11"}, "Index": {"type": "DT_INT32"}, "shrink_axis_mask": {"i": "0"}, "ellipsis_mask": {"i": "0"}}}, {"name": "model_80/tf.linalg.matmul_1/ArithmeticOptimizer/FoldTransposeIntoMatMul_MatMul", "op": "BatchMatMulV2", "input": ["model_80/tf.strided_slice_8/StridedSlice", "model_80/tf.strided_slice_9/StridedSlice"], "attr": {"T": {"type": "DT_FLOAT"}, "adj_y": {"b": false}, "adj_x": {"b": true}}}, {"name": "model_80/tf.reshape_5/Reshape", "op": "Reshape", "input": ["model_80/tf.strided_slice_10/StridedSlice", "model_80/tf.reshape_5/Reshape/shape"], "attr": {"Tshape": {"type": "DT_INT32"}, "T": {"type": "DT_FLOAT"}}}, {"name": "model_80/tf.math.multiply_149/Mul", "op": "Mul", "input": ["model_80/tf.linalg.matmul_1/ArithmeticOptimizer/FoldTransposeIntoMatMul_MatMul", "model_80/tf.math.multiply_149/Mul/y"], "attr": {"T": {"type": "DT_FLOAT"}}}, {"name": "model_80/tf.compat.v1.transpose_18/transpose", "op": "Transpose", "input": ["model_80/tf.reshape_5/Reshape", "model_80/tf.compat.v1.transpose_18/transpose/perm"], "attr": {"T": {"type": "DT_FLOAT"}, "Tperm": {"type": "DT_INT32"}}}, {"name": "model_80/tf.nn.softmax_1//model.10/m/m.0/attn/Softmax", "op": "Softmax", "input": ["model_80/tf.math.multiply_149/Mul"], "attr": {"T": {"type": "DT_FLOAT"}}}, {"name": "model_80/tf.split_1/split", "op": "Split", "input": ["model_80/tf.split_1/split/split_dim", "model_80/tf.compat.v1.transpose_18/transpose"], "attr": {"num_split": {"i": "128"}, "T": {"type": "DT_FLOAT"}}}, {"name": "model_80/tf.linalg.matmul_3/ArithmeticOptimizer/FoldTransposeIntoMatMul_MatMul", "op": "BatchMatMulV2", "input": ["model_80/tf.strided_slice_10/StridedSlice", "model_80/tf.nn.softmax_1//model.10/m/m.0/attn/Softmax"], "attr": {"adj_x": {"b": false}, "T": {"type": "DT_FLOAT"}, "adj_y": {"b": true}}}, {"name": "model_80/tf.nn.convolution_48/convolution", "op": "Conv2D", "input": ["model_80/tf.split_1/split", "model_80/tf.nn.convolution_48/convolution/filter"], "device": "/device:CPU:0", "attr": {"use_cudnn_on_gpu": {"b": true}, "explicit_paddings": {"list": {}}, "padding": {"s": "U0FNRQ=="}, "T": {"type": "DT_FLOAT"}, "strides": {"list": {"i": ["1", "1", "1", "1"]}}, "dilations": {"list": {"i": ["1", "1", "1", "1"]}}, "data_format": {"s": "TkhXQw=="}}}, {"name": "model_80/tf.nn.convolution_49/convolution", "op": "Conv2D", "input": ["model_80/tf.split_1/split:1", "model_80/tf.nn.convolution_49/convolution/filter"], "device": "/device:CPU:0", "attr": {"use_cudnn_on_gpu": {"b": true}, "explicit_paddings": {"list": {}}, "T": {"type": "DT_FLOAT"}, "strides": {"list": {"i": ["1", "1", "1", "1"]}}, "padding": {"s": "U0FNRQ=="}, "dilations": {"list": {"i": ["1", "1", "1", "1"]}}, "data_format": {"s": "TkhXQw=="}}}, {"name": "model_80/tf.nn.convolution_50/convolution", "op": "Conv2D", "input": ["model_80/tf.split_1/split:2", "model_80/tf.nn.convolution_50/convolution/filter"], "device": "/device:CPU:0", "attr": {"use_cudnn_on_gpu": {"b": true}, "explicit_paddings": {"list": {}}, "T": {"type": "DT_FLOAT"}, "padding": {"s": "U0FNRQ=="}, "dilations": {"list": {"i": ["1", "1", "1", "1"]}}, "strides": {"list": {"i": ["1", "1", "1", "1"]}}, "data_format": {"s": "TkhXQw=="}}}, {"name": "model_80/tf.nn.convolution_51/convolution", "op": "Conv2D", "input": ["model_80/tf.split_1/split:3", "model_80/tf.nn.convolution_51/convolution/filter"], "device": "/device:CPU:0", "attr": {"strides": {"list": {"i": ["1", "1", "1", "1"]}}, "dilations": {"list": {"i": ["1", "1", "1", "1"]}}, "T": {"type": "DT_FLOAT"}, "padding": {"s": "U0FNRQ=="}, "data_format": {"s": "TkhXQw=="}, "explicit_paddings": {"list": {}}, "use_cudnn_on_gpu": {"b": true}}}, {"name": "model_80/tf.nn.convolution_52/convolution", "op": "Conv2D", "input": ["model_80/tf.split_1/split:4", "model_80/tf.nn.convolution_52/convolution/filter"], "device": "/device:CPU:0", "attr": {"use_cudnn_on_gpu": {"b": true}, "explicit_paddings": {"list": {}}, "T": {"type": "DT_FLOAT"}, "padding": {"s": "U0FNRQ=="}, "dilations": {"list": {"i": ["1", "1", "1", "1"]}}, "data_format": {"s": "TkhXQw=="}, "strides": {"list": {"i": ["1", "1", "1", "1"]}}}}, {"name": "model_80/tf.nn.convolution_53/convolution", "op": "Conv2D", "input": ["model_80/tf.split_1/split:5", "model_80/tf.nn.convolution_53/convolution/filter"], "device": "/device:CPU:0", "attr": {"data_format": {"s": "TkhXQw=="}, "explicit_paddings": {"list": {}}, "use_cudnn_on_gpu": {"b": true}, "T": {"type": "DT_FLOAT"}, "padding": {"s": "U0FNRQ=="}, "strides": {"list": {"i": ["1", "1", "1", "1"]}}, "dilations": {"list": {"i": ["1", "1", "1", "1"]}}}}, {"name": "model_80/tf.nn.convolution_54/convolution", "op": "Conv2D", "input": ["model_80/tf.split_1/split:6", "model_80/tf.nn.convolution_54/convolution/filter"], "device": "/device:CPU:0", "attr": {"padding": {"s": "U0FNRQ=="}, "T": {"type": "DT_FLOAT"}, "data_format": {"s": "TkhXQw=="}, "use_cudnn_on_gpu": {"b": true}, "dilations": {"list": {"i": ["1", "1", "1", "1"]}}, "explicit_paddings": {"list": {}}, "strides":…
"i": "0"}, "Index": {"type": "DT_INT64"}}}, {"name": "model_80/tf.strided_slice_20/StridedSlice", "op": "StridedSlice", "input": ["model_80/tf.concat_28/concat", "model_80/tf.strided_slice_20/StridedSlice/begin", "model_80/tf.strided_slice_20/StridedSlice/end", "model_80/tf.strided_slice_20/StridedSlice/strides"], "attr": {"T": {"type": "DT_FLOAT"}, "ellipsis_mask": {"i": "0"}, "shrink_axis_mask": {"i": "0"}, "begin_mask": {"i": "5"}, "Index": {"type": "DT_INT64"}, "end_mask": {"i": "5"}, "new_axis_mask": {"i": "0"}}}, {"name": "model_80/tf.reshape_29/Reshape", "op": "Reshape", "input": ["model_80/tf.strided_slice_19/StridedSlice", "model_80/tf.reshape_29/Reshape/shape"], "attr": {"T": {"type": "DT_FLOAT"}, "Tshape": {"type": "DT_INT32"}}}, {"name": "model_80/tf.math.sigmoid_84/Sigmoid", "op": "Sigmoid", "input": ["model_80/tf.strided_slice_20/StridedSlice"], "attr": {"T": {"type": "DT_FLOAT"}}}, {"name": "model_80/tf.compat.v1.transpose_87/transpose", "op": "Transpose", "input": ["model_80/tf.reshape_29/Reshape", "model_80/tf.compat.v1.transpose_87/transpose/perm"], "attr": {"Tperm": {"type": "DT_INT32"}, "T": {"type": "DT_FLOAT"}}}, {"name": "model_80/tf.compat.v1.transpose_88/transpose", "op": "Transpose", "input": ["model_80/tf.compat.v1.transpose_87/transpose", "model_80/tf.compat.v1.transpose_88/transpose/perm"], "attr": {"Tperm": {"type": "DT_INT32"}, "T": {"type": "DT_FLOAT"}}}, {"name": "model_80/tf.nn.softmax_2//model.23/dfl/Softmax", "op": "Softmax", "input": ["model_80/tf.compat.v1.transpose_88/transpose"], "attr": {"T": {"type": "DT_FLOAT"}}}, {"name": "model_80/tf.nn.convolution_242/convolution", "op": "Conv2D", "input": ["model_80/tf.nn.softmax_2//model.23/dfl/Softmax", "model_80/tf.nn.convolution_242/convolution/filter"], "device": "/device:CPU:0", "attr": {"T": {"type": "DT_FLOAT"}, "dilations": {"list": {"i": ["1", "1", "1", "1"]}}, "explicit_paddings": {"list": {}}, "data_format": {"s": "TkhXQw=="}, "padding": {"s": "U0FNRQ=="}, "use_cudnn_on_gpu": {"b": true}, "strides": {"list": {"i": ["1", "1", "1", "1"]}}}}, {"name": "model_80/tf.compat.v1.transpose_93/transpose", "op": "Transpose", "input": ["model_80/tf.nn.convolution_242/convolution", "model_80/tf.compat.v1.transpose_93/transpose/perm"], "attr": {"T": {"type": "DT_FLOAT"}, "Tperm": {"type": "DT_INT32"}}}, {"name": "model_80/tf.reshape_32/Reshape", "op": "Reshape", "input": ["model_80/tf.compat.v1.transpose_93/transpose", "model_80/tf.reshape_32/Reshape/shape"], "attr": {"T": {"type": "DT_FLOAT"}, "Tshape": {"type": "DT_INT32"}}}, {"name": "model_80/tf.split_2/split", "op": "Split", "input": ["model_80/tf.split_2/split/split_dim", "model_80/tf.reshape_32/Reshape"], "attr": {"num_split": {"i": "2"}, "T": {"type": "DT_FLOAT"}}}, {"name": "model_80/tf.math.subtract_1/Sub", "op": "Sub", "input": ["model_80/tf.split_2/split:1", "model_80/tf.split_2/split"], "attr": {"T": {"type": "DT_FLOAT"}}}, {"name": "model_80/tf.math.add_151/Add", "op": "AddV2", "input": ["model_80/tf.split_2/split", "model_80/tf.split_2/split:1"], "attr": {"T": {"type": "DT_FLOAT"}}}, {"name": "model_80/tf.math.divide/truediv", "op": "Mul", "input": ["model_80/tf.math.subtract_1/Sub", "ConstantFolding/model_80/tf.math.divide/truediv_recip"], "attr": {"T": {"type": "DT_FLOAT"}}}, {"name": "model_80/tf.strided_slice_21/StridedSlice", "op": "StridedSlice", "input": ["model_80/tf.math.divide/truediv", "model_80/tf.strided_slice_21/StridedSlice/begin", "model_80/tf.strided_slice_21/StridedSlice/end", "model_80/tf.strided_slice_21/ones_like"], "attr": {"new_axis_mask": {"i": "0"}, "begin_mask": {"i": "0"}, "shrink_axis_mask": {"i": "0"}, "T": {"type": "DT_FLOAT"}, "ellipsis_mask": {"i": "0"}, "end_mask": {"i": "0"}, "Index": {"type": "DT_INT32"}}}, {"name": "model_80/tf.strided_slice_22/StridedSlice", "op": "StridedSlice", "input": ["model_80/tf.math.divide/truediv", "model_80/tf.strided_slice_22/StridedSlice/begin", "model_80/tf.strided_slice_22/StridedSlice/end", "model_80/tf.strided_slice_22/ones_like"], "attr": {"T": {"type": "DT_FLOAT"}, "ellipsis_mask": {"i": "0"}, "new_axis_mask": {"i": "0"}, "begin_mask": {"i": "0"}, "shrink_axis_mask": {"i": "0"}, "end_mask": {"i": "0"}, "Index": {"type": "DT_INT32"}}}, {"name": "model_80/tf.math.multiply_383/Mul", "op": "Mul", "input": ["model_80/tf.strided_slice_21/StridedSlice", "model_80/tf.math.sin/Sin"], "attr": {"T": {"type": "DT_FLOAT"}}}, {"name": "model_80/tf.math.multiply_375/Mul", "op": "Mul", "input": ["model_80/tf.strided_slice_21/StridedSlice", "model_80/tf.math.cos/Cos"], "attr": {"T": {"type": "DT_FLOAT"}}}, {"name": "model_80/tf.math.multiply_379/Mul", "op": "Mul", "input": ["model_80/tf.strided_slice_22/StridedSlice", "model_80/tf.math.sin/Sin"], "attr": {"T": {"type": "DT_FLOAT"}}}, {"name": "model_80/tf.math.multiply_387/Mul", "op": "Mul", "input": ["model_80/tf.strided_slice_22/StridedSlice", "model_80/tf.math.cos/Cos"], "attr": {"T": {"type": "DT_FLOAT"}}}, {"name": "model_80/tf.math.subtract_2/Sub", "op": "Sub", "input": ["model_80/tf.math.multiply_375/Mul", "model_80/tf.math.multiply_379/Mul"], "attr": {"T": {"type": "DT_FLOAT"}}}, {"name": "model_80/tf.math.add_152/Add", "op": "AddV2", "input": ["model_80/tf.math.multiply_383/Mul", "model_80/tf.math.multiply_387/Mul"], "attr": {"T": {"type": "DT_FLOAT"}}}, {"name": "model_80/tf.concat_32/concat", "op": "ConcatV2", "input": ["model_80/tf.math.subtract_2/Sub", "model_80/tf.math.add_152/Add", "model_80/tf.concat_32/concat/axis"], "attr": {"N": {"i": "2"}, "T": {"type": "DT_FLOAT"}, "Tidx": {"type": "DT_INT32"}}}, {"name": "model_80/tf.math.add_153/Add", "op": "AddV2", "input": ["model_80/tf.concat_32/concat", "model_80/tf.math.add_153/Add/y"], "attr": {"T": {"type": "DT_FLOAT"}}}, {"name": "model_80/tf.concat_36/concat", "op": "ConcatV2", "input": ["model_80/tf.math.add_153/Add", "model_80/tf.math.add_151/Add", "model_80/tf.concat_36/concat/axis"], "attr": {"T": {"type": "DT_FLOAT"}, "N": {"i": "2"}, "Tidx": {"type": "DT_INT32"}}}, {"name": "model_80/tf.math.multiply_397/Mul", "op": "Mul", "input": ["model_80/tf.concat_36/concat", "model_80/tf.math.multiply_397/Mul/y"], "attr": {"T": {"type": "DT_FLOAT"}}}, {"name": "model_80/output0/concat", "op": "ConcatV2", "input": ["model_80/tf.math.multiply_397/Mul", "model_80/tf.math.sigmoid_84/Sigmoid", "model_80/tf.math.multiply_360/Mul", "model_80/output0/concat/axis"], "attr": {"N": {"i": "3"}, "Tidx": {"type": "DT_INT32"}, "T": {"type": "DT_FLOAT"}}}, {"name": "Identity", "op": "Identity", "input": ["model_80/output0/concat"], "attr": {"T": {"type": "DT_FLOAT"}}}], "library": {}, "versions": {"producer": 1482}}, "weightsManifest": [{"paths": ["group1-shard1of3.bin", "group1-shard2of3.bin", "group1-shard3of3.bin"], "weights": [{"name": "model_80/tf.strided_slice_21/StridedSlice/begin", "shape": [3], "dtype": "int32"}, {"name": "model_80/tf.strided_slice_21/StridedSlice/end", "shape": [3], "dtype": "int32"}, {"name": "model_80/tf.strided_slice_21/ones_like", "shape": [3], "dtype": "int32"}, {"name": "ConstantFolding/model_80/tf.math.divide/truediv_recip", "shape": [1, 1, 1], "dtype": "float32"}, {"name": "model_80/tf.strided_slice_22/StridedSlice/begin", "shape": [3], "dtype": "int32"}, {"name": "model_80/tf.strided_slice_22/StridedSlice/end", "shape": [3], "dtype": "int32"}, {"name": "model_80/tf.strided_slice_22/ones_like", "shape": [3], "dtype": "int32"}, {"name": "model_80/tf.concat_32/concat/axis", "shape": [], "dtype": "int32"}, {"name": "model_80/tf.math.add_153/Add/y", "shape": [1, 2, 21504], "dtype": "float32"}, {"name": "model_80/tf.split_2/split/split_dim", "shape": [], "dtype": "int32"}, {"name": "model_80/tf.strided_slice_19/StridedSlice/begin", "shape": [3], "dtype": "int32"}, {"name": "model_80/tf.strided_slice_19/StridedSlice/end", "shape": [3], "dtype": "int32"}, {"name": "model_80/tf.strided_slice_19/StridedSlice/strides", "shape": [3], "dtype": "int32"}, {"name": "model_80/tf.reshape_29/Reshape/shape", "shape": [4], "dtype": "int32"}, {"name": "model_80/tf.compat.v1.transpose_87/transpose/perm", "shape": [4], "dtype": "int32"}, {"name": "model_80/tf.compat.v1.transpose_88/transpose/perm", "shape": [4], "dtype": "int32"}, {"name": "model_80/tf.nn.convolution_242/convolution/filter", "shape": [1, 1, 16, 1], "dtype": "float32"}, {"name": "model_80/tf.compat.v1.transpose_93/transpose/perm", "shape": [4], "dtype": "int32"}, {"name": "model_80/tf.reshape_32/Reshape/shape", "shape": [3], "dtype": "int32"}, {"name": "model_80/tf.concat_36/concat/axis", "shape": [], "dtype": "int32"}, {"name": "model_80/tf.math.multiply_397/Mul/y", "shape": [1, 1, 21504], "dtype": "float32"}, {"name": "model_80/tf.nn.convolution_192/convolution/filter", "shape": [3, 3, 64, 64], "dtype": "float32"}, {"name": "model_80/tf.math.add_87/Add/y", "shape": [64], "dtype": "float32"}, {"name": "model_80/tf.nn.convolution_194/convolution/filter", "shape": [3, 3, 64, 64], "dtype": "float32"}, {"name": "model_80/tf.math.add_90/Add/y", "shape": [64], "dtype": "float32"}, {"name": "model_80/tf.nn.convolution_198/convolution/filter", "shape": [1, 1, 64, 64], "dtype": "float32"}, {"name": "model_80/tf.math.add_94/Add/y", "shape": [64], "dtype": "float32"}, {"name": "model_80/tf.compat.v1.nn.depthwise_conv2d/depthwise/filter_in", "shape": [3, 3, 64, 1], "dtype": "float32"}, {"name": "model_80/tf.math.add_88/Add/y", "shape": [64], "dtype": "float32"}, {"name": "model_80/tf.nn.convolution_195/convolution/filter", "shape": [1, 1, 64, 64], "dtype": "float32"}, {"name": "model_80/tf.math.add_91/Add/y", "shape": [64], "dtype": "float32"}, {"name": "model_80/tf.compat.v1.nn.depthwise_conv2d_1/depthwise/filter_in", "shape": [3, 3, 64, 1], "dtype": "float32"}, {"name": "model_80/tf.math.add_95/Add/y", "shape": [64], "dtype": "float32"}, {"name": "model_80/tf.nn.convolution_202/convolution/filter", "shape": [1, 1, 64, 64], "dtype": "float32"}, {"name": "model_80/tf.math.add_99/Add/y", "shape": [64], "dtype": "float32"}, {"name": "model_80/tf.nn.convolution_204/convolution/filter", "shape": [1, 1, 64, 15], "dtype": "float32"}, {"name": "model_80/tf.math.add_101/Add/y", "shape": [15], "dtype": "float32"}, {"name": "model_80/tf.concat_18/concat/axis", "shape": [], "dtype": "int32"}, {"name": "model_80/tf.compat.v1.transpose_43/transpose/perm", "shape": [4], "dtype": "int32"}, {"name": "model_80/tf.reshape_14/Reshape/shape", "shape": [3], "dtype": "int32"}, {"name": "model_80/tf.nn.convolution_208/convolution/filter", "shape": [3, 3, 128, 64], "dtype": "float32"}, {"name": "model_80/tf.math.add_107/Add/y", "shape": [64], "dtype": "float32"}, {"name": "model_80/tf.nn.convolution_212/convolution/filter", "shape": [3, 3, 64, 64], "dtype": "float32"}, {"name": "model_80/tf.math.add_112/Add/y", "shape": [64], "dtype": "float32"}, {"name": "model_80/tf.nn.convolution_218/convolution/filter", "shape": [1, 1, 64, 64], "dtype": "float32"}, {"name": "model_80/tf.math.add_118/Add/y", "shape": [64], "dtype": "float32"}, {"name": "model_80/tf.compat.v1.nn.depthwise_conv2d_2/depthwise/filter_in", "shape": [3, 3, 128, 1], "dtype": "float32"}, {"name": "model_80/tf.math.add_108/Add/y", "shape": [128], "dtype": "float32"}, {"name": "model_80/tf.nn.convolution_213/convolution/filter", "shape": [1, 1, 128, 64], "dtype": "float32"}, {"name": "model_80/tf.math.add_113/Add/y", "shape": [64], "dtype": "float32"}, {"name": "model_80/tf.compat.v1.nn.depthwise_conv2d_5/depthwise/filter_in", "shape": [3, 3, 64, 1], "dtype": "float32"}, {"name": "model_80/tf.math.add_121/Add/y", "shape": [64], "dtype": "float32"}, {"name": "model_80/tf.nn.convolution_223/convolution/filter", "shape": [1, 1, 64, 64], "dtype": "float32"}, {"name": "model_80/tf.math.add_126/Add/y", "shape": [64], "dtype": "float32"}, {"name": "model_80/tf.nn.convolution_227/convolution/filter", "shape": [1, 1, 64, 15], "dtype": "float32"}, {"name": "model_80/tf.math.add_130/Add/y", "shape": [15], "dtype": "float32"}, {"name": "model_80/tf.concat_23/concat/axis", "shape": [], "dtype": "int32"}, {"name": "model_80/tf.compat.v1.transpose_70/transpose/perm", "shape": [4], "dtype": "int32"}, {"name": "model_80/tf.reshape_20/Reshape/shape", "shape": [3], "dtype": "int32"}, {"name": "model_80/tf.nn.convolution_234/convolution/filter", "shape": [3, 3, 256, 64], "dtype": "float32"}, {"name": "model_80/tf.math.add_141/Add/y", "shape": [64], "dtype": "float32"}, {"name": "model_80/tf.nn.convolution_236/convolution/filter", "shape": [3, 3, 64, 64], "dtype": "float32"}, {"name": "model_80/tf.math.add_144/Add/y", "shape": [64], "dtype": "float32"}, {"name": "model_80/tf.nn.convolution_239/convolution/filter", "shape": [1, 1, 64, 64], "dtype": "float32"}, {"name": "model_80/tf.math.add_147/Add/y", "shape": [64], "dtype": "float32"}, {"name": "model_80/tf.compat.v1.nn.depthwise_conv2d_6/depthwise/filter_in", "shape": [3, 3, 256, 1], "dtype": "float32"}, {"name": "model_80/tf.math.add_142/Add/y", "shape": [256], "dtype": "float32"}, {"name": "model_80/tf.nn.convolution_237/convolution/filter", "shape": [1, 1, 256, 64], "dtype": "float32"}, {"name": "model_80/tf.math.add_145/Add/y", "shape": [64], "dtype": "float32"}, {"name": "model_80/tf.compat.v1.nn.depthwise_conv2d_7/depthwise/filter_in", "shape": [3, 3, 64, 1], "dtype": "float32"}, {"name": "model_80/tf.math.add_148/Add/y", "shape": [64], "dtype": "float32"}, {"name": "model_80/tf.nn.convolution_240/convolution/filter", "shape": [1, 1, 64, 64], "dtype": "float32"}, {"name": "model_80/tf.math.add_149/Add/y", "shape": [64], "dtype": "float32"}, {"name": "model_80/tf.nn.convolution_241/convolution/filter", "shape": [1, 1, 64, 15], "dtype": "float32"}, {"name": "model_80/tf.math.add_150/Add/y", "shape": [15], "dtype": "float32"}, {"name": "model_80/tf.concat_27/concat/axis", "shape": [], "dtype": "int32"}, {"name": "model_80/tf.compat.v1.transpose_80/transpose/perm", "shape": [4], "dtype": "int32"}, {"name": "model_80/tf.reshape_26/Reshape/shape", "shape": [3], "dtype": "int32"}, {"name": "model_80/tf.concat_28/concat/axis", "shape": [], "dtype": "int32"}, {"name": "model_80/tf.strided_slice_20/StridedSlice/begin", "shape": [3], "dtype": "int32"}, {"name": "model_80/tf.strided_slice_20/StridedSlice/end", "shape": [3], "dtype": "int32"}, {"name": "model_80/tf.strided_slice_20/StridedSlice/strides", "shape": [3], "dtype": "int32"}, {"name": "model_80/tf.nn.convolution_191/convolution/filter", "shape": [3, 3, 64, 16], "dtype": "float32"}, {"name": "model_80/tf.math.add_86/Add/y", "shape": [16], "dtype": "float32"}, {"name": "model_80/tf.nn.convolution_193/convolution/filter", "shape": [3, 3, 16, 16], "dtype": "float32"}, {"name": "model_80/tf.math.add_89/Add/y", "shape": [16], "dtype": "float32"}, {"name": "model_80/tf.nn.convolution_197/convolution/filter", "shape": [1, 1, 16, 1], "dtype": "float32"}, {"name": "model_80/tf.math.add_93/Add/y", "shape": [1], "dtype": "float32"}, {"name": "model_80/tf.compat.v1.transpose_35/transpose/perm", "shape": [4], "dtype": "int32"}, {"name": "model_80/tf.reshape_11/Reshape/shape", "shape": [3], "dtype": "int32"}, {"name": "model_80/tf.nn.convolution_207/convolution/filter", "shape": [3, 3, 128, 16], "dtype": "float32"}, {"name": "model_80/tf.math.add_106/Add/y", "shape": [16], "dtype": "float32"}, {"name": "model_80/tf.nn.convolution_209/convolution/filter", "shape": [3, 3, 16, 16], "dtype": "float32"}, {"name": "model_80/tf.math.add_109/Add/y", "shape": [16], "dtype": "float32"}, {"name": "model_80/tf.nn.convolution_215/convolution/filter", "shape": [1, 1, 16, 1], "dtype": "float32"}, {"name": "model_80/tf.math.add_115/Add/y", "shape": [1], "dtype": "float32"}, {"name": "model_80/tf.compat.v1.transpose_59/transpose/perm", "shape": [4], "dtype": "int32"}, {"name": "model_80/tf.reshape_17/Reshape/shape", "shape": [3], "dtype": "int32"}, {"name": "model_80/tf.strided_slice_17/ones_like/tensor", "shape": [4], "dtype": "int32"}, {"name": "model_80/tf.strided_slice_17/StridedSlice/end", "shape": [4], "dtype": "int32"}, {"name": "model_80/tf.strided_slice_17/ones_like", "shape": [4], "dtype": "int32"}, {"name": "model_80/tf.nn.convolution_219/convolution/filter", "shape": [1, 1, 128, 64], "dtype": "float32"}, {"name": "model_80/tf.math.add_122/Add/y", "shape": [64], "dtype": "float32"}, {"name": "model_80/tf.nn.convolution_224/convolution/filter", "shape": [3, 3, 64, 64], "dtype": "float32"}, {"name": "model_80/tf.math.add_127/Add/y", "shape": [64], "dtype": "float32"}, {"name": "model_80/tf.nn.convolution_228/convolution/filter", "shape": [3, 3, 64, 64], "dtype": "float32"}, {"name": "model_80/tf.math.add_131/Add/y", "shape": [64], "dtype": "float32"}, {"name": "model_80/tf.nn.convolution_229/convolution/filter", "shape": [3, 3, 64, 64], "dtype": "float32"}, {"name": "model_80/tf.math.add_134/Add/y", "shape": [64], "dtype": "float32"}, {"name": "model_80/tf.nn.convolution_230/convolution/filter", "shape": [3, 3, 64, 64], "dtype": "float32"}, {"name": "model_80/tf.math.add_135/Add/y", "shape": [64], "dtype": "float32"}, {"name": "model_80/tf.strided_slice_15/ones_like/tensor", "shape": [4], "dtype": "int32"}, {"name": "model_80/tf.strided_slice_15/StridedSlice/end", "shape": [4], "dtype": "int32"}, {"name": "model_80/tf.strided_slice_15/ones_like", "shape": [4], "dtype": "int32"}, {"name": "model_80/tf.strided_slice_13/ones_like/tensor", "shape": [4], "dtype": "int32"}, {"name": "model_80/tf.strided_slice_13/StridedSlice/end", "shape": [4], "dtype": "int32"}, {"name": "model_80/tf.strided_slice_13/ones_like", "shape": [4], "dtype": "int32"}, {"name": "model_80/tf.image.resize_1/resize/size", "shape": [2], "dtype": "int32"}, {"name": "model_80/tf.concat_13/concat/axis", "shape": [], "dtype": "int32"}, {"name": "model_80/tf.nn.convolution_186/convolution/filter", "shape": [1, 1, 256, 64], "dtype": "float32"}, {"name": "model_80/tf.math.add_79/Add/y", "shape": [64], "dtype": "float32"}, {"name": "model_80/tf.strided_slice_14/ones_like/tensor", "shape": [4], "dtype": "int32"}, {"name": "model_80/tf.strided_slice_14/StridedSlice/end", "shape": [4], "dtype": "int32"}, {"name": "model_80/tf.strided_slice_14/ones_like", "shape": [4], "dtype": "int32"}, {"name": "model_80/tf.nn.convolution_187/convolution/filter", "shape": [3, 3, 32, 16], "dtype": "float32"}, {"name": "model_80/tf.math.add_80/Add/y", "shape": [16], "dtype": "float32"}, {"name": "model_80/tf.nn.convolution_188/convolution/filter", "shape": [3, 3, 16, 32], "dtype": "float32"}, {"name": "model_80/tf.math.add_81/Add/y", "shape": [32], "dtype": "float32"}, {"name": "model_80/tf.concat_14/concat/axis", "shape": [], "dtype": "int32"}, {"name": "model_80/tf.nn.convolution_189/convolution/filter", "shape": [1, 1, 96, 64], "dtype": "float32"}, {"name": "model_80/tf.math.add_84/Add/y", "shape": [64], "dtype": "float32"}, {"name": "model_80/tf.compat.v1.pad_5/Pad/paddings", "shape": [4, 2], "dtype": "int32"}, {"name": "model_80/tf.nn.convolution_190/convolution/filter", "shape": [3, 3, 64, 64], "dtype": "float32"}, {"name": "model_80/tf.math.add_85/Add/y", "shape": [64], "dtype": "float32"}, {"name": "model_80/tf.strided_slice_11/ones_like/tensor", "shape": [4], "dtype": "int32"}, {"name": "model_80/tf.strided_slice_11/StridedSlice/end", "shape": [4], "dtype": "int32"}, {"name": "model_80/tf.strided_slice_11/ones_like", "shape": [4], "dtype": "int32"}, {"name": "model_80/tf.image.resize/resize/size", "shape": [2], "dtype": "int32"}, {"name": "model_80/tf.concat_9/concat/axis", "shape": [], "dtype": "int32"}, {"name": "model_80/tf.nn.convolution_180/convolution/filter", "shape": [1, 1, 384, 128], "dtype": "float32"}, {"name": "model_80/tf.math.add_71/Add/y", "shape": [128], "dtype": "float32"}, {"name": "model_80/tf.strided_slice_12/ones_like/tensor", "shape": [4], "dtype": "int32"}, {"name": "model_80/tf.strided_slice_12/StridedSlice/end", "shape": [4], "dtype": "int32"}, {"name": "model_80/tf.strided_slice_12/ones_like", "shape": [4], "dtype": "int32"}, {"name": "model_80/tf.nn.convolution_183/convolution/filter", "shape": [3, 3, 64, 32], "dtype": "float32"}, {"name": "model_80/tf.math.add_74/Add/y", "shape": [32], "dtype": "float32"}, {"name": "model_80/tf.nn.convolution_184/convolution/filter", "shape": [3, 3, 32, 64], "dtype": "float32"}, {"name": "model_80/tf.math.add_75/Add/y", "shape": [64], "dtype": "float32"}, {"name": "model_80/tf.concat_10/concat/axis", "shape": [], "dtype": "int32"}, {"name": "model_80/tf.nn.convolution_185/convolution/filter", "shape": [1, 1, 192, 128], "dtype": "float32"}, {"name": "model_80/tf.math.add_78/Add/y", "shape": [128], "dtype": "float32"}, {"name": "model_80/tf.concat_17/concat/axis", "shape": [], "dtype": "int32"}, {"name": "model_80/tf.nn.convolution_196/convolution/filter", "shape": [1, 1, 192, 128], "dtype": "float32"}, {"name": "model_80/tf.math.add_92/Add/y", "shape": [128], "dtype": "float32"}, {"name": "model_80/tf.strided_slice_16/ones_like/tensor", "shape": [4], "dtype": "int32"}, {"name": "model_80/tf.strided_slice_16/StridedSlice/end", "shape": [4], "dtype": "int32"}, {"name": "model_80/tf.strided_slice_16/ones_like", "shape": [4], "dtype": "int32"}, {"name": "model_80/tf.nn.convolution_201/convolution/filter", "shape": [3, 3, 64, 32], "dtype": "float32"}, {"name": "model_80/tf.math.add_98/Add/y", "shape": [32], "dtype": "float32"}, {"name": "model_80/tf.nn.convolution_203/convolution/filter", "shape": [3, 3, 32, 64], "dtype": "float32"}, {"name": "model_80/tf.math.add_100/Add/y", "shape": [64], "dtype": "float32"}, {"name": "model_80/tf.concat_19/concat/axis", "shape": [], "dtype": "int32"}, {"name": "model_80/tf.nn.convolution_205/convolution/filter", "shape": [1, 1, 192, 128], "dtype": "float32"}, {"name": "model_80/tf.math.add_104/Add/y", "shape": [128], "dtype": "float32"}, {"name": "model_80/tf.compat.v1.pad_6/Pad/paddings", "shape": [4, 2], "dtype": "int32"}, {"name": "model_80/tf.nn.convolution_206/convolution/filter", "shape": [3, 3, 128, 128], "dtype": "float32"}, {"name": "model_80/tf.math.add_105/Add/y", "shape": [128], "dtype": "float32"}, {"name": "model_80/tf.math.add_67/Add/y", "shape": [128], "dtype": "float32"}, {"name": "model_80/tf.math.add_63/Add/y", "shape": [128], "dtype": "float32"}, {"name": "model_80/tf.math.add_60/Add/y", "shape": [128], "dtype": "float32"}, {"name": "model_80/tf.strided_slice_8/StridedSlice/begin", "shape": [4], "dtype": "int32"}, {"name": "model_80/tf.strided_slice_8/StridedSlice/end", "shape": [4], "dtype": "int32"}, {"name": "model_80/tf.strided_slice_8/ones_like", "shape": [4], "dtype": "int32"}, {"name": "model_80/tf.strided_slice_9/StridedSlice/begin", "shape": [4], "dtype": "int32"}, {"name": "model_80/tf.strided_slice_9/StridedSlice/end", "shape": [4], "dtype": "int32"}, {"name": "model_80/tf.strided_slice_9/ones_like", "shape": [4], "dtype": "int32"}, {"name": "model_80/tf.math.multiply_149/Mul/y", "shape": [1, 1, 1, 1], "dtype": "float32"}, {"name": "model_80/tf.reshape_8/Reshape/shape", "shape": [4], "dtype": "int32"}, {"name": "model_80/tf.compat.v1.transpose_25/transpose/perm", "shape": [4], "dtype": "int32"}, {"name": "model_80/tf.nn.convolution_48/convolution/filter", "shape": [3, 3, 1, 1], "dtype": "float32"}, {"name": "model_80/tf.nn.convolution_49/convolution/filter", "shape": [3, 3, 1, 1], "dtype": "float32"}, {"name": "model_80/tf.nn.convolution_50/convolution/filter", "shape": [3, 3, 1, 1], "dtype": "float32"}, {"name": "model_80/tf.nn.convolution_51/convolution/filter", "shape": [3, 3, 1, 1], "dtype": "float32"}, {"name": "model_80/tf.nn.convolution_52/convolution/filter", "shape": [3, 3, 1, 1], "dtype": "float32"}, {"name": "model_80/tf.nn.convolution_53/convolution/filter", "shape": [3, 3, 1, 1], "dtype": "float32"}, {"name": "model_80/tf.nn.convolution_54/convolution/filter", "shape": [3, 3, 1, 1], "dtype": "float32"}, {"name": "model_80/tf.nn.convolution_55/convolution/filter", "shape": [3, 3, 1, 1], "dtype": "float32"}, {"name": "model_80/tf.nn.convolution_56/convolution/filter", "shape": [3, 3, 1, 1], "dtype": "float32"}, {"name": "model_80/tf.nn.convolution_57/convolution/filter", "shape": [3, 3, 1, 1], "dtype": "float32"}, {"name": "model_80/tf.nn.convolution_58/convolution/filter", "shape": [3, 3, 1, 1], "dtype": "float32"}, {"name": "model_80/tf.nn.convolution_59/convolution/filter", "shape": [3, 3, 1, 1], "dtype": "float32"}, {"name": "model_80/tf.nn.convolution_60/convolution/filter", "shape": [3, 3, 1, 1], "dtype": "float32"}, {"name": "model_80/tf.nn.convolution_61/convolution/filter", "shape": [3, 3, 1, 1], "dtype": "float32"}, {"name": "model_80/tf.nn.convolution_62/convolution/filter", "shape": [3, 3, 1, 1], "dtype": "float32"}, {"name": "model_80/tf.nn.convolution_63/convolution/filter", "shape": [3, 3, 1, 1], "dtype": "float32"}, {"name": "model_80/tf.nn.convolution_64/convolution/filter", "shape": [3, 3, 1, 1], "dtype": "float32"}, {"name": "model_80/tf.nn.convolution_65/convolution/filter", "shape": [3, 3, 1, 1], "dtype": "float32"}, {"name": "model_80/tf.nn.convolution_66/convolution/filter", "shape": [3, 3, 1, 1], "dtype": "float32"}, {"name": "model_80/tf.nn.convolution_67/convolution/filter", "shape": [3, 3, 1, 1], "dtype": "float32"}, {"name": "model_80/tf.nn.convolution_68/convolution/filter", "shape": [3, 3, 1, 1], "dtype": "float32"}, {"name": "model_80/tf.nn.convolution_69/convolution/filter", "shape": [3, 3, 1, 1], "dtype": "float32"}, {"name": "model_80/tf.nn.convolution_70/convolution/filter", "shape": [3, 3, 1, 1], "dtype": "float32"}, {"name": "model_80/tf.nn.convolution_71/convolution/filter", "shape": [3, 3, 1, 1], "dtype": "float32"}, {"name": "model_80/tf.nn.convolution_72/convolution/filter", "shape": [3, 3, 1, 1], "dtype": "float32"}, {"name": "model_80/tf.nn.convolution_73/convolution/filter", "shape": [3, 3, 1, 1], "dtype": "float32"}, {"name": "model_80/tf.nn.convolution_74/convolution/filter", "shape": [3, 3, 1, 1], "dtype": "float32"}, {"name": "model_80/tf.nn.convolution_75/convolution/filter", "shape": [3, 3, 1, 1], "dtype": "float32"}, {"name": "model_80/tf.nn.convolution_76/convolution/filter", "shape": [3, 3, 1, 1], "dtype": "float32"}, {"name": "model_80/tf.nn.convolution_77/convolution/filter", "shape": [3, 3, 1, 1], "dtype": "float32"}, {"name": "model_80/tf.nn.convolution_78/convolution/filter", "shape": [3, 3, 1, 1], "dtype": "float32"}, {"name": "model_80/tf.nn.convolution_79/convolution/filter", "shape": [3, 3, 1, 1], "dtype": "float32"}, {"name": "model_80/tf.nn.convolution_80/convolution/filter", "shape": [3, 3, 1, 1], "dtype": "float32"}, {"name": "model_80/tf.nn.convolution_81/convolution/filter", "shape": [3, 3, 1, 1], "dtype": "float32"}, {"name": "model_80/tf.nn.convolution_82/convolution/filter", "shape": [3, 3, 1, 1], "dtype": "float32"}, {"name": "model_80/tf.nn.convolution_83/convolution/filter", "shape": [3, 3, 1, 1], "dtype": "float32"}, {"name": "model_80/tf.nn.convolution_84/convolution/filter", "shape": [3, 3, 1, 1], "dtype": "float32"}, {"name": "model_80/tf.nn.convolution_85/convolution/filter", "shape": [3, 3, 1, 1], "dtype": "float32"}, {"name": "model_80/tf.nn.convolution_86/convolution/filter", "shape": [3, 3, 1, 1], "dtype": "float32"}, {"name": "model_80/tf.nn.convolution_87/convolution/filter", "shape": [3, 3, 1, 1], "dtype": "float32"}, {"name": "model_80/tf.nn.convolution_88/convolution/filter", "shape": [3, 3, 1, 1], "dtype": "float32"}, {"name": "model_80/tf.nn.convolution_89/convolution/filter", "shape": [3, 3, 1, 1], "dtype": "float32"}, {"name": "model_80/tf.nn.convolution_90/convolution/filter", "shape": [3, 3, 1, 1], "dtype": "float32"}, {"name": "model_80/tf.nn.convolution_91/convolution/filter", "shape": [3, 3, 1, 1], "dtype": "float32"}, {"name": "model_80/tf.nn.convolution_92/convolution/filter", "shape": [3, 3, 1, 1], "dtype": "float32"}, {"name": "model_80/tf.nn.convolution_93/convolution/filter", "shape": [3, 3, 1, 1], "dtype": "float32"}, {"name": "model_80/tf.nn.convolution_94/convolution/filter", "shape": [3, 3, 1, 1], "dtype": "float32"}, {"name": "model_80/tf.nn.convolution_95/convolution/filter", "shape": [3, 3, 1, 1], "dtype": "float32"}, {"name": "model_80/tf.nn.convolution_96/convolution/filter", "shape": [3, 3, 1, 1], "dtype": "float32"}, {"name": "model_80/tf.nn.convolution_97/convolution/filter", "shape": [3, 3, 1, 1], "dtype": "float32"}, {"name": "model_80/tf.nn.convolution_98/convolution/filter", "shape": [3, 3, 1, 1], "dtype": "float32"}, {"name": "model_80/tf.nn.convolution_99/convolution/filter", "shape": [3, 3, 1, 1], "dtype": "float32"}, {"name": "model_80/tf.nn.convolution_100/convolution/filter", "shape": [3, 3, 1, 1], "dtype": "float32"}, {"name": "model_80/tf.nn.convolution_101/convolution/filter", "shape": [3, 3, 1, 1], "dtype": "float32"}, {"name": "model_80/tf.nn.convolution_102/convolution/filter", "shape": [3, 3, 1, 1], "dtype": "float32"}, {"name": "model_80/tf.nn.convolution_103/convolution/filter", "shape": [3, 3, 1, 1], "dtype": "float32"}, {"name": "model_80/tf.nn.convolution_104/convolution/filter", "shape": [3, 3, 1, 1], "dtype": "float32"}, {"name": "model_80/tf.nn.convolution_105/convolution/filter", "shape": [3, 3, 1, 1], "dtype": "float32"}, {"name": "model_80/tf.nn.convolution_106/convolution/filter", "shape": [3, 3, 1, 1], "dtype": "float32"}, {"name": "model_80/tf.nn.convolution_107/convolution/filter", "shape": [3, 3, 1, 1], "dtype": "float32"}, {"name": "model_80/tf.nn.convolution_108/convolution/filter", "shape": [3, 3, 1, 1], "dtype": "float32"}, {"name": "model_80/tf.nn.convolution_109/convolution/filter", "shape": [3, 3, 1, 1], "dtype": "float32"}, {"name": "model_80/tf.nn.convolution_110/convolution/filter", "shape": [3, 3, 1, 1], "dtype": "float32"}, {"name": "model_80/tf.nn.convolution_111/convolution/filter", "shape": [3, 3, 1, 1], "dtype": "float32"}, {"name": "model_80/tf.nn.convolution_112/convolution/filter", "shape": [3, 3, 1, 1], "dtype": "float32"}, {"name": "model_80/tf.nn.convolution_113/convolution/filter", "shape": [3, 3, 1, 1], "dtype": "float32"}, {"name": "model_80/tf.nn.convolution_114/convolution/filter", "shape": [3, 3, 1, 1], "dtype": "float32"}, {"name": "model_80/tf.nn.convolution_115/convolution/filter", "shape": [3, 3, 1, 1], "dtype": "float32"}, {"name": "model_80/tf.nn.convolution_116/convolution/filter", "shape": [3, 3, 1, 1], "dtype": "float32"}, {"name": "model_80/tf.nn.convolution_117/convolution/filter", "shape": [3, 3, 1, 1], "dtype": "float32"}, {"name": "model_80/tf.nn.convolution_118/convolution/filter", "shape": [3, 3, 1, 1], "dtype": "float32"}, {"name": "model_80/tf.nn.convolution_119/convolution/filter", "shape": [3, 3, 1, 1], "dtype": "float32"}, {"name": "model_80/tf.nn.convolution_120/convolution/filter", "shape": [3, 3, 1, 1], "dtype": "float32"}, {"name": "model_80/tf.nn.convolution_121/convolution/filter", "shape": [3, 3, 1, 1], "dtype": "float32"}, {"name": "model_80/tf.nn.convolution_122/convolution/filter", "shape": [3, 3, 1, 1], "dtype": "float32"}, {"name": "model_80/tf.nn.convolution_123/convolution/filter", "shape": [3, 3, 1, 1], "dtype": "float32"}, {"name": "model_80/tf.nn.convolution_124/convolution/filter", "shape": [3, 3, 1, 1], "dtype": "float32"}, {"name": "model_80/tf.nn.convolution_125/convolution/filter", "shape": [3, 3, 1, 1], "dtype": "float32"}, {"name": "model_80/tf.nn.convolution_126/convolution/filter", "shape": [3, 3, 1, 1], "dtype": "float32"}, {"name": "model_80/tf.nn.convolution_127/convolution/filter", "shape": [3, 3, 1, 1], "dtype": "float32"}, {"name": "model_80/tf.nn.convolution_128/convolution/filter", "shape": [3, 3, 1, 1], "dtype": "float32"}, {"name": "model_80/tf.nn.convolution_129/convolution/filter", "shape": [3, 3, 1, 1], "dtype": "float32"}, {"name": "model_80/tf.nn.convolution_130/convolution/filter", "shape": [3, 3, 1, 1], "dtype": "float32"}, {"name": "model_80/tf.nn.convolution_131/convolution/filter", "shape": [3, 3, 1, 1], "dtype": "float32"}, {"name": "model_80/tf.nn.convolution_132/convolution/filter", "shape": [3, 3, 1, 1], "dtype": "float32"}, {"name": "model_80/tf.nn.convolution_133/convolution/filter", "shape": [3, 3, 1, 1], "dtype": "float32"}, {"name": "model_80/tf.nn.convolution_134/convolution/filter", "shape": [3, 3, 1, 1], "dtype": "float32"}, {"name": "model_80/tf.nn.convolution_135/convolution/filter", "shape": [3, 3, 1, 1], "dtype": "float32"}, {"name": "model_80/tf.nn.convolution_136/convolution/filter", "shape": [3, 3, 1, 1], "dtype": "float32"}, {"name": "model_80/tf.nn.convolution_137/convolution/filter", "shape": [3, 3, 1, 1], "dtype": "float32"}, {"name": "model_80/tf.nn.convolution_138/convolution/filter", "shape": [3, 3, 1, 1], "dtype": "float32"}, {"name": "model_80/tf.nn.convolution_139/convolution/filter", "shape": [3, 3, 1, 1], "dtype": "float32"}, {"name": "model_80/tf.nn.convolution_140/convolution/filter", "shape": [3, 3, 1, 1], "dtype": "float32"}, {"name": "model_80/tf.nn.convolution_141/convolution/filter", "shape": [3, 3, 1, 1], "dtype": "float32"}, {"name": "model_80/tf.nn.convolution_142/convolution/filter", "shape": [3, 3, 1, 1], "dtype": "float32"}, {"name": "model_80/tf.nn.convolution_143/convolution/filter", "shape": [3, 3, 1, 1], "dtype": "float32"}, {"name": "model_80/tf.nn.convolution_144/convolution/filter", "shape": [3, 3, 1, 1], "dtype": "float32"}, {"name": "model_80/tf.nn.convolution_145/convolution/filter", "shape": [3, 3, 1, 1], "dtype": "float32"}, {"name": "model_80/tf.nn.convolution_146/convolution/filter", "shape": [3, 3, 1, 1], "dtype": "float32"}, {"name": "model_80/tf.nn.convolution_147/convolution/filter", "shape": [3, 3, 1, 1], "dtype": "float32"}, {"name": "model_80/tf.nn.convolution_148/convolution/filter", "shape": [3, 3, 1, 1], "dtype": "float32"}, {"name": "model_80/tf.nn.convolution_149/convolution/filter", "shape": [3, 3, 1, 1], "dtype": "float32"}, {"name": "model_80/tf.nn.convolution_150/convolution/filter", "shape": [3, 3, 1, 1], "dtype": "float32"}, {"name": "model_80/tf.nn.convolution_151/convolution/filter", "shape": [3, 3, 1, 1], "dtype": "float32"}, {"name": "model_80/tf.nn.convolution_152/convolution/filter", "shape": [3, 3, 1, 1], "dtype": "float32"}, {"name": "model_80/tf.nn.convolution_153/convolution/filter", "shape": [3, 3, 1, 1], "dtype": "float32"}, {"name": "model_80/tf.nn.convolution_154/convolution/filter", "shape": [3, 3, 1, 1], "dtype": "float32"}, {"name": "model_80/tf.nn.convolution_155/convolution/filter", "shape": [3, 3, 1, 1], "dtype": "float32"}, {"name": "model_80/tf.nn.convolution_156/convolution/filter", "shape": [3, 3, 1, 1], "dtype": "float32"}, {"name": "model_80/tf.nn.convolution_157/convolution/filter", "shape": [3, 3, 1, 1], "dtype": "float32"}, {"name": "model_80/tf.nn.convolution_158/convolution/filter", "shape": [3, 3, 1, 1], "dtype": "float32"}, {"name": "model_80/tf.nn.convolution_159/convolution/filter", "shape": [3, 3, 1, 1], "dtype": "float32"}, {"name": "model_80/tf.nn.convolution_160/convolution/filter", "shape": [3, 3, 1, 1], "dtype": "float32"}, {"name": "model_80/tf.nn.convolution_161/convolution/filter", "shape": [3, 3, 1, 1], "dtype": "float32"}, {"name": "model_80/tf.nn.convolution_162/convolution/filter", "shape": [3, 3, 1, 1], "dtype": "float32"}, {"name": "model_80/tf.nn.convolution_163/convolution/filter", "shape": [3, 3, 1, 1], "dtype": "float32"}, {"name": "model_80/tf.nn.convolution_164/convolution/filter", "shape": [3, 3, 1, 1], "dtype": "float32"}, {"name": "model_80/tf.nn.convolution_165/convolution/filter", "shape": [3, 3, 1, 1], "dtype": "float32"}, {"name": "model_80/tf.nn.convolution_166/convolution/filter", "shape": [3, 3, 1, 1], "dtype": "float32"}, {"name": "model_80/tf.nn.convolution_167/convolution/filter", "shape": [3, 3, 1, 1], "dtype": "float32"}, {"name": "model_80/tf.nn.convolution_168/convolution/filter", "shape": [3, 3, 1, 1], "dtype": "float32"}, {"name": "model_80/tf.nn.convolution_169/convolution/filter", "shape": [3, 3, 1, 1], "dtype": "float32"}, {"name": "model_80/tf.nn.convolution_170/convolution/filter", "shape": [3, 3, 1, 1], "dtype": "float32"}, {"name": "model_80/tf.nn.convolution_171/convolution/filter", "shape": [3, 3, 1, 1], "dtype": "float32"}, {"name": "model_80/tf.nn.convolution_172/convolution/filter", "shape": [3, 3, 1, 1], "dtype": "float32"}, {"name": "model_80/tf.nn.convolution_173/convolution/filter", "shape": [3, 3, 1, 1], "dtype": "float32"}, {"name": "model_80/tf.nn.convolution_174/convolution/filter", "shape": [3, 3, 1, 1], "dtype": "float32"}, {"name": "model_80/tf.split_1/split/split_dim", "shape": [], "dtype": "int32"}, {"name": "model_80/tf.split/split/split_dim", "shape": [], "dtype": "int32"}, {"name": "model_80/tf.strided_slice_6/ones_like/tensor", "shape": [4], "dtype": "int32"}, {"name": "model_80/tf.strided_slice_6/StridedSlice/end", "shape": [4], "dtype": "int32"}, {"name": "model_80/tf.strided_slice_6/ones_like", "shape": [4], "dtype": "int32"}, {"name": "model_80/tf.nn.convolution_36/convolution/filter", "shape": [1, 1, 128, 64], "dtype": "float32"}, {"name": "model_80/tf.math.add_44/Add/y", "shape": [64], "dtype": "float32"}, {"name": "model_80/tf.nn.convolution_38/convolution/filter", "shape": [3, 3, 64, 64], "dtype": "float32"}, {"name": "model_80/tf.math.add_46/Add/y", "shape": [64], "dtype": "float32"}, {"name": "model_80/tf.nn.convolution_39/convolution/filter", "shape": [3, 3, 64, 64], "dtype": "float32"}, {"name": "model_80/tf.math.add_47/Add/y", "shape": [64], "dtype": "float32"}, {"name": "model_80/tf.nn.convolution_40/convolution/filter", "shape": [3, 3, 64, 64], "dtype": "float32"}, {"name": "model_80/tf.math.add_50/Add/y", "shape": [64], "dtype": "float32"}, {"name": "model_80/tf.nn.convolution_41/convolution/filter", "shape": [3, 3, 64, 64], "dtype": "float32"}, {"name": "model_80/tf.math.add_51/Add/y", "shape": [64], "dtype": "float32"}, {"name": "model_80/tf.strided_slice_4/ones_like/tensor", "shape": [4], "dtype": "int32"}, {"name": "model_80/tf.strided_slice_4/StridedSlice/end", "shape": [4], "dtype": "int32"}, {"name": "model_80/tf.strided_slice_4/ones_like", "shape": [4], "dtype": "int32"}, {"name": "model_80/tf.nn.convolution_22/convolution/filter", "shape": [1, 1, 64, 32], "dtype": "float32"}, {"name": "model_80/tf.math.add_26/Add/y", "shape": [32], "dtype": "float32"}, {"name": "model_80/tf.nn.convolution_26/convolution/filter", "shape": [3, 3, 32, 32], "dtype": "float32"}, {"name": "model_80/tf.math.add_30/Add/y", "shape": [32], "dtype": "float32"}, {"name": "model_80/tf.nn.convolution_27/convolution/filter", "shape": [3, 3, 32, 32], "dtype": "float32"}, {"name": "model_80/tf.math.add_31/Add/y", "shape": [32], "dtype": "float32"}, {"name": "model_80/tf.nn.convolution_28/convolution/filter", "shape": [3, 3, 32, 32], "dtype": "float32"}, {"name": "model_80/tf.math.add_34/Add/y", "shape": [32], "dtype": "float32"}, {"name": "model_80/tf.nn.convolution_29/convolution/filter", "shape": [3, 3, 32, 32], "dtype": "float32"}, {"name": "model_80/tf.math.add_35/Add/y", "shape": [32], "dtype": "float32"}, {"name": "model_80/tf.strided_slice_2/ones_like/tensor", "shape": [4], "dtype": "int32"}, {"name": "model_80/tf.strided_slice_2/StridedSlice/end", "shape": [4], "dtype": "int32"}, {"name": "model_80/tf.strided_slice_2/ones_like", "shape": [4], "dtype": "int32"}, {"name": "model_80/tf.strided_slice/ones_like/tensor", "shape": [4], "dtype": "int32"}, {"name": "model_80/tf.strided_slice/StridedSlice/end", "shape": [4], "dtype": "int32"}, {"name": "model_80/tf.strided_slice/ones_like", "shape": [4], "dtype": "int32"}, {"name": "model_80/tf.compat.v1.pad/Pad/paddings", "shape": [4, 2], "dtype": "int32"}, {"name": "model_80/tf.nn.convolution/convolution/filter", "shape": [3, 3, 3, 16], "dtype": "float32"}, {"name": "model_80/tf.math.add/Add/y", "shape": [16], "dtype": "float32"}, {"name": "model_80/tf.compat.v1.pad_1/Pad/paddings", "shape": [4, 2], "dtype": "int32"}, {"name": "model_80/tf.nn.convolution_1/convolution/filter", "shape": [3, 3, 16, 32], "dtype": "float32"}, {"name": "model_80/tf.math.add_1/Add/y", "shape": [32], "dtype": "float32"}, {"name": "model_80/tf.nn.convolution_2/convolution/filter", "shape": [1, 1, 32, 32], "dtype": "float32"}, {"name": "model_80/tf.math.add_2/Add/y", "shape": [32], "dtype": "float32"}, {"name": "model_80/tf.strided_slice_1/ones_like/tensor", "shape": [4], "dtype": "int32"}, {"name": "model_80/tf.strided_slice_1/StridedSlice/end", "shape": [4], "dtype": "int32"}, {"name": "model_80/tf.strided_slice_1/ones_like", "shape": [4], "dtype": "int32"}, {"name": "model_80/tf.nn.convolution_3/convolution/filter", "shape": [3, 3, 16, 8], "dtype": "float32"}, {"name": "model_80/tf.math.add_3/Add/y", "shape": [8], "dtype": "float32"}, {"name": "model_80/tf.nn.convolution_4/convolution/filter", "shape": [3, 3, 8, 16], "dtype": "float32"}, {"name": "model_80/tf.math.add_4/Add/y", "shape": [16], "dtype": "float32"}, {"name": "model_80/tf.concat/concat/axis", "shape": [], "dtype": "int32"}, {"name": "model_80/tf.nn.convolution_5/convolution/filter", "shape": [1, 1, 48, 64], "dtype": "float32"}, {"name": "model_80/tf.math.add_7/Add/y", "shape": [64], "dtype": "float32"}, {"name": "model_80/tf.compat.v1.pad_2/Pad/paddings", "shape": [4, 2], "dtype": "int32"}, {"name": "model_80/tf.nn.convolution_6/convolution/filter", "shape": [3, 3, 64, 64], "dtype": "float32"}, {"name": "model_80/tf.math.add_8/Add/y", "shape": [64], "dtype": "float32"}, {"name": "model_80/tf.nn.convolution_7/convolution/filter", "shape": [1, 1, 64, 64], "dtype": "float32"}, {"name": "model_80/tf.math.add_9/Add/y", "shape": [64], "dtype": "float32"}, {"name": "model_80/tf.strided_slice_3/ones_like/tensor", "shape": [4], "dtype": "int32"}, {"name": "model_80/tf.strided_slice_3/StridedSlice/end", "shape": [4], "dtype": "int32"}, {"name": "model_80/tf.strided_slice_3/ones_like", "shape": [4], "dtype": "int32"}, {"name": "model_80/tf.nn.convolution_8/convolution/filter", "shape": [3, 3, 32, 16], "dtype": "float32"}, {"name": "model_80/tf.math.add_10/Add/y", "shape": [16], "dtype": "float32"}, {"name": "model_80/tf.nn.convolution_9/convolution/filter", "shape": [3, 3, 16, 32], "dtype": "float32"}, {"name": "model_80/tf.math.add_11/Add/y", "shape": [32], "dtype": "float32"}, {"name": "model_80/tf.concat_1/concat/axis", "shape": [], "dtype": "int32"}, {"name": "model_80/tf.nn.convolution_10/convolution/filter", "shape": [1, 1, 96, 128], "dtype": "float32"}, {"name": "model_80/tf.math.add_14/Add/y", "shape": [128], "dtype": "float32"}, {"name": "model_80/tf.compat.v1.pad_3/Pad/paddings", "shape": [4, 2], "dtype": "int32"}, {"name": "model_80/tf.nn.convolution_18/convolution/filter", "shape": [3, 3, 128, 128], "dtype": "float32"}, {"name": "model_80/tf.math.add_22/Add/y", "shape": [128], "dtype": "float32"}, {"name": "model_80/tf.nn.convolution_19/convolution/filter", "shape": [1, 1, 128, 128], "dtype": "float32"}, {"name": "model_80/tf.math.add_23/Add/y", "shape": [128], "dtype": "float32"}, {"name": "model_80/tf.strided_slice_5/ones_like/tensor", "shape": [4], "dtype": "int32"}, {"name": "model_80/tf.strided_slice_5/StridedSlice/end", "shape": [4], "dtype": "int32"}, {"name": "model_80/tf.strided_slice_5/ones_like", "shape": [4], "dtype": "int32"}, {"name": "model_80/tf.nn.convolution_25/convolution/filter", "shape": [1, 1, 64, 32], "dtype": "float32"}, {"name": "model_80/tf.math.add_29/Add/y", "shape": [32], "dtype": "float32"}, {"name": "model_80/tf.concat_2/concat/axis", "shape": [], "dtype": "int32"}, {"name": "model_80/tf.nn.convolution_32/convolution/filter", "shape": [1, 1, 64, 64], "dtype": "float32"}, {"name": "model_80/tf.math.add_40/Add/y", "shape": [64], "dtype": "float32"}, {"name": "model_80/tf.concat_3/concat/axis", "shape": [], "dtype": "int32"}, {"name": "model_80/tf.nn.convolution_33/convolution/filter", "shape": [1, 1, 192, 128], "dtype": "float32"}, {"name": "model_80/tf.math.add_41/Add/y", "shape": [128], "dtype": "float32"}, {"name": "model_80/tf.compat.v1.pad_4/Pad/paddings", "shape": [4, 2], "dtype": "int32"}, {"name": "model_80/tf.nn.convolution_34/convolution/filter", "shape": [3, 3, 128, 256], "dtype": "float32"}, {"name": "model_80/tf.math.add_42/Add/y", "shape": [256], "dtype": "float32"}, {"name": "model_80/tf.nn.convolution_35/convolution/filter", "shape": [1, 1, 256, 256], "dtype": "float32"}, {"name": "model_80/tf.math.add_43/Add/y", "shape": [256], "dtype": "float32"}, {"name": "model_80/tf.strided_slice_7/ones_like/tensor", "shape": [4], "dtype": "int32"}, {"name": "model_80/tf.strided_slice_7/StridedSlice/end", "shape": [4], "dtype": "int32"}, {"name": "model_80/tf.strided_slice_7/ones_like", "shape": [4], "dtype": "int32"}, {"name": "model_80/tf.nn.convolution_37/convolution/filter", "shape": [1, 1, 128, 64], "dtype": "float32"}, {"name": "model_80/tf.math.add_45/Add/y", "shape": [64], "dtype": "float32"}, {"name": "model_80/tf.concat_4/concat/axis", "shape": [], "dtype": "int32"}, {"name": "model_80/tf.nn.convolution_42/convolution/filter", "shape": [1, 1, 128, 128], "dtype": "float32"}, {"name": "model_80/tf.math.add_54/Add/y", "shape": [128], "dtype": "float32"}, {"name": "model_80/tf.concat_5/concat/axis", "shape": [], "dtype": "int32"}, {"name": "model_80/tf.nn.convolution_43/convolution/filter", "shape": [1, 1, 384, 256], "dtype": "float32"}, {"name": "model_80/tf.math.add_55/Add/y", "shape": [256], "dtype": "float32"}, {"name": "model_80/tf.nn.convolution_44/convolution/filter", "shape": [1, 1, 256, 128], "dtype": "float32"}, {"name": "model_80/tf.math.add_56/Add/y", "shape": [128], "dtype": "float32"}, {"name": "model_80/tf.concat_6/concat/axis", "shape": [], "dtype": "int32"}, {"name": "model_80/tf.nn.convolution_45/convolution/filter", "shape": [1, 1, 512, 256], "dtype": "float32"}, {"name": "model_80/tf.math.add_57/Add/y", "shape": [256], "dtype": "float32"}, {"name": "model_80/tf.nn.convolution_46/convolution/filter", "shape": [1, 1, 256, 256], "dtype": "float32"}, {"name": "model_80/tf.math.add_58/Add/y", "shape": [256], "dtype": "float32"}, {"name": "model_80/tf.nn.convolution_47/convolution/filter", "shape": [1, 1, 128, 256], "dtype": "float32"}, {"name": "model_80/tf.math.add_59/Add/y", "shape": [256], "dtype": "float32"}, {"name": "model_80/tf.compat.v1.transpose_10/transpose/perm", "shape": [4], "dtype": "int32"}, {"name": "model_80/tf.reshape_2/Reshape/shape", "shape": [4], "dtype": "int32"}, {"name": "model_80/tf.strided_slice_10/StridedSlice/begin", "shape": [4], "dtype": "int32"}, {"name": "model_80/tf.strided_slice_10/StridedSlice/end", "shape": [4], "dtype": "int32"}, {"name": "model_80/tf.strided_slice_10/ones_like", "shape": [4], "dtype": "int32"}, {"name": "model_80/tf.reshape_5/Reshape/shape", "shape": [4], "dtype": "int32"}, {"name": "model_80/tf.compat.v1.transpose_18/transpose/perm", "shape": [4], "dtype": "int32"}, {"name": "model_80/tf.nn.convolution_175/convolution/filter", "shape": [3, 3, 1, 1], "dtype": "float32"}, {"name": "model_80/tf.concat_7/concat/axis", "shape": [], "dtype": "int32"}, {"name": "model_80/tf.nn.convolution_176/convolution/filter", "shape": [1, 1, 128, 128], "dtype": "float32"}, {"name": "model_80/tf.nn.convolution_177/convolution/filter", "shape": [1, 1, 128, 256], "dtype": "float32"}, {"name": "model_80/tf.math.add_66/Add/y", "shape": [256], "dtype": "float32"}, {"name": "model_80/tf.nn.convolution_178/convolution/filter", "shape": [1, 1, 256, 128], "dtype": "float32"}, {"name": "model_80/tf.concat_8/concat/axis", "shape": [], "dtype": "int32"}, {"name": "model_80/tf.nn.convolution_179/convolution/filter", "shape": [1, 1, 256, 256], "dtype": "float32"}, {"name": "model_80/tf.math.add_70/Add/y", "shape": [256], "dtype": "float32"}, {"name": "model_80/tf.concat_20/concat/axis", "shape": [], "dtype": "int32"}, {"name": "model_80/tf.nn.convolution_214/convolution/filter", "shape": [1, 1, 384, 256], "dtype": "float32"}, {"name": "model_80/tf.math.add_114/Add/y", "shape": [256], "dtype": "float32"}, {"name": "model_80/tf.strided_slice_18/ones_like/tensor", "shape": [4], "dtype": "int32"}, {"name": "model_80/tf.strided_slice_18/StridedSlice/end", "shape": [4], "dtype": "int32"}, {"name": "model_80/tf.strided_slice_18/ones_like", "shape": [4], "dtype": "int32"}, {"name": "model_80/tf.nn.convolution_220/convolution/filter", "shape": [1, 1, 128, 64], "dtype": "float32"}, {"name": "model_80/tf.math.add_123/Add/y", "shape": [64], "dtype": "float32"}, {"name": "model_80/tf.concat_24/concat/axis", "shape": [], "dtype": "int32"}, {"name": "model_80/tf.nn.convolution_231/convolution/filter", "shape": [1, 1, 128, 128], "dtype": "float32"}, {"name": "model_80/tf.math.add_138/Add/y", "shape": [128], "dtype": "float32"}, {"name": "model_80/tf.concat_25/concat/axis", "shape": [], "dtype": "int32"}, {"name": "model_80/tf.nn.convolution_232/convolution/filter", "shape": [1, 1, 384, 256], "dtype": "float32"}, {"name": "model_80/tf.math.add_139/Add/y", "shape": [256], "dtype": "float32"}, {"name": "model_80/tf.nn.convolution_233/convolution/filter", "shape": [3, 3, 256, 16], "dtype": "float32"}, {"name": "model_80/tf.math.add_140/Add/y", "shape": [16], "dtype": "float32"}, {"name": "model_80/tf.nn.convolution_235/convolution/filter", "shape": [3, 3, 16, 16], "dtype": "float32"}, {"name": "model_80/tf.math.add_143/Add/y", "shape": [16], "dtype": "float32"}, {"name": "model_80/tf.nn.convolution_238/convolution/filter", "shape": [1, 1, 16, 1], "dtype": "float32"}, {"name": "model_80/tf.math.add_146/Add/y", "shape": [1], "dtype": "float32"}, {"name": "model_80/tf.compat.v1.transpose_75/transpose/perm", "shape": [4], "dtype": "int32"}, {"name": "model_80/tf.reshape_23/Reshape/shape", "shape": [3], "dtype": "int32"}, {"name": "model_80/tf.concat_26/concat/axis", "shape": [], "dtype": "int32"}, {"name": "model_80/tf.math.subtract/Sub/y", "shape": [1, 1, 1], "dtype": "float32"}, {"name": "model_80/tf.math.multiply_360/Mul/y", "shape": [1, 1, 1], "dtype": "float32"}, {"name": "model_80/output0/concat/axis", "shape": [], "dtype": "int32"}]}]}