{"format": "graph-model", "generatedBy": "2.13.0", "convertedBy": "TensorFlow.js Converter v2.0.0", "userDefinedMetadata": {"signature": {"outputs": {"Identity:0": {"name": "Identity:0"}}}}, "modelTopology": {"node": [{"name": "model_69/tf.strided_slice_18/StridedSlice/begin", "op": "Const", "attr": {"dtype": {"type": "DT_INT32"}, "value": {"tensor": {"dtype": "DT_INT32", "tensorShape": {"dim": [{"size": "3"}]}}}}}, {"name": "model_69/tf.strided_slice_18/StridedSlice/end", "op": "Const", "attr": {"dtype": {"type": "DT_INT32"}, "value": {"tensor": {"dtype": "DT_INT32", "tensorShape": {"dim": [{"size": "3"}]}}}}}, {"name": "model_69/tf.strided_slice_18/ones_like", "op": "Const", "attr": {"value": {"tensor": {"dtype": "DT_INT32", "tensorShape": {"dim": [{"size": "3"}]}}}, "dtype": {"type": "DT_INT32"}}}, {"name": "ConstantFolding/model_69/tf.math.divide/truediv_recip", "op": "Const", "attr": {"dtype": {"type": "DT_FLOAT"}, "value": {"tensor": {"dtype": "DT_FLOAT", "tensorShape": {"dim": [{"size": "1"}, {"size": "1"}, {"size": "1"}]}}}}}, {"name": "model_69/tf.strided_slice_19/StridedSlice/begin", "op": "Const", "attr": {"value": {"tensor": {"dtype": "DT_INT32", "tensorShape": {"dim": [{"size": "3"}]}}}, "dtype": {"type": "DT_INT32"}}}, {"name": "model_69/tf.strided_slice_19/StridedSlice/end", "op": "Const", "attr": {"dtype": {"type": "DT_INT32"}, "value": {"tensor": {"dtype": "DT_INT32", "tensorShape": {"dim": [{"size": "3"}]}}}}}, {"name": "model_69/tf.strided_slice_19/ones_like", "op": "Const", "attr": {"value": {"tensor": {"dtype": "DT_INT32", "tensorShape": {"dim": [{"size": "3"}]}}}, "dtype": {"type": "DT_INT32"}}}, {"name": "model_69/tf.concat_27/concat/axis", "op": "Const", "attr": {"value": {"tensor": {"dtype": "DT_INT32", "tensorShape": {}}}, "dtype": {"type": "DT_INT32"}}}, {"name": "model_69/tf.math.add_112/Add/y", "op": "Const", "attr": {"dtype": {"type": "DT_FLOAT"}, "value": {"tensor": {"dtype": "DT_FLOAT", "tensorShape": {"dim": [{"size": "1"}, {"size": "2"}, {"size": "21504"}]}}}}}, {"name": "model_69/tf.split/split/split_dim", "op": "Const", "attr": {"value": {"tensor": {"dtype": "DT_INT32", "tensorShape": {}}}, "dtype": {"type": "DT_INT32"}}}, {"name": "model_69/tf.strided_slice_16/StridedSlice/begin", "op": "Const", "attr": {"dtype": {"type": "DT_INT64"}, "value": {"tensor": {"dtype": "DT_INT64", "tensorShape": {"dim": [{"size": "3"}]}}}}}, {"name": "model_69/tf.strided_slice_16/StridedSlice/end", "op": "Const", "attr": {"dtype": {"type": "DT_INT64"}, "value": {"tensor": {"dtype": "DT_INT64", "tensorShape": {"dim": [{"size": "3"}]}}}}}, {"name": "model_69/tf.strided_slice_16/StridedSlice/strides", "op": "Const", "attr": {"dtype": {"type": "DT_INT64"}, "value": {"tensor": {"dtype": "DT_INT64", "tensorShape": {"dim": [{"size": "3"}]}}}}}, {"name": "model_69/tf.reshape_20/Reshape/shape", "op": "Const", "attr": {"dtype": {"type": "DT_INT32"}, "value": {"tensor": {"dtype": "DT_INT32", "tensorShape": {"dim": [{"size": "4"}]}}}}}, {"name": "model_69/tf.compat.v1.transpose_77/transpose/perm", "op": "Const", "attr": {"dtype": {"type": "DT_INT32"}, "value": {"tensor": {"dtype": "DT_INT32", "tensorShape": {"dim": [{"size": "4"}]}}}}}, {"name": "model_69/tf.compat.v1.transpose_78/transpose/perm", "op": "Const", "attr": {"dtype": {"type": "DT_INT32"}, "value": {"tensor": {"dtype": "DT_INT32", "tensorShape": {"dim": [{"size": "4"}]}}}}}, {"name": "model_69/tf.nn.convolution_98/convolution/filter", "op": "Const", "attr": {"dtype": {"type": "DT_FLOAT"}, "value": {"tensor": {"dtype": "DT_FLOAT", "tensorShape": {"dim": [{"size": "1"}, {"size": "1"}, {"size": "16"}, {"size": "1"}]}}}}}, {"name": "model_69/tf.compat.v1.transpose_83/transpose/perm", "op": "Const", "attr": {"dtype": {"type": "DT_INT32"}, "value": {"tensor": {"dtype": "DT_INT32", "tensorShape": {"dim": [{"size": "4"}]}}}}}, {"name": "model_69/tf.reshape_23/Reshape/shape", "op": "Const", "attr": {"dtype": {"type": "DT_INT32"}, "value": {"tensor": {"dtype": "DT_INT32", "tensorShape": {"dim": [{"size": "3"}]}}}}}, {"name": "model_69/tf.concat_31/concat/axis", "op": "Const", "attr": {"dtype": {"type": "DT_INT32"}, "value": {"tensor": {"dtype": "DT_INT32", "tensorShape": {}}}}}, {"name": "model_69/tf.math.multiply_299/Mul/y", "op": "Const", "attr": {"dtype": {"type": "DT_FLOAT"}, "value": {"tensor": {"dtype": "DT_FLOAT", "tensorShape": {"dim": [{"size": "1"}, {"size": "1"}, {"size": "21504"}]}}}}}, {"name": "model_69/tf.nn.convolution_51/convolution/filter", "op": "Const", "attr": {"dtype": {"type": "DT_FLOAT"}, "value": {"tensor": {"dtype": "DT_FLOAT", "tensorShape": {"dim": [{"size": "3"}, {"size": "3"}, {"size": "64"}, {"size": "64"}]}}}}}, {"name": "model_69/tf.math.add_63/Add/y", "op": "Const", "attr": {"dtype": {"type": "DT_FLOAT"}, "value": {"tensor": {"dtype": "DT_FLOAT", "tensorShape": {"dim": [{"size": "64"}]}}}}}, {"name": "model_69/tf.nn.convolution_54/convolution/filter", "op": "Const", "attr": {"dtype": {"type": "DT_FLOAT"}, "value": {"tensor": {"dtype": "DT_FLOAT", "tensorShape": {"dim": [{"size": "3"}, {"size": "3"}, {"size": "64"}, {"size": "64"}]}}}}}, {"name": "model_69/tf.math.add_66/Add/y", "op": "Const", "attr": {"dtype": {"type": "DT_FLOAT"}, "value": {"tensor": {"dtype": "DT_FLOAT", "tensorShape": {"dim": [{"size": "64"}]}}}}}, {"name": "model_69/tf.nn.convolution_58/convolution/filter", "op": "Const", "attr": {"dtype": {"type": "DT_FLOAT"}, "value": {"tensor": {"dtype": "DT_FLOAT", "tensorShape": {"dim": [{"size": "1"}, {"size": "1"}, {"size": "64"}, {"size": "64"}]}}}}}, {"name": "model_69/tf.math.add_70/Add/y", "op": "Const", "attr": {"value": {"tensor": {"dtype": "DT_FLOAT", "tensorShape": {"dim": [{"size": "64"}]}}}, "dtype": {"type": "DT_FLOAT"}}}, {"name": "model_69/tf.nn.convolution_52/convolution/filter", "op": "Const", "attr": {"dtype": {"type": "DT_FLOAT"}, "value": {"tensor": {"dtype": "DT_FLOAT", "tensorShape": {"dim": [{"size": "3"}, {"size": "3"}, {"size": "64"}, {"size": "64"}]}}}}}, {"name": "model_69/tf.math.add_64/Add/y", "op": "Const", "attr": {"dtype": {"type": "DT_FLOAT"}, "value": {"tensor": {"dtype": "DT_FLOAT", "tensorShape": {"dim": [{"size": "64"}]}}}}}, {"name": "model_69/tf.nn.convolution_55/convolution/filter", "op": "Const", "attr": {"value": {"tensor": {"dtype": "DT_FLOAT", "tensorShape": {"dim": [{"size": "3"}, {"size": "3"}, {"size": "64"}, {"size": "64"}]}}}, "dtype": {"type": "DT_FLOAT"}}}, {"name": "model_69/tf.math.add_67/Add/y", "op": "Const", "attr": {"dtype": {"type": "DT_FLOAT"}, "value": {"tensor": {"dtype": "DT_FLOAT", "tensorShape": {"dim": [{"size": "64"}]}}}}}, {"name": "model_69/tf.nn.convolution_59/convolution/filter", "op": "Const", "attr": {"dtype": {"type": "DT_FLOAT"}, "value": {"tensor": {"dtype": "DT_FLOAT", "tensorShape": {"dim": [{"size": "1"}, {"size": "1"}, {"size": "64"}, {"size": "15"}]}}}}}, {"name": "model_69/tf.math.add_71/Add/y", "op": "Const", "attr": {"dtype": {"type": "DT_FLOAT"}, "value": {"tensor": {"dtype": "DT_FLOAT", "tensorShape": {"dim": [{"size": "15"}]}}}}}, {"name": "model_69/tf.concat_14/concat/axis", "op": "Const", "attr": {"dtype": {"type": "DT_INT32"}, "value": {"tensor": {"dtype": "DT_INT32", "tensorShape": {}}}}}, {"name": "model_69/tf.compat.v1.transpose_32/transpose/perm", "op": "Const", "attr": {"dtype": {"type": "DT_INT32"}, "value": {"tensor": {"dtype": "DT_INT32", "tensorShape": {"dim": [{"size": "4"}]}}}}}, {"name": "model_69/tf.reshape_5/Reshape/shape", "op": "Const", "attr": {"dtype": {"type": "DT_INT32"}, "value": {"tensor": {"dtype": "DT_INT32", "tensorShape": {"dim": [{"size": "3"}]}}}}}, {"name": "model_69/tf.nn.convolution_69/convolution/filter", "op": "Const", "attr": {"dtype": {"type": "DT_FLOAT"}, "value": {"tensor": {"dtype": "DT_FLOAT", "tensorShape": {"dim": [{"size": "3"}, {"size": "3"}, {"size": "128"}, {"size": "64"}]}}}}}, {"name": "model_69/tf.math.add_81/Add/y", "op": "Const", "attr": {"dtype": {"type": "DT_FLOAT"}, "value": {"tensor": {"dtype": "DT_FLOAT", "tensorShape": {"dim": [{"size": "64"}]}}}}}, {"name": "model_69/tf.nn.convolution_74/convolution/filter", "op": "Const", "attr": {"dtype": {"type": "DT_FLOAT"}, "value": {"tensor": {"dtype": "DT_FLOAT", "tensorShape": {"dim": [{"size": "3"}, {"size": "3"}, {"size": "64"}, {"size": "64"}]}}}}}, {"name": "model_69/tf.math.add_86/Add/y", "op": "Const", "attr": {"dtype": {"type": "DT_FLOAT"}, "value": {"tensor": {"dtype": "DT_FLOAT", "tensorShape": {"dim": [{"size": "64"}]}}}}}, {"name": "model_69/tf.nn.convolution_82/convolution/filter", "op": "Const", "attr": {"dtype": {"type": "DT_FLOAT"}, "value": {"tensor": {"dtype": "DT_FLOAT", "tensorShape": {"dim": [{"size": "1"}, {"size": "1"}, {"size": "64"}, {"size": "64"}]}}}}}, {"name": "model_69/tf.math.add_94/Add/y", "op": "Const", "attr": {"dtype": {"type": "DT_FLOAT"}, "value": {"tensor": {"dtype": "DT_FLOAT", "tensorShape": {"dim": [{"size": "64"}]}}}}}, {"name": "model_69/tf.nn.convolution_70/convolution/filter", "op": "Const", "attr": {"dtype": {"type": "DT_FLOAT"}, "value": {"tensor": {"dtype": "DT_FLOAT", "tensorShape": {"dim": [{"size": "3"}, {"size": "3"}, {"size": "128"}, {"size": "64"}]}}}}}, {"name": "model_69/tf.math.add_82/Add/y", "op": "Const", "attr": {"dtype": {"type": "DT_FLOAT"}, "value": {"tensor": {"dtype": "DT_FLOAT", "tensorShape": {"dim": [{"size": "64"}]}}}}}, {"name": "model_69/tf.nn.convolution_77/convolution/filter", "op": "Const", "attr": {"value": {"tensor": {"dtype": "DT_FLOAT", "tensorShape": {"dim": [{"size": "3"}, {"size": "3"}, {"size": "64"}, {"size": "64"}]}}}, "dtype": {"type": "DT_FLOAT"}}}, {"name": "model_69/tf.math.add_89/Add/y", "op": "Const", "attr": {"dtype": {"type": "DT_FLOAT"}, "value": {"tensor": {"dtype": "DT_FLOAT", "tensorShape": {"dim": [{"size": "64"}]}}}}}, {"name": "model_69/tf.nn.convolution_85/convolution/filter", "op": "Const", "attr": {"value": {"tensor": {"dtype": "DT_FLOAT", "tensorShape": {"dim": [{"size": "1"}, {"size": "1"}, {"size": "64"}, {"size": "15"}]}}}, "dtype": {"type": "DT_FLOAT"}}}, {"name": "model_69/tf.math.add_97/Add/y", "op": "Const", "attr": {"value": {"tensor": {"dtype": "DT_FLOAT", "tensorShape": {"dim": [{"size": "15"}]}}}, "dtype": {"type": "DT_FLOAT"}}}, {"name": "model_69/tf.concat_19/concat/axis", "op": "Const", "attr": {"dtype": {"type": "DT_INT32"}, "value": {"tensor": {"dtype": "DT_INT32", "tensorShape": {}}}}}, {"name": "model_69/tf.compat.v1.transpose_60/transpose/perm", "op": "Const", "attr": {"dtype": {"type": "DT_INT32"}, "value": {"tensor": {"dtype": "DT_INT32", "tensorShape": {"dim": [{"size": "4"}]}}}}}, {"name": "model_69/tf.reshape_11/Reshape/shape", "op": "Const", "attr": {"dtype": {"type": "DT_INT32"}, "value": {"tensor": {"dtype": "DT_INT32", "tensorShape": {"dim": [{"size": "3"}]}}}}}, {"name": "model_69/tf.nn.convolution_90/convolution/filter", "op": "Const", "attr": {"dtype": {"type": "DT_FLOAT"}, "value": {"tensor": {"dtype": "DT_FLOAT", "tensorShape": {"dim": [{"size": "3"}, {"size": "3"}, {"size": "256"}, {"size": "64"}]}}}}}, {"name": "model_69/tf.math.add_102/Add/y", "op": "Const", "attr": {"value": {"tensor": {"dtype": "DT_FLOAT", "tensorShape": {"dim": [{"size": "64"}]}}}, "dtype": {"type": "DT_FLOAT"}}}, {"name": "model_69/tf.nn.convolution_93/convolution/filter", "op": "Const", "attr": {"dtype": {"type": "DT_FLOAT"}, "value": {"tensor": {"dtype": "DT_FLOAT", "tensorShape": {"dim": [{"size": "3"}, {"size": "3"}, {"size": "64"}, {"size": "64"}]}}}}}, {"name": "model_69/tf.math.add_105/Add/y", "op": "Const", "attr": {"dtype": {"type": "DT_FLOAT"}, "value": {"tensor": {"dtype": "DT_FLOAT", "tensorShape": {"dim": [{"size": "64"}]}}}}}, {"name": "model_69/tf.nn.convolution_96/convolution/filter", "op": "Const", "attr": {"dtype": {"type": "DT_FLOAT"}, "value": {"tensor": {"dtype": "DT_FLOAT", "tensorShape": {"dim": [{"size": "1"}, {"size": "1"}, {"size": "64"}, {"size": "64"}]}}}}}, {"name": "model_69/tf.math.add_108/Add/y", "op": "Const", "attr": {"dtype": {"type": "DT_FLOAT"}, "value": {"tensor": {"dtype": "DT_FLOAT", "tensorShape": {"dim": [{"size": "64"}]}}}}}, {"name": "model_69/tf.nn.convolution_91/convolution/filter", "op": "Const", "attr": {"dtype": {"type": "DT_FLOAT"}, "value": {"tensor": {"dtype": "DT_FLOAT", "tensorShape": {"dim": [{"size": "3"}, {"size": "3"}, {"size": "256"}, {"size": "64"}]}}}}}, {"name": "model_69/tf.math.add_103/Add/y", "op": "Const", "attr": {"dtype": {"type": "DT_FLOAT"}, "value": {"tensor": {"dtype": "DT_FLOAT", "tensorShape": {"dim": [{"size": "64"}]}}}}}, {"name": "model_69/tf.nn.convolution_94/convolution/filter", "op": "Const", "attr": {"value": {"tensor": {"dtype": "DT_FLOAT", "tensorShape": {"dim": [{"size": "3"}, {"size": "3"}, {"size": "64"}, {"size": "64"}]}}}, "dtype": {"type": "DT_FLOAT"}}}, {"name": "model_69/tf.math.add_106/Add/y", "op": "Const", "attr": {"value": {"tensor": {"dtype": "DT_FLOAT", "tensorShape": {"dim": [{"size": "64"}]}}}, "dtype": {"type": "DT_FLOAT"}}}, {"name": "model_69/tf.nn.convolution_97/convolution/filter", "op": "Const", "attr": {"dtype": {"type": "DT_FLOAT"}, "value": {"tensor": {"dtype": "DT_FLOAT", "tensorShape": {"dim": [{"size": "1"}, {"size": "1"}, {"size": "64"}, {"size": "15"}]}}}}}, {"name": "model_69/tf.math.add_109/Add/y", "op": "Const", "attr": {"value": {"tensor": {"dtype": "DT_FLOAT", "tensorShape": {"dim": [{"size": "15"}]}}}, "dtype": {"type": "DT_FLOAT"}}}, {"name": "model_69/tf.concat_21/concat/axis", "op": "Const", "attr": {"dtype": {"type": "DT_INT32"}, "value": {"tensor": {"dtype": "DT_INT32", "tensorShape": {}}}}}, {"name": "model_69/tf.compat.v1.transpose_70/transpose/perm", "op": "Const", "attr": {"value": {"tensor": {"dtype": "DT_INT32", "tensorShape": {"dim": [{"size": "4"}]}}}, "dtype": {"type": "DT_INT32"}}}, {"name": "model_69/tf.reshape_17/Reshape/shape", "op": "Const", "attr": {"value": {"tensor": {"dtype": "DT_INT32", "tensorShape": {"dim": [{"size": "3"}]}}}, "dtype": {"type": "DT_INT32"}}}, {"name": "model_69/tf.concat_23/concat/axis", "op": "Const", "attr": {"value": {"tensor": {"dtype": "DT_INT32", "tensorShape": {}}}, "dtype": {"type": "DT_INT32"}}}, {"name": "model_69/tf.strided_slice_17/StridedSlice/begin", "op": "Const", "attr": {"value": {"tensor": {"dtype": "DT_INT64", "tensorShape": {"dim": [{"size": "3"}]}}}, "dtype": {"type": "DT_INT64"}}}, {"name": "model_69/tf.strided_slice_17/StridedSlice/end", "op": "Const", "attr": {"dtype": {"type": "DT_INT64"}, "value": {"tensor": {"dtype": "DT_INT64", "tensorShape": {"dim": [{"size": "3"}]}}}}}, {"name": "model_69/tf.strided_slice_17/StridedSlice/strides", "op": "Const", "attr": {"value": {"tensor": {"dtype": "DT_INT64", "tensorShape": {"dim": [{"size": "3"}]}}}, "dtype": {"type": "DT_INT64"}}}, {"name": "model_69/tf.nn.convolution_50/convolution/filter", "op": "Const", "attr": {"dtype": {"type": "DT_FLOAT"}, "value": {"tensor": {"dtype": "DT_FLOAT", "tensorShape": {"dim": [{"size": "3"}, {"size": "3"}, {"size": "64"}, {"size": "16"}]}}}}}, {"name": "model_69/tf.math.add_62/Add/y", "op": "Const", "attr": {"dtype": {"type": "DT_FLOAT"}, "value": {"tensor": {"dtype": "DT_FLOAT", "tensorShape": {"dim": [{"size": "16"}]}}}}}, {"name": "model_69/tf.nn.convolution_53/convolution/filter", "op": "Const", "attr": {"dtype": {"type": "DT_FLOAT"}, "value": {"tensor": {"dtype": "DT_FLOAT", "tensorShape": {"dim": [{"size": "3"}, {"size": "3"}, {"size": "16"}, {"size": "16"}]}}}}}, {"name": "model_69/tf.math.add_65/Add/y", "op": "Const", "attr": {"dtype": {"type": "DT_FLOAT"}, "value": {"tensor": {"dtype": "DT_FLOAT", "tensorShape": {"dim": [{"size": "16"}]}}}}}, {"name": "model_69/tf.nn.convolution_57/convolution/filter", "op": "Const", "attr": {"dtype": {"type": "DT_FLOAT"}, "value": {"tensor": {"dtype": "DT_FLOAT", "tensorShape": {"dim": [{"size": "1"}, {"size": "1"}, {"size": "16"}, {"size": "1"}]}}}}}, {"name": "model_69/tf.math.add_69/Add/y", "op": "Const", "attr": {"value": {"tensor": {"dtype": "DT_FLOAT", "tensorShape": {"dim": [{"size": "1"}]}}}, "dtype": {"type": "DT_FLOAT"}}}, {"name": "model_69/tf.compat.v1.transpose_27/transpose/perm", "op": "Const", "attr": {"dtype": {"type": "DT_INT32"}, "value": {"tensor": {"dtype": "DT_INT32", "tensorShape": {"dim": [{"size": "4"}]}}}}}, {"name": "model_69/tf.reshape_2/Reshape/shape", "op": "Const", "attr": {"dtype": {"type": "DT_INT32"}, "value": {"tensor": {"dtype": "DT_INT32", "tensorShape": {"dim": [{"size": "3"}]}}}}}, {"name": "model_69/tf.nn.convolution_68/convolution/filter", "op": "Const", "attr": {"dtype": {"type": "DT_FLOAT"}, "value": {"tensor": {"dtype": "DT_FLOAT", "tensorShape": {"dim": [{"size": "3"}, {"size": "3"}, {"size": "128"}, {"size": "16"}]}}}}}, {"name": "model_69/tf.math.add_80/Add/y", "op": "Const", "attr": {"dtype": {"type": "DT_FLOAT"}, "value": {"tensor": {"dtype": "DT_FLOAT", "tensorShape": {"dim": [{"size": "16"}]}}}}}, {"name": "model_69/tf.nn.convolution_71/convolution/filter", "op": "Const", "attr": {"dtype": {"type": "DT_FLOAT"}, "value": {"tensor": {"dtype": "DT_FLOAT", "tensorShape": {"dim": [{"size": "3"}, {"size": "3"}, {"size": "16"}, {"size": "16"}]}}}}}, {"name": "model_69/tf.math.add_83/Add/y", "op": "Const", "attr": {"dtype": {"type": "DT_FLOAT"}, "value": {"tensor": {"dtype": "DT_FLOAT", "tensorShape": {"dim": [{"size": "16"}]}}}}}, {"name": "model_69/tf.nn.convolution_79/convolution/filter", "op": "Const", "attr": {"dtype": {"type": "DT_FLOAT"}, "value": {"tensor": {"dtype": "DT_FLOAT", "tensorShape": {"dim": [{"size": "1"}, {"size": "1"}, {"size": "16"}, {"size": "1"}]}}}}}, {"name": "model_69/tf.math.add_91/Add/y", "op": "Const", "attr": {"value": {"tensor": {"dtype": "DT_FLOAT", "tensorShape": {"dim": [{"size": "1"}]}}}, "dtype": {"type": "DT_FLOAT"}}}, {"name": "model_69/tf.compat.v1.transpose_55/transpose/perm", "op": "Const", "attr": {"dtype": {"type": "DT_INT32"}, "value": {"tensor": {"dtype": "DT_INT32", "tensorShape": {"dim": [{"size": "4"}]}}}}}, {"name": "model_69/tf.reshape_8/Reshape/shape", "op": "Const", "attr": {"dtype": {"type": "DT_INT32"}, "value": {"tensor": {"dtype": "DT_INT32", "tensorShape": {"dim": [{"size": "3"}]}}}}}, {"name": "model_69/tf.strided_slice_14/ones_like/tensor", "op": "Const", "attr": {"dtype": {"type": "DT_INT64"}, "value": {"tensor": {"dtype": "DT_INT64", "tensorShape": {"dim": [{"size": "4"}]}}}}}, {"name": "model_69/tf.strided_slice_14/StridedSlice/end", "op": "Const", "attr": {"dtype": {"type": "DT_INT64"}, "value": {"tensor": {"dtype": "DT_INT64", "tensorShape": {"dim": [{"size": "4"}]}}}}}, {"name": "model_69/tf.strided_slice_14/ones_like", "op": "Const", "attr": {"dtype": {"type": "DT_INT64"}, "value": {"tensor": {"dtype": "DT_INT64", "tensorShape": {"dim": [{"size": "4"}]}}}}}, {"name": "model_69/tf.strided_slice_12/ones_like/tensor", "op": "Const", "attr": {"dtype": {"type": "DT_INT64"}, "value": {"tensor": {"dtype": "DT_INT64", "tensorShape": {"dim": [{"size": "4"}]}}}}}, {"name": "model_69/tf.strided_slice_12/StridedSlice/end", "op": "Const", "attr": {"dtype": {"type": "DT_INT64"}, "value": {"tensor": {"dtype": "DT_INT64", "tensorShape": {"dim": [{"size": "4"}]}}}}}, {"name": "model_69/tf.strided_slice_12/ones_like", "op": "Const", "attr": {"dtype": {"type": "DT_INT64"}, "value": {"tensor": {"dtype": "DT_INT64", "tensorShape": {"dim": [{"size": "4"}]}}}}}, {"name": "model_69/tf.strided_slice_10/ones_like/tensor", "op": "Const", "attr": {"dtype": {"type": "DT_INT64"}, "value": {"tensor": {"dtype": "DT_INT64", "tensorShape": {"dim": [{"size": "4"}]}}}}}, {"name": "model_69/tf.strided_slice_10/StridedSlice/end", "op": "Const", "attr": {"value": {"tensor": {"dtype": "DT_INT64", "tensorShape": {"dim": [{"size": "4"}]}}}, "dtype": {"type": "DT_INT64"}}}, {"name": "model_69/tf.strided_slice_10/ones_like", "op": "Const", "attr": {"dtype": {"type": "DT_INT64"}, "value": {"tensor": {"dtype": "DT_INT64", "tensorShape": {"dim": [{"size": "4"}]}}}}}, {"name": "model_69/tf.image.resize_1/resize/size", "op": "Const", "attr": {"value": {"tensor": {"dtype": "DT_INT32", "tensorShape": {"dim": [{"size": "2"}]}}}, "dtype": {"type": "DT_INT32"}}}, {"name": "model_69/tf.concat_9/concat/axis", "op": "Const", "attr": {"dtype": {"type": "DT_INT32"}, "value": {"tensor": {"dtype": "DT_INT32", "tensorShape": {}}}}}, {"name": "model_69/tf.nn.convolution_45/convolution/filter", "op": "Const", "attr": {"value": {"tensor": {"dtype": "DT_FLOAT", "tensorShape": {"dim": [{"size": "1"}, {"size": "1"}, {"size": "192"}, {"size": "64"}]}}}, "dtype": {"type": "DT_FLOAT"}}}, {"name": "model_69/tf.math.add_57/Add/y", "op": "Const", "attr": {"dtype": {"type": "DT_FLOAT"}, "value": {"tensor": {"dtype": "DT_FLOAT", "tensorShape": {"dim": [{"size": "64"}]}}}}}, {"name": "model_69/tf.strided_slice_11/ones_like/tensor", "op": "Const", "attr": {"value": {"tensor": {"dtype": "DT_INT64", "tensorShape": {"dim": [{"size": "4"}]}}}, "dtype": {"type": "DT_INT64"}}}, {"name": "model_69/tf.strided_slice_11/StridedSlice/end", "op": "Const", "attr": {"dtype": {"type": "DT_INT64"}, "value": {"tensor": {"dtype": "DT_INT64", "tensorShape": {"dim": [{"size": "4"}]}}}}}, {"name": "model_69/tf.strided_slice_11/ones_like", "op": "Const", "attr": {"dtype": {"type": "DT_INT64"}, "value": {"tensor": {"dtype": "DT_INT64", "tensorShape": {"dim": [{"size": "4"}]}}}}}, {"name": "model_69/tf.nn.convolution_46/convolution/filter", "op": "Const", "attr": {"dtype": {"type": "DT_FLOAT"}, "value": {"tensor": {"dtype": "DT_FLOAT", "tensorShape": {"dim": [{"size": "3"}, {"size": "3"}, {"size": "32"}, {"size": "32"}]}}}}}, {"name": "model_69/tf.math.add_58/Add/y", "op": "Const", "attr": {"value": {"tensor": {"dtype": "DT_FLOAT", "tensorShape": {"dim": [{"size": "32"}]}}}, "dtype": {"type": "DT_FLOAT"}}}, {"name": "model_69/tf.nn.convolution_47/convolution/filter", "op": "Const", "attr": {"value": {"tensor": {"dtype": "DT_FLOAT", "tensorShape": {"dim": [{"size": "3"}, {"size": "3"}, {"size": "32"}, {"size": "32"}]}}}, "dtype": {"type": "DT_FLOAT"}}}, {"name": "model_69/tf.math.add_59/Add/y", "op": "Const", "attr": {"dtype": {"type": "DT_FLOAT"}, "value": {"tensor": {"dtype": "DT_FLOAT", "tensorShape": {"dim": [{"size": "32"}]}}}}}, {"name": "model_69/tf.concat_10/concat/axis", "op": "Const", "attr": {"value": {"tensor": {"dtype": "DT_INT32", "tensorShape": {}}}, "dtype": {"type": "DT_INT32"}}}, {"name": "model_69/tf.nn.convolution_48/convolution/filter", "op": "Const", "attr": {"value": {"tensor": {"dtype": "DT_FLOAT", "tensorShape": {"dim": [{"size": "1"}, {"size": "1"}, {"size": "96"}, {"size": "64"}]}}}, "dtype": {"type": "DT_FLOAT"}}}, {"name": "model_69/tf.math.add_60/Add/y", "op": "Const", "attr": {"dtype": {"type": "DT_FLOAT"}, "value": {"tensor": {"dtype": "DT_FLOAT", "tensorShape": {"dim": [{"size": "64"}]}}}}}, {"name": "model_69/tf.compat.v1.pad_5/Pad/paddings", "op": "Const", "attr": {"dtype": {"type": "DT_INT32"}, "value": {"tensor": {"dtype": "DT_INT32", "tensorShape": {"dim": [{"size": "4"}, {"size": "2"}]}}}}}, {"name": "model_69/tf.nn.convolution_49/convolution/filter", "op": "Const", "attr": {"value": {"tensor": {"dtype": "DT_FLOAT", "tensorShape": {"dim": [{"size": "3"}, {"size": "3"}, {"size": "64"}, {"size": "64"}]}}}, "dtype": {"type": "DT_FLOAT"}}}, {"name": "model_69/tf.math.add_61/Add/y", "op": "Const", "attr": {"dtype": {"type": "DT_FLOAT"}, "value": {"tensor": {"dtype": "DT_FLOAT", "tensorShape": {"dim": [{"size": "64"}]}}}}}, {"name": "model_69/tf.strided_slice_8/ones_like/tensor", "op": "Const", "attr": {"dtype": {"type": "DT_INT64"}, "value": {"tensor": {"dtype": "DT_INT64", "tensorShape": {"dim": [{"size": "4"}]}}}}}, {"name": "model_69/tf.strided_slice_8/StridedSlice/end", "op": "Const", "attr": {"value": {"tensor": {"dtype": "DT_INT64", "tensorShape": {"dim": [{"size": "4"}]}}}, "dtype": {"type": "DT_INT64"}}}, {"name": "model_69/tf.strided_slice_8/ones_like", "op": "Const", "attr": {"dtype": {"type": "DT_INT64"}, "value": {"tensor": {"dtype": "DT_INT64", "tensorShape": {"dim": [{"size": "4"}]}}}}}, {"name": "model_69/tf.image.resize/resize/size", "op": "Const", "attr": {"dtype": {"type": "DT_INT32"}, "value": {"tensor": {"dtype": "DT_INT32", "tensorShape": {"dim": [{"size": "2"}]}}}}}, {"name": "model_69/tf.concat_5/concat/axis", "op": "Const", "attr": {"value": {"tensor": {"dtype": "DT_INT32", "tensorShape": {}}}, "dtype": {"type": "DT_INT32"}}}, {"name": "model_69/tf.nn.convolution_37/convolution/filter", "op": "Const", "attr": {"dtype": {"type": "DT_FLOAT"}, "value": {"tensor": {"dtype": "DT_FLOAT", "tensorShape": {"dim": [{"size": "1"}, {"size": "1"}, {"size": "384"}, {"size": "128"}]}}}}}, {"name": "model_69/tf.math.add_49/Add/y", "op": "Const", "attr": {"value": {"tensor": {"dtype": "DT_FLOAT", "tensorShape": {"dim": [{"size": "128"}]}}}, "dtype": {"type": "DT_FLOAT"}}}, {"name": "model_69/tf.strided_slice_9/ones_like/tensor", "op": "Const", "attr": {"value": {"tensor": {"dtype": "DT_INT64", "tensorShape": {"dim": [{"size": "4"}]}}}, "dtype": {"type": "DT_INT64"}}}, {"name": "model_69/tf.strided_slice_9/StridedSlice/end", "op": "Const", "attr": {"value": {"tensor": {"dtype": "DT_INT64", "tensorShape": {"dim": [{"size": "4"}]}}}, "dtype": {"type": "DT_INT64"}}}, {"name": "model_69/tf.strided_slice_9/ones_like", "op": "Const", "attr": {"dtype": {"type": "DT_INT64"}, "value": {"tensor": {"dtype": "DT_INT64", "tensorShape": {"dim": [{"size": "4"}]}}}}}, {"name": "model_69/tf.nn.convolution_40/convolution/filter", "op": "Const", "attr": {"dtype": {"type": "DT_FLOAT"}, "value": {"tensor": {"dtype": "DT_FLOAT", "tensorShape": {"dim": [{"size": "3"}, {"size": "3"}, {"size": "64"}, {"size": "64"}]}}}}}, {"name": "model_69/tf.math.add_52/Add/y", "op": "Const", "attr": {"dtype": {"type": "DT_FLOAT"}, "value": {"tensor": {"dtype": "DT_FLOAT", "tensorShape": {"dim": [{"size": "64"}]}}}}}, {"name": "model_69/tf.nn.convolution_43/convolution/filter", "op": "Const", "attr": {"value": {"tensor": {"dtype": "DT_FLOAT", "tensorShape": {"dim": [{"size": "3"}, {"size": "3"}, {"size": "64"}, {"size": "64"}]}}}, "dtype": {"type": "DT_FLOAT"}}}, {"name": "model_69/tf.math.add_55/Add/y", "op": "Const", "attr": {"dtype": {"type": "DT_FLOAT"}, "value": {"tensor": {"dtype": "DT_FLOAT", "tensorShape": {"dim": [{"size": "64"}]}}}}}, {"name": "model_69/tf.concat_6/concat/axis", "op": "Const", "attr": {"value": {"tensor": {"dtype": "DT_INT32", "tensorShape": {}}}, "dtype": {"type": "DT_INT32"}}}, {"name": "model_69/tf.nn.convolution_44/convolution/filter", "op": "Const", "attr": {"value": {"tensor": {"dtype": "DT_FLOAT", "tensorShape": {"dim": [{"size": "1"}, {"size": "1"}, {"size": "192"}, {"size": "128"}]}}}, "dtype": {"type": "DT_FLOAT"}}}, {"name": "model_69/tf.math.add_56/Add/y", "op": "Const", "attr": {"value": {"tensor": {"dtype": "DT_FLOAT", "tensorShape": {"dim": [{"size": "128"}]}}}, "dtype": {"type": "DT_FLOAT"}}}, {"name": "model_69/tf.concat_13/concat/axis", "op": "Const", "attr": {"dtype": {"type": "DT_INT32"}, "value": {"tensor": {"dtype": "DT_INT32", "tensorShape": {}}}}}, {"name": "model_69/tf.nn.convolution_56/convolution/filter", "op": "Const", "attr": {"value": {"tensor": {"dtype": "DT_FLOAT", "tensorShape": {"dim": [{"size": "1"}, {"size": "1"}, {"size": "192"}, {"size": "128"}]}}}, "dtype": {"type": "DT_FLOAT"}}}, {"name": "model_69/tf.math.add_68/Add/y", "op": "Const", "attr": {"dtype": {"type": "DT_FLOAT"}, "value": {"tensor": {"dtype": "DT_FLOAT", "tensorShape": {"dim": [{"size": "128"}]}}}}}, {"name": "model_69/tf.strided_slice_13/ones_like/tensor", "op": "Const", "attr": {"dtype": {"type": "DT_INT64"}, "value": {"tensor": {"dtype": "DT_INT64", "tensorShape": {"dim": [{"size": "4"}]}}}}}, {"name": "model_69/tf.strided_slice_13/StridedSlice/end", "op": "Const", "attr": {"value": {"tensor": {"dtype": "DT_INT64", "tensorShape": {"dim": [{"size": "4"}]}}}, "dtype": {"type": "DT_INT64"}}}, {"name": "model_69/tf.strided_slice_13/ones_like", "op": "Const", "attr": {"value": {"tensor": {"dtype": "DT_INT64", "tensorShape": {"dim": [{"size": "4"}]}}}, "dtype": {"type": "DT_INT64"}}}, {"name": "model_69/tf.nn.convolution_62/convolution/filter", "op": "Const", "attr": {"dtype": {"type": "DT_FLOAT"}, "value": {"tensor": {"dtype": "DT_FLOAT", "tensorShape": {"dim": [{"size": "3"}, {"size": "3"}, {"size": "64"}, {"size": "64"}]}}}}}, {"name": "model_69/tf.math.add_74/Add/y", "op": "Const", "attr": {"value": {"tensor": {"dtype": "DT_FLOAT", "tensorShape": {"dim": [{"size": "64"}]}}}, "dtype": {"type": "DT_FLOAT"}}}, {"name": "model_69/tf.nn.convolution_65/convolution/filter", "op": "Const", "attr": {"value": {"tensor": {"dtype": "DT_FLOAT", "tensorShape": {"dim": [{"size": "3"}, {"size": "3"}, {"size": "64"}, {"size": "64"}]}}}, "dtype": {"type": "DT_FLOAT"}}}, {"name": "model_69/tf.math.add_77/Add/y", "op": "Const", "attr": {"value": {"tensor": {"dtype": "DT_FLOAT", "tensorShape": {"dim": [{"size": "64"}]}}}, "dtype": {"type": "DT_FLOAT"}}}, {"name": "model_69/tf.concat_15/concat/axis", "op": "Const", "attr": {"dtype": {"type": "DT_INT32"}, "value": {"tensor": {"dtype": "DT_INT32", "tensorShape": {}}}}}, {"name": "model_69/tf.nn.convolution_66/convolution/filter", "op": "Const", "attr": {"dtype": {"type": "DT_FLOAT"}, "value": {"tensor": {"dtype": "DT_FLOAT", "tensorShape": {"dim": [{"size": "1"}, {"size": "1"}, {"size": "192"}, {"size": "128"}]}}}}}, {"name": "model_69/tf.math.add_78/Add/y", "op": "Const", "attr": {"value": {"tensor": {"dtype": "DT_FLOAT", "tensorShape": {"dim": [{"size": "128"}]}}}, "dtype": {"type": "DT_FLOAT"}}}, {"name": "model_69/tf.compat.v1.pad_6/Pad/paddings", "op": "Const", "attr": {"value": {"tensor": {"dtype": "DT_INT32", "tensorShape": {"dim": [{"size": "4"}, {"size": "2"}]}}}, "dtype": {"type": "DT_INT32"}}}, {"name": "model_69/tf.nn.convolution_67/convolution/filter", "op": "Const", "attr": {"dtype": {"type": "DT_FLOAT"}, "value": {"tensor": {"dtype": "DT_FLOAT", "tensorShape": {"dim": [{"size": "3"}, {"size": "3"}, {"size": "128"}, {"size": "128"}]}}}}}, {"name": "model_69/tf.math.add_79/Add/y", "op": "Const", "attr": {"value": {"tensor": {"dtype": "DT_FLOAT", "tensorShape": {"dim": [{"size": "128"}]}}}, "dtype": {"type": "DT_FLOAT"}}}, {"name": "model_69/tf.strided_slice_6/ones_like/tensor", "op": "Const", "attr": {"dtype": {"type": "DT_INT64"}, "value": {"tensor": {"dtype": "DT_INT64", "tensorShape": {"dim": [{"size": "4"}]}}}}}, {"name": "model_69/tf.strided_slice_6/StridedSlice/end", "op": "Const", "attr": {"value": {"tensor": {"dtype": "DT_INT64", "tensorShape": {"dim": [{"size": "4"}]}}}, "dtype": {"type": "DT_INT64"}}}, {"name": "model_69/tf.strided_slice_6/ones_like", "op": "Const", "attr": {"dtype": {"type": "DT_INT64"}, "value": {"tensor": {"dtype": "DT_INT64", "tensorShape": {"dim": [{"size": "4"}]}}}}}, {"name": "model_69/tf.strided_slice_4/ones_like/tensor", "op": "Const", "attr": {"dtype": {"type": "DT_INT64"}, "value": {"tensor": {"dtype": "DT_INT64", "tensorShape": {"dim": [{"size": "4"}]}}}}}, {"name": "model_69/tf.strided_slice_4/StridedSlice/end", "op": "Const", "attr": {"value": {"tensor": {"dtype": "DT_INT64", "tensorShape": {"dim": [{"size": "4"}]}}}, "dtype": {"type": "DT_INT64"}}}, {"name": "model_69/tf.strided_slice_4/ones_like", "op": "Const", "attr": {"dtype": {"type": "DT_INT64"}, "value": {"tensor": {"dtype": "DT_INT64", "tensorShape": {"dim": [{"size": "4"}]}}}}}, {"name": "model_69/tf.strided_slice_2/ones_like/tensor", "op": "Const", "attr": {"dtype": {"type": "DT_INT64"}, "value": {"tensor": {"dtype": "DT_INT64", "tensorShape": {"dim": [{"size": "4"}]}}}}}, {"name": "model_69/tf.strided_slice_2/StridedSlice/end", "op": "Const", "attr": {"dtype": {"type": "DT_INT64"}, "value": {"tensor": {"dtype": "DT_INT64", "tensorShape": {"dim": [{"size": "4"}]}}}}}, {"name": "model_69/tf.strided_slice_2/ones_like", "op": "Const", "attr": {"dtype": {"type": "DT_INT64"}, "value": {"tensor": {"dtype": "DT_INT64", "tensorShape": {"dim": [{"size": "4"}]}}}}}, {"name": "model_69/tf.strided_slice/ones_like/tensor", "op": "Const", "attr": {"value": {"tensor": {"dtype": "DT_INT64", "tensorShape": {"dim": [{"size": "4"}]}}}, "dtype": {"type": "DT_INT64"}}}, {"name": "model_69/tf.strided_slice/StridedSlice/end", "op": "Const", "attr": {"value": {"tensor": {"dtype": "DT_INT64", "tensorShape": {"dim": [{"size": "4"}]}}}, "dtype": {"type": "DT_INT64"}}}, {"name": "model_69/tf.strided_slice/ones_like", "op": "Const", "attr": {"value": {"tensor": {"dtype": "DT_INT64", "tensorShape": {"dim": [{"size": "4"}]}}}, "dtype": {"type": "DT_INT64"}}}, {"name": "model_69/tf.compat.v1.pad/Pad/paddings", "op": "Const", "attr": {"value": {"tensor": {"dtype": "DT_INT32", "tensorShape": {"dim": [{"size": "4"}, {"size": "2"}]}}}, "dtype": {"type": "DT_INT32"}}}, {"name": "model_69/tf.nn.convolution/convolution/filter", "op": "Const", "attr": {"value": {"tensor": {"dtype": "DT_FLOAT", "tensorShape": {"dim": [{"size": "3"}, {"size": "3"}, {"size": "3"}, {"size": "16"}]}}}, "dtype": {"type": "DT_FLOAT"}}}, {"name": "model_69/tf.math.add/Add/y", "op": "Const", "attr": {"dtype": {"type": "DT_FLOAT"}, "value": {"tensor": {"dtype": "DT_FLOAT", "tensorShape": {"dim": [{"size": "16"}]}}}}}, {"name": "model_69/tf.compat.v1.pad_1/Pad/paddings", "op": "Const", "attr": {"value": {"tensor": {"dtype": "DT_INT32", "tensorShape": {"dim": [{"size": "4"}, {"size": "2"}]}}}, "dtype": {"type": "DT_INT32"}}}, {"name": "model_69/tf.nn.convolution_1/convolution/filter", "op": "Const", "attr": {"dtype": {"type": "DT_FLOAT"}, "value": {"tensor": {"dtype": "DT_FLOAT", "tensorShape": {"dim": [{"size": "3"}, {"size": "3"}, {"size": "16"}, {"size": "32"}]}}}}}, {"name": "model_69/tf.math.add_1/Add/y", "op": "Const", "attr": {"value": {"tensor": {"dtype": "DT_FLOAT", "tensorShape": {"dim": [{"size": "32"}]}}}, "dtype": {"type": "DT_FLOAT"}}}, {"name": "model_69/tf.nn.convolution_2/convolution/filter", "op": "Const", "attr": {"dtype": {"type": "DT_FLOAT"}, "value": {"tensor": {"dtype": "DT_FLOAT", "tensorShape": {"dim": [{"size": "1"}, {"size": "1"}, {"size": "32"}, {"size": "32"}]}}}}}, {"name": "model_69/tf.math.add_2/Add/y", "op": "Const", "attr": {"value": {"tensor": {"dtype": "DT_FLOAT", "tensorShape": {"dim": [{"size": "32"}]}}}, "dtype": {"type": "DT_FLOAT"}}}, {"name": "model_69/tf.strided_slice_1/ones_like/tensor", "op": "Const", "attr": {"value": {"tensor": {"dtype": "DT_INT64", "tensorShape": {"dim": [{"size": "4"}]}}}, "dtype": {"type": "DT_INT64"}}}, {"name": "model_69/tf.strided_slice_1/StridedSlice/end", "op": "Const", "attr": {"value": {"tensor": {"dtype": "DT_INT64", "tensorShape": {"dim": [{"size": "4"}]}}}, "dtype": {"type": "DT_INT64"}}}, {"name": "model_69/tf.strided_slice_1/ones_like", "op": "Const", "attr": {"value": {"tensor": {"dtype": "DT_INT64", "tensorShape": {"dim": [{"size": "4"}]}}}, "dtype": {"type": "DT_INT64"}}}, {"name": "model_69/tf.nn.convolution_3/convolution/filter", "op": "Const", "attr": {"value": {"tensor": {"dtype": "DT_FLOAT", "tensorShape": {"dim": [{"size": "3"}, {"size": "3"}, {"size": "16"}, {"size": "16"}]}}}, "dtype": {"type": "DT_FLOAT"}}}, {"name": "model_69/tf.math.add_3/Add/y", "op": "Const", "attr": {"dtype": {"type": "DT_FLOAT"}, "value": {"tensor": {"dtype": "DT_FLOAT", "tensorShape": {"dim": [{"size": "16"}]}}}}}, {"name": "model_69/tf.nn.convolution_4/convolution/filter", "op": "Const", "attr": {"value": {"tensor": {"dtype": "DT_FLOAT", "tensorShape": {"dim": [{"size": "3"}, {"size": "3"}, {"size": "16"}, {"size": "16"}]}}}, "dtype": {"type": "DT_FLOAT"}}}, {"name": "model_69/tf.math.add_4/Add/y", "op": "Const", "attr": {"dtype": {"type": "DT_FLOAT"}, "value": {"tensor": {"dtype": "DT_FLOAT", "tensorShape": {"dim": [{"size": "16"}]}}}}}, {"name": "model_69/tf.concat/concat/axis", "op": "Const", "attr": {"dtype": {"type": "DT_INT32"}, "value": {"tensor": {"dtype": "DT_INT32", "tensorShape": {}}}}}, {"name": "model_69/tf.nn.convolution_5/convolution/filter", "op": "Const", "attr": {"value": {"tensor": {"dtype": "DT_FLOAT", "tensorShape": {"dim": [{"size": "1"}, {"size": "1"}, {"size": "48"}, {"size": "32"}]}}}, "dtype": {"type": "DT_FLOAT"}}}, {"name": "model_69/tf.math.add_7/Add/y", "op": "Const", "attr": {"dtype": {"type": "DT_FLOAT"}, "value": {"tensor": {"dtype": "DT_FLOAT", "tensorShape": {"dim": [{"size": "32"}]}}}}}, {"name": "model_69/tf.compat.v1.pad_2/Pad/paddings", "op": "Const", "attr": {"dtype": {"type": "DT_INT32"}, "value": {"tensor": {"dtype": "DT_INT32", "tensorShape": {"dim": [{"size": "4"}, {"size": "2"}]}}}}}, {"name": "model_69/tf.nn.convolution_6/convolution/filter", "op": "Const", "attr": {"dtype": {"type": "DT_FLOAT"}, "value": {"tensor": {"dtype": "DT_FLOAT", "tensorShape": {"dim": [{"size": "3"}, {"size": "3"}, {"size": "32"}, {"size": "64"}]}}}}}, {"name": "model_69/tf.math.add_8/Add/y", "op": "Const", "attr": {"value": {"tensor": {"dtype": "DT_FLOAT", "tensorShape": {"dim": [{"size": "64"}]}}}, "dtype": {"type": "DT_FLOAT"}}}, {"name": "model_69/tf.nn.convolution_7/convolution/filter", "op": "Const", "attr": {"dtype": {"type": "DT_FLOAT"}, "value": {"tensor": {"dtype": "DT_FLOAT", "tensorShape": {"dim": [{"size": "1"}, {"size": "1"}, {"size": "64"}, {"size": "64"}]}}}}}, {"name": "model_69/tf.math.add_9/Add/y", "op": "Const", "attr": {"dtype": {"type": "DT_FLOAT"}, "value": {"tensor": {"dtype": "DT_FLOAT", "tensorShape": {"dim": [{"size": "64"}]}}}}}, {"name": "model_69/tf.strided_slice_3/ones_like/tensor", "op": "Const", "attr": {"dtype": {"type": "DT_INT64"}, "value": {"tensor": {"dtype": "DT_INT64", "tensorShape": {"dim": [{"size": "4"}]}}}}}, {"name": "model_69/tf.strided_slice_3/StridedSlice/end", "op": "Const", "attr": {"dtype": {"type": "DT_INT64"}, "value": {"tensor": {"dtype": "DT_INT64", "tensorShape": {"dim": [{"size": "4"}]}}}}}, {"name": "model_69/tf.strided_slice_3/ones_like", "op": "Const", "attr": {"value": {"tensor": {"dtype": "DT_INT64", "tensorShape": {"dim": [{"size": "4"}]}}}, "dtype": {"type": "DT_INT64"}}}, {"name": "model_69/tf.nn.convolution_8/convolution/filter", "op": "Const", "attr": {"dtype": {"type": "DT_FLOAT"}, "value": {"tensor": {"dtype": "DT_FLOAT", "tensorShape": {"dim": [{"size": "3"}, {"size": "3"}, {"size": "32"}, {"size": "32"}]}}}}}, {"name": "model_69/tf.math.add_10/Add/y", "op": "Const", "attr": {"value": {"tensor": {"dtype": "DT_FLOAT", "tensorShape": {"dim": [{"size": "32"}]}}}, "dtype": {"type": "DT_FLOAT"}}}, {"name": "model_69/tf.nn.convolution_9/convolution/filter", "op": "Const", "attr": {"value": {"tensor": {"dtype": "DT_FLOAT", "tensorShape": {"dim": [{"size": "3"}, {"size": "3"}, {"size": "32"}, {"size": "32"}]}}}, "dtype": {"type": "DT_FLOAT"}}}, {"name": "model_69/tf.math.add_11/Add/y", "op": "Const", "attr": {"value": {"tensor": {"dtype": "DT_FLOAT", "tensorShape": {"dim": [{"size": "32"}]}}}, "dtype": {"type": "DT_FLOAT"}}}, {"name": "model_69/tf.nn.convolution_10/convolution/filter", "op": "Const", "attr": {"dtype": {"type": "DT_FLOAT"}, "value": {"tensor": {"dtype": "DT_FLOAT", "tensorShape": {"dim": [{"size": "3"}, {"size": "3"}, {"size": "32"}, {"size": "32"}]}}}}}, {"name": "model_69/tf.math.add_14/Add/y", "op": "Const", "attr": {"dtype": {"type": "DT_FLOAT"}, "value": {"tensor": {"dtype": "DT_FLOAT", "tensorShape": {"dim": [{"size": "32"}]}}}}}, {"name": "model_69/tf.nn.convolution_11/convolution/filter", "op": "Const", "attr": {"dtype": {"type": "DT_FLOAT"}, "value": {"tensor": {"dtype": "DT_FLOAT", "tensorShape": {"dim": [{"size": "3"}, {"size": "3"}, {"size": "32"}, {"size": "32"}]}}}}}, {"name": "model_69/tf.math.add_15/Add/y", "op": "Const", "attr": {"dtype": {"type": "DT_FLOAT"}, "value": {"tensor": {"dtype": "DT_FLOAT", "tensorShape": {"dim": [{"size": "32"}]}}}}}, {"name": "model_69/tf.concat_1/concat/axis", "op": "Const", "attr": {"value": {"tensor": {"dtype": "DT_INT32", "tensorShape": {}}}, "dtype": {"type": "DT_INT32"}}}, {"name": "model_69/tf.nn.convolution_14/convolution/filter", "op": "Const", "attr": {"dtype": {"type": "DT_FLOAT"}, "value": {"tensor": {"dtype": "DT_FLOAT", "tensorShape": {"dim": [{"size": "1"}, {"size": "1"}, {"size": "128"}, {"size": "64"}]}}}}}, {"name": "model_69/tf.math.add_20/Add/y", "op": "Const", "attr": {"dtype": {"type": "DT_FLOAT"}, "value": {"tensor": {"dtype": "DT_FLOAT", "tensorShape": {"dim": [{"size": "64"}]}}}}}, {"name": "model_69/tf.compat.v1.pad_3/Pad/paddings", "op": "Const", "attr": {"dtype": {"type": "DT_INT32"}, "value": {"tensor": {"dtype": "DT_INT32", "tensorShape": {"dim": [{"size": "4"}, {"size": "2"}]}}}}}, {"name": "model_69/tf.nn.convolution_15/convolution/filter", "op": "Const", "attr": {"dtype": {"type": "DT_FLOAT"}, "value": {"tensor": {"dtype": "DT_FLOAT", "tensorShape": {"dim": [{"size": "3"}, {"size": "3"}, {"size": "64"}, {"size": "128"}]}}}}}, {"name": "model_69/tf.math.add_21/Add/y", "op": "Const", "attr": {"dtype": {"type": "DT_FLOAT"}, "value": {"tensor": {"dtype": "DT_FLOAT", "tensorShape": {"dim": [{"size": "128"}]}}}}}, {"name": "model_69/tf.nn.convolution_16/convolution/filter", "op": "Const", "attr": {"dtype": {"type": "DT_FLOAT"}, "value": {"tensor": {"dtype": "DT_FLOAT", "tensorShape": {"dim": [{"size": "1"}, {"size": "1"}, {"size": "128"}, {"size": "128"}]}}}}}, {"name": "model_69/tf.math.add_22/Add/y", "op": "Const", "attr": {"value": {"tensor": {"dtype": "DT_FLOAT", "tensorShape": {"dim": [{"size": "128"}]}}}, "dtype": {"type": "DT_FLOAT"}}}, {"name": "model_69/tf.strided_slice_5/ones_like/tensor", "op": "Const", "attr": {"dtype": {"type": "DT_INT64"}, "value": {"tensor": {"dtype": "DT_INT64", "tensorShape": {"dim": [{"size": "4"}]}}}}}, {"name": "model_69/tf.strided_slice_5/StridedSlice/end", "op": "Const", "attr": {"dtype": {"type": "DT_INT64"}, "value": {"tensor": {"dtype": "DT_INT64", "tensorShape": {"dim": [{"size": "4"}]}}}}}, {"name": "model_69/tf.strided_slice_5/ones_like", "op": "Const", "attr": {"value": {"tensor": {"dtype": "DT_INT64", "tensorShape": {"dim": [{"size": "4"}]}}}, "dtype": {"type": "DT_INT64"}}}, {"name": "model_69/tf.nn.convolution_19/convolution/filter", "op": "Const", "attr": {"value": {"tensor": {"dtype": "DT_FLOAT", "tensorShape": {"dim": [{"size": "3"}, {"size": "3"}, {"size": "64"}, {"size": "64"}]}}}, "dtype": {"type": "DT_FLOAT"}}}, {"name": "model_69/tf.math.add_25/Add/y", "op": "Const", "attr": {"dtype": {"type": "DT_FLOAT"}, "value": {"tensor": {"dtype": "DT_FLOAT", "tensorShape": {"dim": [{"size": "64"}]}}}}}, {"name": "model_69/tf.nn.convolution_22/convolution/filter", "op": "Const", "attr": {"dtype": {"type": "DT_FLOAT"}, "value": {"tensor": {"dtype": "DT_FLOAT", "tensorShape": {"dim": [{"size": "3"}, {"size": "3"}, {"size": "64"}, {"size": "64"}]}}}}}, {"name": "model_69/tf.math.add_28/Add/y", "op": "Const", "attr": {"dtype": {"type": "DT_FLOAT"}, "value": {"tensor": {"dtype": "DT_FLOAT", "tensorShape": {"dim": [{"size": "64"}]}}}}}, {"name": "model_69/tf.nn.convolution_25/convolution/filter", "op": "Const", "attr": {"dtype": {"type": "DT_FLOAT"}, "value": {"tensor": {"dtype": "DT_FLOAT", "tensorShape": {"dim": [{"size": "3"}, {"size": "3"}, {"size": "64"}, {"size": "64"}]}}}}}, {"name": "model_69/tf.math.add_33/Add/y", "op": "Const", "attr": {"dtype": {"type": "DT_FLOAT"}, "value": {"tensor": {"dtype": "DT_FLOAT", "tensorShape": {"dim": [{"size": "64"}]}}}}}, {"name": "model_69/tf.nn.convolution_28/convolution/filter", "op": "Const", "attr": {"value": {"tensor": {"dtype": "DT_FLOAT", "tensorShape": {"dim": [{"size": "3"}, {"size": "3"}, {"size": "64"}, {"size": "64"}]}}}, "dtype": {"type": "DT_FLOAT"}}}, {"name": "model_69/tf.math.add_36/Add/y", "op": "Const", "attr": {"value": {"tensor": {"dtype": "DT_FLOAT", "tensorShape": {"dim": [{"size": "64"}]}}}, "dtype": {"type": "DT_FLOAT"}}}, {"name": "model_69/tf.concat_2/concat/axis", "op": "Const", "attr": {"dtype": {"type": "DT_INT32"}, "value": {"tensor": {"dtype": "DT_INT32", "tensorShape": {}}}}}, {"name": "model_69/tf.nn.convolution_29/convolution/filter", "op": "Const", "attr": {"dtype": {"type": "DT_FLOAT"}, "value": {"tensor": {"dtype": "DT_FLOAT", "tensorShape": {"dim": [{"size": "1"}, {"size": "1"}, {"size": "256"}, {"size": "128"}]}}}}}, {"name": "model_69/tf.math.add_39/Add/y", "op": "Const", "attr": {"dtype": {"type": "DT_FLOAT"}, "value": {"tensor": {"dtype": "DT_FLOAT", "tensorShape": {"dim": [{"size": "128"}]}}}}}, {"name": "model_69/tf.compat.v1.pad_4/Pad/paddings", "op": "Const", "attr": {"dtype": {"type": "DT_INT32"}, "value": {"tensor": {"dtype": "DT_INT32", "tensorShape": {"dim": [{"size": "4"}, {"size": "2"}]}}}}}, {"name": "model_69/tf.nn.convolution_30/convolution/filter", "op": "Const", "attr": {"dtype": {"type": "DT_FLOAT"}, "value": {"tensor": {"dtype": "DT_FLOAT", "tensorShape": {"dim": [{"size": "3"}, {"size": "3"}, {"size": "128"}, {"size": "256"}]}}}}}, {"name": "model_69/tf.math.add_40/Add/y", "op": "Const", "attr": {"dtype": {"type": "DT_FLOAT"}, "value": {"tensor": {"dtype": "DT_FLOAT", "tensorShape": {"dim": [{"size": "256"}]}}}}}, {"name": "model_69/tf.nn.convolution_31/convolution/filter", "op": "Const", "attr": {"dtype": {"type": "DT_FLOAT"}, "value": {"tensor": {"dtype": "DT_FLOAT", "tensorShape": {"dim": [{"size": "1"}, {"size": "1"}, {"size": "256"}, {"size": "256"}]}}}}}, {"name": "model_69/tf.math.add_41/Add/y", "op": "Const", "attr": {"dtype": {"type": "DT_FLOAT"}, "value": {"tensor": {"dtype": "DT_FLOAT", "tensorShape": {"dim": [{"size": "256"}]}}}}}, {"name": "model_69/tf.strided_slice_7/ones_like/tensor", "op": "Const", "attr": {"value": {"tensor": {"dtype": "DT_INT64", "tensorShape": {"dim": [{"size": "4"}]}}}, "dtype": {"type": "DT_INT64"}}}, {"name": "model_69/tf.strided_slice_7/StridedSlice/end", "op": "Const", "attr": {"dtype": {"type": "DT_INT64"}, "value": {"tensor": {"dtype": "DT_INT64", "tensorShape": {"dim": [{"size": "4"}]}}}}}, {"name": "model_69/tf.strided_slice_7/ones_like", "op": "Const", "attr": {"dtype": {"type": "DT_INT64"}, "value": {"tensor": {"dtype": "DT_INT64", "tensorShape": {"dim": [{"size": "4"}]}}}}}, {"name": "model_69/tf.nn.convolution_32/convolution/filter", "op": "Const", "attr": {"dtype": {"type": "DT_FLOAT"}, "value": {"tensor": {"dtype": "DT_FLOAT", "tensorShape": {"dim": [{"size": "3"}, {"size": "3"}, {"size": "128"}, {"size": "128"}]}}}}}, {"name": "model_69/tf.math.add_42/Add/y", "op": "Const", "attr": {"dtype": {"type": "DT_FLOAT"}, "value": {"tensor": {"dtype": "DT_FLOAT", "tensorShape": {"dim": [{"size": "128"}]}}}}}, {"name": "model_69/tf.nn.convolution_33/convolution/filter", "op": "Const", "attr": {"dtype": {"type": "DT_FLOAT"}, "value": {"tensor": {"dtype": "DT_FLOAT", "tensorShape": {"dim": [{"size": "3"}, {"size": "3"}, {"size": "128"}, {"size": "128"}]}}}}}, {"name": "model_69/tf.math.add_43/Add/y", "op": "Const", "attr": {"value": {"tensor": {"dtype": "DT_FLOAT", "tensorShape": {"dim": [{"size": "128"}]}}}, "dtype": {"type": "DT_FLOAT"}}}, {"name": "model_69/tf.concat_3/concat/axis", "op": "Const", "attr": {"value": {"tensor": {"dtype": "DT_INT32", "tensorShape": {}}}, "dtype": {"type": "DT_INT32"}}}, {"name": "model_69/tf.nn.convolution_34/convolution/filter", "op": "Const", "attr": {"dtype": {"type": "DT_FLOAT"}, "value": {"tensor": {"dtype": "DT_FLOAT", "tensorShape": {"dim": [{"size": "1"}, {"size": "1"}, {"size": "384"}, {"size": "256"}]}}}}}, {"name": "model_69/tf.math.add_46/Add/y", "op": "Const", "attr": {"dtype": {"type": "DT_FLOAT"}, "value": {"tensor": {"dtype": "DT_FLOAT", "tensorShape": {"dim": [{"size": "256"}]}}}}}, {"name": "model_69/tf.nn.convolution_35/convolution/filter", "op": "Const", "attr": {"value": {"tensor": {"dtype": "DT_FLOAT", "tensorShape": {"dim": [{"size": "1"}, {"size": "1"}, {"size": "256"}, {"size": "128"}]}}}, "dtype": {"type": "DT_FLOAT"}}}, {"name": "model_69/tf.math.add_47/Add/y", "op": "Const", "attr": {"value": {"tensor": {"dtype": "DT_FLOAT", "tensorShape": {"dim": [{"size": "128"}]}}}, "dtype": {"type": "DT_FLOAT"}}}, {"name": "model_69/tf.concat_4/concat/axis", "op": "Const", "attr": {"dtype": {"type": "DT_INT32"}, "value": {"tensor": {"dtype": "DT_INT32", "tensorShape": {}}}}}, {"name": "model_69/tf.nn.convolution_36/convolution/filter", "op": "Const", "attr": {"dtype": {"type": "DT_FLOAT"}, "value": {"tensor": {"dtype": "DT_FLOAT", "tensorShape": {"dim": [{"size": "1"}, {"size": "1"}, {"size": "512"}, {"size": "256"}]}}}}}, {"name": "model_69/tf.math.add_48/Add/y", "op": "Const", "attr": {"dtype": {"type": "DT_FLOAT"}, "value": {"tensor": {"dtype": "DT_FLOAT", "tensorShape": {"dim": [{"size": "256"}]}}}}}, {"name": "model_69/tf.concat_16/concat/axis", "op": "Const", "attr": {"value": {"tensor": {"dtype": "DT_INT32", "tensorShape": {}}}, "dtype": {"type": "DT_INT32"}}}, {"name": "model_69/tf.nn.convolution_78/convolution/filter", "op": "Const", "attr": {"value": {"tensor": {"dtype": "DT_FLOAT", "tensorShape": {"dim": [{"size": "1"}, {"size": "1"}, {"size": "384"}, {"size": "256"}]}}}, "dtype": {"type": "DT_FLOAT"}}}, {"name": "model_69/tf.math.add_90/Add/y", "op": "Const", "attr": {"value": {"tensor": {"dtype": "DT_FLOAT", "tensorShape": {"dim": [{"size": "256"}]}}}, "dtype": {"type": "DT_FLOAT"}}}, {"name": "model_69/tf.strided_slice_15/ones_like/tensor", "op": "Const", "attr": {"dtype": {"type": "DT_INT64"}, "value": {"tensor": {"dtype": "DT_INT64", "tensorShape": {"dim": [{"size": "4"}]}}}}}, {"name": "model_69/tf.strided_slice_15/StridedSlice/end", "op": "Const", "attr": {"value": {"tensor": {"dtype": "DT_INT64", "tensorShape": {"dim": [{"size": "4"}]}}}, "dtype": {"type": "DT_INT64"}}}, {"name": "model_69/tf.strided_slice_15/ones_like", "op": "Const", "attr": {"dtype": {"type": "DT_INT64"}, "value": {"tensor": {"dtype": "DT_INT64", "tensorShape": {"dim": [{"size": "4"}]}}}}}, {"name": "model_69/tf.nn.convolution_86/convolution/filter", "op": "Const", "attr": {"value": {"tensor": {"dtype": "DT_FLOAT", "tensorShape": {"dim": [{"size": "3"}, {"size": "3"}, {"size": "128"}, {"size": "128"}]}}}, "dtype": {"type": "DT_FLOAT"}}}, {"name": "model_69/tf.math.add_98/Add/y", "op": "Const", "attr": {"dtype": {"type": "DT_FLOAT"}, "value": {"tensor": {"dtype": "DT_FLOAT", "tensorShape": {"dim": [{"size": "128"}]}}}}}, {"name": "model_69/tf.nn.convolution_87/convolution/filter", "op": "Const", "attr": {"value": {"tensor": {"dtype": "DT_FLOAT", "tensorShape": {"dim": [{"size": "3"}, {"size": "3"}, {"size": "128"}, {"size": "128"}]}}}, "dtype": {"type": "DT_FLOAT"}}}, {"name": "model_69/tf.math.add_99/Add/y", "op": "Const", "attr": {"dtype": {"type": "DT_FLOAT"}, "value": {"tensor": {"dtype": "DT_FLOAT", "tensorShape": {"dim": [{"size": "128"}]}}}}}, {"name": "model_69/tf.concat_20/concat/axis", "op": "Const", "attr": {"dtype": {"type": "DT_INT32"}, "value": {"tensor": {"dtype": "DT_INT32", "tensorShape": {}}}}}, {"name": "model_69/tf.nn.convolution_88/convolution/filter", "op": "Const", "attr": {"dtype": {"type": "DT_FLOAT"}, "value": {"tensor": {"dtype": "DT_FLOAT", "tensorShape": {"dim": [{"size": "1"}, {"size": "1"}, {"size": "384"}, {"size": "256"}]}}}}}, {"name": "model_69/tf.math.add_100/Add/y", "op": "Const", "attr": {"dtype": {"type": "DT_FLOAT"}, "value": {"tensor": {"dtype": "DT_FLOAT", "tensorShape": {"dim": [{"size": "256"}]}}}}}, {"name": "model_69/tf.nn.convolution_89/convolution/filter", "op": "Const", "attr": {"dtype": {"type": "DT_FLOAT"}, "value": {"tensor": {"dtype": "DT_FLOAT", "tensorShape": {"dim": [{"size": "3"}, {"size": "3"}, {"size": "256"}, {"size": "16"}]}}}}}, {"name": "model_69/tf.math.add_101/Add/y", "op": "Const", "attr": {"dtype": {"type": "DT_FLOAT"}, "value": {"tensor": {"dtype": "DT_FLOAT", "tensorShape": {"dim": [{"size": "16"}]}}}}}, {"name": "model_69/tf.nn.convolution_92/convolution/filter", "op": "Const", "attr": {"dtype": {"type": "DT_FLOAT"}, "value": {"tensor": {"dtype": "DT_FLOAT", "tensorShape": {"dim": [{"size": "3"}, {"size": "3"}, {"size": "16"}, {"size": "16"}]}}}}}, {"name": "model_69/tf.math.add_104/Add/y", "op": "Const", "attr": {"dtype": {"type": "DT_FLOAT"}, "value": {"tensor": {"dtype": "DT_FLOAT", "tensorShape": {"dim": [{"size": "16"}]}}}}}, {"name": "model_69/tf.nn.convolution_95/convolution/filter", "op": "Const", "attr": {"value": {"tensor": {"dtype": "DT_FLOAT", "tensorShape": {"dim": [{"size": "1"}, {"size": "1"}, {"size": "16"}, {"size": "1"}]}}}, "dtype": {"type": "DT_FLOAT"}}}, {"name": "model_69/tf.math.add_107/Add/y", "op": "Const", "attr": {"dtype": {"type": "DT_FLOAT"}, "value": {"tensor": {"dtype": "DT_FLOAT", "tensorShape": {"dim": [{"size": "1"}]}}}}}, {"name": "model_69/tf.compat.v1.transpose_65/transpose/perm", "op": "Const", "attr": {"value": {"tensor": {"dtype": "DT_INT32", "tensorShape": {"dim": [{"size": "4"}]}}}, "dtype": {"type": "DT_INT32"}}}, {"name": "model_69/tf.reshape_14/Reshape/shape", "op": "Const", "attr": {"dtype": {"type": "DT_INT32"}, "value": {"tensor": {"dtype": "DT_INT32", "tensorShape": {"dim": [{"size": "3"}]}}}}}, {"name": "model_69/tf.concat_22/concat/axis", "op": "Const", "attr": {"dtype": {"type": "DT_INT32"}, "value": {"tensor": {"dtype": "DT_INT32", "tensorShape": {}}}}}, {"name": "model_69/tf.math.subtract/Sub/y", "op": "Const", "attr": {"dtype": {"type": "DT_FLOAT"}, "value": {"tensor": {"dtype": "DT_FLOAT", "tensorShape": {"dim": [{"size": "1"}, {"size": "1"}, {"size": "1"}]}}}}}, {"name": "model_69/tf.math.multiply_266/Mul/y", "op": "Const", "attr": {"value": {"tensor": {"dtype": "DT_FLOAT", "tensorShape": {"dim": [{"size": "1"}, {"size": "1"}, {"size": "1"}]}}}, "dtype": {"type": "DT_FLOAT"}}}, {"name": "model_69/output0/concat/axis", "op": "Const", "attr": {"dtype": {"type": "DT_INT32"}, "value": {"tensor": {"dtype": "DT_INT32", "tensorShape": {}}}}}, {"name": "x", "op": "Placeholder", "attr": {"dtype": {"type": "DT_FLOAT"}, "shape": {"shape": {"dim": [{"size": "1"}, {"size": "1024"}, {"size": "1024"}, {"size": "3"}]}}}}, {"name": "model_69/tf.compat.v1.pad/Pad", "op": "Pad", "input": ["x", "model_69/tf.compat.v1.pad/Pad/paddings"], "attr": {"Tpaddings": {"type": "DT_INT32"}, "T": {"type": "DT_FLOAT"}}}, {"name": "model_69/tf.nn.convolution/convolution", "op": "Conv2D", "input": ["model_69/tf.compat.v1.pad/Pad", "model_69/tf.nn.convolution/convolution/filter"], "device": "/device:CPU:0", "attr": {"explicit_paddings": {"list": {}}, "data_format": {"s": "TkhXQw=="}, "T": {"type": "DT_FLOAT"}, "use_cudnn_on_gpu": {"b": true}, "padding": {"s": "VkFMSUQ="}, "strides": {"list": {"i": ["1", "2", "2", "1"]}}, "dilations": {"list": {"i": ["1", "1", "1", "1"]}}}}, {"name": "model_69/tf.math.add/Add", "op": "AddV2", "input": ["model_69/tf.nn.convolution/convolution", "model_69/tf.math.add/Add/y"], "attr": {"T": {"type": "DT_FLOAT"}}}, {"name": "model_69/tf.math.sigmoid/Sigmoid", "op": "Sigmoid", "input": ["model_69/tf.math.add/Add"], "attr": {"T": {"type": "DT_FLOAT"}}}, {"name": "model_69/tf.math.multiply_3/Mul", "op": "Mul", "input": ["model_69/tf.math.add/Add", "model_69/tf.math.sigmoid/Sigmoid"], "attr": {"T": {"type": "DT_FLOAT"}}}, {"name": "model_69/tf.compat.v1.pad_1/Pad", "op": "Pad", "input": ["model_69/tf.math.multiply_3/Mul", "model_69/tf.compat.v1.pad_1/Pad/paddings"], "attr": {"T": {"type": "DT_FLOAT"}, "Tpaddings": {"type": "DT_INT32"}}}, {"name": "model_69/tf.nn.convolution_1/convolution", "op": "Conv2D", "input": ["model_69/tf.compat.v1.pad_1/Pad", "model_69/tf.nn.convolution_1/convolution/filter"], "device": "/device:CPU:0", "attr": {"dilations": {"list": {"i": ["1", "1", "1", "1"]}}, "T": {"type": "DT_FLOAT"}, "explicit_paddings": {"list": {}}, "use_cudnn_on_gpu": {"b": true}, "padding": {"s": "VkFMSUQ="}, "data_format": {"s": "TkhXQw=="}, "strides": {"list": {"i": ["1", "2", "2", "1"]}}}}, {"name": "model_69/tf.math.add_1/Add", "op": "AddV2", "input": ["model_69/tf.nn.convolution_1/convolution", "model_69/tf.math.add_1/Add/y"], "attr": {"T": {"type": "DT_FLOAT"}}}, {"name": "model_69/tf.math.sigmoid_1/Sigmoid", "op": "Sigmoid", "input": ["model_69/tf.math.add_1/Add"], "attr": {"T": {"type": "DT_FLOAT"}}}, {"name": "model_69/tf.math.multiply_7/Mul", "op": "Mul", "input": ["model_69/tf.math.add_1/Add", "model_69/tf.math.sigmoid_1/Sigmoid"], "attr": {"T": {"type": "DT_FLOAT"}}}, {"name": "model_69/tf.nn.convolution_2/convolution", "op": "Conv2D", "input": ["model_69/tf.math.multiply_7/Mul", "model_69/tf.nn.convolution_2/convolution/filter"], "device": "/device:CPU:0", "attr": {"explicit_paddings": {"list": {}}, "data_format": {"s": "TkhXQw=="}, "T": {"type": "DT_FLOAT"}, "use_cudnn_on_gpu": {"b": true}, "padding": {"s": "U0FNRQ=="}, "strides": {"list": {"i": ["1", "1", "1", "1"]}}, "dilations": {"list": {"i": ["1", "1", "1", "1"]}}}}, {"name": "model_69/tf.math.add_2/Add", "op": "AddV2", "input": ["model_69/tf.nn.convolution_2/convolution", "model_69/tf.math.add_2/Add/y"], "attr": {"T": {"type": "DT_FLOAT"}}}, {"name": "model_69/tf.math.sigmoid_2/Sigmoid", "op": "Sigmoid", "input": ["model_69/tf.math.add_2/Add"], "attr": {"T": {"type": "DT_FLOAT"}}}, {"name": "model_69/tf.math.multiply_11/Mul", "op": "Mul", "input": ["model_69/tf.math.add_2/Add", "model_69/tf.math.sigmoid_2/Sigmoid"], "attr": {"T": {"type": "DT_FLOAT"}}}, {"name": "model_69/tf.strided_slice/StridedSlice", "op": "StridedSlice", "input": ["model_69/tf.math.multiply_11/Mul", "model_69/tf.strided_slice/ones_like/tensor", "model_69/tf.strided_slice/StridedSlice/end", "model_69/tf.strided_slice/ones_like"], "attr": {"new_axis_mask": {"i": "0"}, "T": {"type": "DT_FLOAT"}, "Index": {"type": "DT_INT64"}, "ellipsis_mask": {"i": "0"}, "end_mask": {"i": "7"}, "begin_mask": {"i": "15"}, "shrink_axis_mask": {"i": "0"}}}, {"name": "model_69/tf.strided_slice_1/StridedSlice", "op": "StridedSlice", "input": ["model_69/tf.math.multiply_11/Mul", "model_69/tf.strided_slice_1/ones_like/tensor", "model_69/tf.strided_slice_1/StridedSlice/end", "model_69/tf.strided_slice_1/ones_like"], "attr": {"end_mask": {"i": "7"}, "ellipsis_mask": {"i": "0"}, "begin_mask": {"i": "7"}, "shrink_axis_mask": {"i": "0"}, "new_axis_mask": {"i": "0"}, "T": {"type": "DT_FLOAT"}, "Index": {"type": "DT_INT64"}}}, {"name": "model_69/tf.nn.convolution_3/convolution", "op": "Conv2D", "input": ["model_69/tf.strided_slice_1/StridedSlice", "model_69/tf.nn.convolution_3/convolution/filter"], "device": "/device:CPU:0", "attr": {"T": {"type": "DT_FLOAT"}, "padding": {"s": "U0FNRQ=="}, "dilations": {"list": {"i": ["1", "1", "1", "1"]}}, "explicit_paddings": {"list": {}}, "strides": {"list": {"i": ["1", "1", "1", "1"]}}, "data_format": {"s": "TkhXQw=="}, "use_cudnn_on_gpu": {"b": true}}}, {"name": "model_69/tf.math.add_3/Add", "op": "AddV2", "input": ["model_69/tf.nn.convolution_3/convolution", "model_69/tf.math.add_3/Add/y"], "attr": {"T": {"type": "DT_FLOAT"}}}, {"name": "model_69/tf.math.sigmoid_3/Sigmoid", "op": "Sigmoid", "input": ["model_69/tf.math.add_3/Add"], "attr": {"T": {"type": "DT_FLOAT"}}}, {"name": "model_69/tf.math.multiply_15/Mul", "op": "Mul", "input": ["model_69/tf.math.add_3/Add", "model_69/tf.math.sigmoid_3/Sigmoid"], "attr": {"T": {"type": "DT_FLOAT"}}}, {"name": "model_69/tf.nn.convolution_4/convolution", "op": "Conv2D", "input": ["model_69/tf.math.multiply_15/Mul", "model_69/tf.nn.convolution_4/convolution/filter"], "device": "/device:CPU:0", "attr": {"use_cudnn_on_gpu": {"b": true}, "data_format": {"s": "TkhXQw=="}, "T": {"type": "DT_FLOAT"}, "dilations": {"list": {"i": ["1", "1", "1", "1"]}}, "explicit_paddings": {"list": {}}, "strides": {"list": {"i": ["1", "1", "1", "1"]}}, "padding": {"s": "U0FNRQ=="}}}, {"name": "model_69/tf.math.add_4/Add", "op": "AddV2", "input": ["model_69/tf.nn.convolution_4/convolution", "model_69/tf.math.add_4/Add/y"], "attr": {"T": {"type": "DT_FLOAT"}}}, {"name": "model_69/tf.math.sigmoid_4/Sigmoid", "op": "Sigmoid", "input": ["model_69/tf.math.add_4/Add"], "attr": {"T": {"type": "DT_FLOAT"}}}, {"name": "model_69/tf.math.multiply_19/Mul", "op": "Mul", "input": ["model_69/tf.math.add_4/Add", "model_69/tf.math.sigmoid_4/Sigmoid"], "attr": {"T": {"type": "DT_FLOAT"}}}, {"name": "model_69/tf.math.add_6/Add", "op": "AddV2", "input": ["model_69/tf.strided_slice_1/StridedSlice", "model_69/tf.math.multiply_19/Mul"], "attr": {"T": {"type": "DT_FLOAT"}}}, {"name": "model_69/tf.concat/concat", "op": "ConcatV2", "input": ["model_69/tf.strided_slice/StridedSlice", "model_69/tf.strided_slice_1/StridedSlice", "model_69/tf.math.add_6/Add", "model_69/tf.concat/concat/axis"], "attr": {"T": {"type": "DT_FLOAT"}, "Tidx": {"type": "DT_INT32"}, "N": {"i": "3"}}}, {"name": "model_69/tf.nn.convolution_5/convolution", "op": "Conv2D", "input": ["model_69/tf.concat/concat", "model_69/tf.nn.convolution_5/convolution/filter"], "device": "/device:CPU:0", "attr": {"dilations": {"list": {"i": ["1", "1", "1", "1"]}}, "explicit_paddings": {"list": {}}, "T": {"type": "DT_FLOAT"}, "padding": {"s": "U0FNRQ=="}, "data_format": {"s": "TkhXQw=="}, "use_cudnn_on_gpu": {"b": true}, "strides": {"list": {"i": ["1", "1", "1", "1"]}}}}, {"name": "model_69/tf.math.add_7/Add", "op": "AddV2", "input": ["model_69/tf.nn.convolution_5/convolution", "model_69/tf.math.add_7/Add/y"], "attr": {"T": {"type": "DT_FLOAT"}}}, {"name": "model_69/tf.math.sigmoid_5/Sigmoid", "op": "Sigmoid", "input": ["model_69/tf.math.add_7/Add"], "attr": {"T": {"type": "DT_FLOAT"}}}, {"name": "model_69/tf.math.multiply_25/Mul", "op": "Mul", "input": ["model_69/tf.math.add_7/Add", "model_69/tf.math.sigmoid_5/Sigmoid"], "attr": {"T": {"type": "DT_FLOAT"}}}, {"name": "model_69/tf.compat.v1.pad_2/Pad", "op": "Pad", "input": ["model_69/tf.math.multiply_25/Mul", "model_69/tf.compat.v1.pad_2/Pad/paddings"], "attr": {"Tpaddings": {"type": "DT_INT32"}, "T": {"type": "DT_FLOAT"}}}, {"name": "model_69/tf.nn.convolution_6/convolution", "op": "Conv2D", "input": ["model_69/tf.compat.v1.pad_2/Pad", "model_69/tf.nn.convolution_6/convolution/filter"], "device": "/device:CPU:0", "attr": {"dilations": {"list": {"i": ["1", "1", "1", "1"]}}, "explicit_paddings": {"list": {}}, "T": {"type": "DT_FLOAT"}, "padding": {"s": "VkFMSUQ="}, "data_format": {"s": "TkhXQw=="}, "use_cudnn_on_gpu": {"b": true}, "strides": {"list": {"i": ["1", "2", "2", "1"]}}}}, {"name": "model_69/tf.math.add_8/Add", "op": "AddV2", "input": ["model_69/tf.nn.convolution_6/convolution", "model_69/tf.math.add_8/Add/y"], "attr": {"T": {"type": "DT_FLOAT"}}}, {"name": "model_69/tf.math.sigmoid_6/Sigmoid", "op": "Sigmoid", "input": ["model_69/tf.math.add_8/Add"], "attr": {"T": {"type": "DT_FLOAT"}}}, {"name": "model_69/tf.math.multiply_29/Mul", "op": "Mul", "input": ["model_69/tf.math.add_8/Add", "model_69/tf.math.sigmoid_6/Sigmoid"], "attr": {"T": {"type": "DT_FLOAT"}}}, {"name": "model_69/tf.nn.convolution_7/convolution", "op": "Conv2D", "input": ["model_69/tf.math.multiply_29/Mul", "model_69/tf.nn.convolution_7/convolution/filter"], "device": "/device:CPU:0", "attr": {"data_format": {"s": "TkhXQw=="}, "use_cudnn_on_gpu": {"b": true}, "dilations": {"list": {"i": ["1", "1", "1", "1"]}}, "explicit_paddings": {"list": {}}, "T": {"type": "DT_FLOAT"}, "padding": {"s": "U0FNRQ=="}, "strides": {"list": {"i": ["1", "1", "1", "1"]}}}}, {"name": "model_69/tf.math.add_9/Add", "op": "AddV2", "input": ["model_69/tf.nn.convolution_7/convolution", "model_69/tf.math.add_9/Add/y"], "attr": {"T": {"type": "DT_FLOAT"}}}, {"name": "model_69/tf.math.sigmoid_7/Sigmoid", "op": "Sigmoid", "input": ["model_69/tf.math.add_9/Add"], "attr": {"T": {"type": "DT_FLOAT"}}}, {"name": "model_69/tf.math.multiply_33/Mul", "op": "Mul", "input": ["model_69/tf.math.add_9/Add", "model_69/tf.math.sigmoid_7/Sigmoid"], "attr": {"T": {"type": "DT_FLOAT"}}}, {"name": "model_69/tf.strided_slice_2/StridedSlice", "op": "StridedSlice", "input": ["model_69/tf.math.multiply_33/Mul", "model_69/tf.strided_slice_2/ones_like/tensor", "model_69/tf.strided_slice_2/StridedSlice/end", "model_69/tf.strided_slice_2/ones_like"], "attr": {"Index": {"type": "DT_INT64"}, "shrink_axis_mask": {"i": "0"}, "begin_mask": {"i": "15"}, "end_mask": {"i": "7"}, "new_axis_mask": {"i": "0"}, "ellipsis_mask": {"i": "0"}, "T": {"type": "DT_FLOAT"}}}, {"name": "model_69/tf.strided_slice_3/StridedSlice", "op": "StridedSlice", "input": ["model_69/tf.math.multiply_33/Mul", "model_69/tf.strided_slice_3/ones_like/tensor", "model_69/tf.strided_slice_3/StridedSlice/end", "model_69/tf.strided_slice_3/ones_like"], "attr": {"T": {"type": "DT_FLOAT"}, "ellipsis_mask": {"i": "0"}, "Index": {"type": "DT_INT64"}, "new_axis_mask": {"i": "0"}, "begin_mask": {"i": "7"}, "end_mask": {"i": "7"}, "shrink_axis_mask": {"i": "0"}}}, {"name": "model_69/tf.nn.convolution_8/convolution", "op": "Conv2D", "input": ["model_69/tf.strided_slice_3/StridedSlice", "model_69/tf.nn.convolution_8/convolution/filter"], "device": "/device:CPU:0", "attr": {"dilations": {"list": {"i": ["1", "1", "1", "1"]}}, "T": {"type": "DT_FLOAT"}, "strides": {"list": {"i": ["1", "1", "1", "1"]}}, "padding": {"s": "U0FNRQ=="}, "use_cudnn_on_gpu": {"b": true}, "data_format": {"s": "TkhXQw=="}, "explicit_paddings": {"list": {}}}}, {"name": "model_69/tf.math.add_10/Add", "op": "AddV2", "input": ["model_69/tf.nn.convolution_8/convolution", "model_69/tf.math.add_10/Add/y"], "attr": {"T": {"type": "DT_FLOAT"}}}, {"name": "model_69/tf.math.sigmoid_8/Sigmoid", "op": "Sigmoid", "input": ["model_69/tf.math.add_10/Add"], "attr": {"T": {"type": "DT_FLOAT"}}}, {"name": "model_69/tf.math.multiply_37/Mul", "op": "Mul", "input": ["model_69/tf.math.add_10/Add", "model_69/tf.math.sigmoid_8/Sigmoid"], "attr": {"T": {"type": "DT_FLOAT"}}}, {"name": "model_69/tf.nn.convolution_9/convolution", "op": "Conv2D", "input": ["model_69/tf.math.multiply_37/Mul", "model_69/tf.nn.convolution_9/convolution/filter"], "device": "/device:CPU:0", "attr": {"explicit_paddings": {"list": {}}, "dilations": {"list": {"i": ["1", "1", "1", "1"]}}, "padding": {"s": "U0FNRQ=="}, "strides": {"list": {"i": ["1", "1", "1", "1"]}}, "use_cudnn_on_gpu": {"b": true}, "T": {"type": "DT_FLOAT"}, "data_format": {"s": "TkhXQw=="}}}, {"name": "model_69/tf.math.add_11/Add", "op": "AddV2", "input": ["model_69/tf.nn.convolution_9/convolution", "model_69/tf.math.add_11/Add/y"], "attr": {"T": {"type": "DT_FLOAT"}}}, {"name": "model_69/tf.math.sigmoid_9/Sigmoid", "op": "Sigmoid", "input": ["model_69/tf.math.add_11/Add"], "attr": {"T": {"type": "DT_FLOAT"}}}, {"name": "model_69/tf.math.multiply_41/Mul", "op": "Mul", "input": ["model_69/tf.math.add_11/Add", "model_69/tf.math.sigmoid_9/Sigmoid"], "attr": {"T": {"type": "DT_FLOAT"}}}, {"name": "model_69/tf.math.add_13/Add", "op": "AddV2", "input": ["model_69/tf.strided_slice_3/StridedSlice", "model_69/tf.math.multiply_41/Mul"], "attr": {"T": {"type": "DT_FLOAT"}}}, {"name": "model_69/tf.nn.convolution_10/convolution", "op": "Conv2D", "input": ["model_69/tf.math.add_13/Add", "model_69/tf.nn.convolution_10/convolution/filter"], "device": "/device:CPU:0", "attr": {"use_cudnn_on_gpu": {"b": true}, "T": {"type": "DT_FLOAT"}, "strides": {"list": {"i": ["1", "1", "1", "1"]}}, "data_format": {"s": "TkhXQw=="}, "padding": {"s": "U0FNRQ=="}, "explicit_paddings": {"list": {}}, "dilations": {"list": {"i": ["1", "1", "1", "1"]}}}}, {"name": "model_69/tf.math.add_14/Add", "op": "AddV2", "input": ["model_69/tf.nn.convolution_10/convolution", "model_69/tf.math.add_14/Add/y"], "attr": {"T": {"type": "DT_FLOAT"}}}, {"name": "model_69/tf.math.sigmoid_10/Sigmoid", "op": "Sigmoid", "input": ["model_69/tf.math.add_14/Add"], "attr": {"T": {"type": "DT_FLOAT"}}}, {"name": "model_69/tf.math.multiply_47/Mul", "op": "Mul", "input": ["model_69/tf.math.add_14/Add", "model_69/tf.math.sigmoid_10/Sigmoid"], "attr": {"T": {"type": "DT_FLOAT"}}}, {"name": "model_69/tf.nn.convolution_11/convolution", "op": "Conv2D", "input": ["model_69/tf.math.multiply_47/Mul", "model_69/tf.nn.convolution_11/convolution/filter"], "device": "/device:CPU:0", "attr": {"use_cudnn_on_gpu": {"b": true}, "dilations": {"list": {"i": ["1", "1", "1", "1"]}}, "padding": {"s": "U0FNRQ=="}, "explicit_paddings": {"list": {}}, "strides": {"list": {"i": ["1", "1", "1", "1"]}}, "T": {"type": "DT_FLOAT"}, "data_format": {"s": "TkhXQw=="}}}, {"name": "model_69/tf.math.add_15/Add", "op": "AddV2", "input": ["model_69/tf.nn.convolution_11/convolution", "model_69/tf.math.add_15/Add/y"], "attr": {"T": {"type": "DT_FLOAT"}}}, {"name": "model_69/tf.math.sigmoid_11/Sigmoid", "op": "Sigmoid", "input": ["model_69/tf.math.add_15/Add"], "attr": {"T": {"type": "DT_FLOAT"}}}, {"name": "model_69/tf.math.multiply_51/Mul", "op": "Mul", "input": ["model_69/tf.math.add_15/Add", "model_69/tf.math.sigmoid_11/Sigmoid"], "attr": {"T": {"type": "DT_FLOAT"}}}, {"name": "model_69/tf.math.add_17/Add", "op": "AddV2", "input": ["model_69/tf.math.add_13/Add", "model_69/tf.math.multiply_51/Mul"], "attr": {"T": {"type": "DT_FLOAT"}}}, {"name": "model_69/tf.concat_1/concat", "op": "ConcatV2", "input": ["model_69/tf.strided_slice_2/StridedSlice", "model_69/tf.strided_slice_3/StridedSlice", "model_69/tf.math.add_13/Add", "model_69/tf.math.add_17/Add", "model_69/tf.concat_1/concat/axis"], "attr": {"T": {"type": "DT_FLOAT"}, "Tidx": {"type": "DT_INT32"}, "N": {"i": "4"}}}, {"name": "model_69/tf.nn.convolution_14/convolution", "op": "Conv2D", "input": ["model_69/tf.concat_1/concat", "model_69/tf.nn.convolution_14/convolution/filter"], "device": "/device:CPU:0", "attr": {"data_format": {"s": "TkhXQw=="}, "use_cudnn_on_gpu": {"b": true}, "dilations": {"list": {"i": ["1", "1", "1", "1"]}}, "strides": {"list": {"i": ["1", "1", "1", "1"]}}, "explicit_paddings": {"list": {}}, "T": {"type": "DT_FLOAT"}, "padding": {"s": "U0FNRQ=="}}}, {"name": "model_69/tf.math.add_20/Add", "op": "AddV2", "input": ["model_69/tf.nn.convolution_14/convolution", "model_69/tf.math.add_20/Add/y"], "attr": {"T": {"type": "DT_FLOAT"}}}, {"name": "model_69/tf.math.sigmoid_12/Sigmoid", "op": "Sigmoid", "input": ["model_69/tf.math.add_20/Add"], "attr": {"T": {"type": "DT_FLOAT"}}}, {"name": "model_69/tf.math.multiply_57/Mul", "op": "Mul", "input": ["model_69/tf.math.add_20/Add", "model_69/tf.math.sigmoid_12/Sigmoid"], "attr": {"T": {"type": "DT_FLOAT"}}}, {"name": "model_69/tf.compat.v1.pad_3/Pad", "op": "Pad", "input": ["model_69/tf.math.multiply_57/Mul", "model_69/tf.compat.v1.pad_3/Pad/paddings"], "attr": {"T": {"type": "DT_FLOAT"}, "Tpaddings": {"type": "DT_INT32"}}}, {"name": "model_69/tf.nn.convolution_15/convolution", "op": "Conv2D", "input": ["model_69/tf.compat.v1.pad_3/Pad", "model_69/tf.nn.convolution_15/convolution/filter"], "device": "/device:CPU:0", "attr": {"padding": {"s": "VkFMSUQ="}, "use_cudnn_on_gpu": {"b": true}, "data_format": {"s": "TkhXQw=="}, "dilations": {"list": {"i": ["1", "1", "1", "1"]}}, "explicit_paddings": {"list": {}}, "T": {"type": "DT_FLOAT"}, "strides": {"list": {"i": ["1", "2", "2", "1"]}}}}, {"name": "model_69/tf.math.add_21/Add", "op": "AddV2", "input": ["model_69/tf.nn.convolution_15/convolution", "model_69/tf.math.add_21/Add/y"], "attr": {"T": {"type": "DT_FLOAT"}}}, {"name": "model_69/tf.math.sigmoid_13/Sigmoid", "op": "Sigmoid", "input": ["model_69/tf.math.add_21/Add"], "attr": {"T": {"type": "DT_FLOAT"}}}, {"name": "model_69/tf.math.multiply_61/Mul", "op": "Mul", "input": ["model_69/tf.math.add_21/Add", "model_69/tf.math.sigmoid_13/Sigmoid"], "attr": {"T": {"type": "DT_FLOAT"}}}, {"name": "model_69/tf.nn.convolution_16/convolution", "op": "Conv2D", "input": ["model_69/tf.math.multiply_61/Mul", "model_69/tf.nn.convolution_16/convolution/filter"], "device": "/device:CPU:0", "attr": {"padding": {"s": "U0FNRQ=="}, "data_format": {"s": "TkhXQw=="}, "strides": {"list": {"i": ["1", "1", "1", "1"]}}, "dilations": {"list": {"i": ["1", "1", "1", "1"]}}, "explicit_paddings": {"list": {}}, "T": {"type": "DT_FLOAT"}, "use_cudnn_on_gpu": {"b": true}}}, {"name": "model_69/tf.math.add_22/Add", "op": "AddV2", "input": ["model_69/tf.nn.convolution_16/convolution", "model_69/tf.math.add_22/Add/y"], "attr": {"T": {"type": "DT_FLOAT"}}}, {"name": "model_69/tf.math.sigmoid_14/Sigmoid", "op": "Sigmoid", "input": ["model_69/tf.math.add_22/Add"], "attr": {"T": {"type": "DT_FLOAT"}}}, {"name": "model_69/tf.math.multiply_65/Mul", "op": "Mul", "input": ["model_69/tf.math.add_22/Add", "model_69/tf.math.sigmoid_14/Sigmoid"], "attr": {"T": {"type": "DT_FLOAT"}}}, {"name": "model_69/tf.strided_slice_4/StridedSlice", "op": "StridedSlice", "input": ["model_69/tf.math.multiply_65/Mul", "model_69/tf.strided_slice_4/ones_like/tensor", "model_69/tf.strided_slice_4/StridedSlice/end", "model_69/tf.strided_slice_4/ones_like"], "attr": {"ellipsis_mask": {"i": "0"}, "T": {"type": "DT_FLOAT"}, "Index": {"type": "DT_INT64"}, "new_axis_mask": {"i": "0"}, "begin_mask": {"i": "15"}, "end_mask": {"i": "7"}, "shrink_axis_mask": {"i": "0"}}}, {"name": "model_69/tf.strided_slice_5/StridedSlice", "op": "StridedSlice", "input": ["model_69/tf.math.multiply_65/Mul", "model_69/tf.strided_slice_5/ones_like/tensor", "model_69/tf.strided_slice_5/StridedSlice/end", "model_69/tf.strided_slice_5/ones_like"], "attr": {"T": {"type": "DT_FLOAT"}, "ellipsis_mask": {"i": "0"}, "begin_mask": {"i": "7"}, "new_axis_mask": {"i": "0"}, "Index": {"type": "DT_INT64"}, "end_mask": {"i": "7"}, "shrink_axis_mask": {"i": "0"}}}, {"name": "model_69/tf.nn.convolution_19/convolution", "op": "Conv2D", "input": ["model_69/tf.strided_slice_5/StridedSlice", "model_69/tf.nn.convolution_19/convolution/filter"], "device": "/device:CPU:0", "attr": {"strides": {"list": {"i": ["1", "1", "1", "1"]}}, "dilations": {"list": {"i": ["1", "1", "1", "1"]}}, "padding": {"s": "U0FNRQ=="}, "explicit_paddings": {"list": {}}, "T": {"type": "DT_FLOAT"}, "use_cudnn_on_gpu": {"b": true}, "data_format": {"s": "TkhXQw=="}}}, {"name": "model_69/tf.math.add_25/Add", "op": "AddV2", "input": ["model_69/tf.nn.convolution_19/convolution", "model_69/tf.math.add_25/Add/y"], "attr": {"T": {"type": "DT_FLOAT"}}}, {"name": "model_69/tf.math.sigmoid_15/Sigmoid", "op": "Sigmoid", "input": ["model_69/tf.math.add_25/Add"], "attr": {"T": {"type": "DT_FLOAT"}}}, {"name": "model_69/tf.math.multiply_69/Mul", "op": "Mul", "input": ["model_69/tf.math.add_25/Add", "model_69/tf.math.sigmoid_15/Sigmoid"], "attr": {"T": {"type": "DT_FLOAT"}}}, {"name": "model_69/tf.nn.convolution_22/convolution", "op": "Conv2D", "input": ["model_69/tf.math.multiply_69/Mul", "model_69/tf.nn.convolution_22/convolution/filter"], "device": "/device:CPU:0", "attr": {"padding": {"s": "U0FNRQ=="}, "data_format": {"s": "TkhXQw=="}, "use_cudnn_on_gpu": {"b": true}, "dilations": {"list": {"i": ["1", "1", "1", "1"]}}, "strides": {"list": {"i": ["1", "1", "1", "1"]}}, "T": {"type": "DT_FLOAT"}, "explicit_paddings": {"list": {}}}}, {"name": "model_69/tf.math.add_28/Add", "op": "AddV2", "input": ["model_69/tf.nn.convolution_22/convolution", "model_69/tf.math.add_28/Add/y"], "attr": {"T": {"type": "DT_FLOAT"}}}, {"name": "model_69/tf.math.sigmoid_16/Sigmoid", "op": "Sigmoid", "input": ["model_69/tf.math.add_28/Add"], "attr": {"T": {"type": "DT_FLOAT"}}}, {"name": "model_69/tf.math.multiply_73/Mul", "op": "Mul", "input": ["model_69/tf.math.add_28/Add", "model_69/tf.math.sigmoid_16/Sigmoid"], "attr": {"T": {"type": "DT_FLOAT"}}}, {"name": "model_69/tf.math.add_30/Add", "op": "AddV2", "input": ["model_69/tf.strided_slice_5/StridedSlice", "model_69/tf.math.multiply_73/Mul"], "attr": {"T": {"type": "DT_FLOAT"}}}, {"name": "model_69/tf.nn.convolution_25/convolution", "op": "Conv2D", "input": ["model_69/tf.math.add_30/Add", "model_69/tf.nn.convolution_25/convolution/filter"], "device": "/device:CPU:0", "attr": {"T": {"type": "DT_FLOAT"}, "use_cudnn_on_gpu": {"b": true}, "data_format": {"s": "TkhXQw=="}, "strides": {"list": {"i": ["1", "1", "1", "1"]}}, "dilations": {"list": {"i": ["1", "1", "1", "1"]}}, "padding": {"s": "U0FNRQ=="}, "explicit_paddings": {"list": {}}}}, {"name": "model_69/tf.math.add_33/Add", "op": "AddV2", "input": ["model_69/tf.nn.convolution_25/convolution", "model_69/tf.math.add_33/Add/y"], "attr": {"T": {"type": "DT_FLOAT"}}}, {"name": "model_69/tf.math.sigmoid_17/Sigmoid", "op": "Sigmoid", "input": ["model_69/tf.math.add_33/Add"], "attr": {"T": {"type": "DT_FLOAT"}}}, {"name": "model_69/tf.math.multiply_79/Mul", "op": "Mul", "input": ["model_69/tf.math.add_33/Add", "model_69/tf.math.sigmoid_17/Sigmoid"], "attr": {"T": {"type": "DT_FLOAT"}}}, {"name": "model_69/tf.nn.convolution_28/convolution", "op": "Conv2D", "input": ["model_69/tf.math.multiply_79/Mul", "model_69/tf.nn.convolution_28/convolution/filter"], "device": "/device:CPU:0", "attr": {"padding": {"s": "U0FNRQ=="}, "use_cudnn_on_gpu": {"b": true}, "data_format": {"s": "TkhXQw=="}, "strides": {"list": {"i": ["1", "1", "1", "1"]}}, "dilations": {"list": {"i": ["1", "1", "1", "1"]}}, "explicit_paddings": {"list": {}}, "T": {"type": "DT_FLOAT"}}}, {"name": "model_69/tf.math.add_36/Add", "op": "AddV2", "input": ["model_69/tf.nn.convolution_28/convolution", "model_69/tf.math.add_36/Add/y"], "attr": {"T": {"type": "DT_FLOAT"}}}, {"name": "model_69/tf.math.sigmoid_18/Sigmoid", "op": "Sigmoid", "input": ["model_69/tf.math.add_36/Add"], "attr": {"T": {"type": "DT_FLOAT"}}}, {"name": "model_69/tf.math.multiply_83/Mul", "op": "Mul", "input": ["model_69/tf.math.add_36/Add", "model_69/tf.math.sigmoid_18/Sigmoid"], "attr": {"T": {"type": "DT_FLOAT"}}}, {"name": "model_69/tf.math.add_38/Add", "op": "AddV2", "input": ["model_69/tf.math.add_30/Add", "model_69/tf.math.multiply_83/Mul"], "attr": {"T": {"type": "DT_FLOAT"}}}, {"name": "model_69/tf.concat_2/concat", "op": "ConcatV2", "input": ["model_69/tf.strided_slice_4/StridedSlice", "model_69/tf.strided_slice_5/StridedSlice", "model_69/tf.math.add_30/Add", "model_69/tf.math.add_38/Add", "model_69/tf.concat_2/concat/axis"], "attr": {"T": {"type": "DT_FLOAT"}, "N": {"i": "4"}, "Tidx": {"type": "DT_INT32"}}}, {"name": "model_69/tf.nn.convolution_29/convolution", "op": "Conv2D", "input": ["model_69/tf.concat_2/concat", "model_69/tf.nn.convolution_29/convolution/filter"], "device": "/device:CPU:0", "attr": {"data_format": {"s": "TkhXQw=="}, "T": {"type": "DT_FLOAT"}, "use_cudnn_on_gpu": {"b": true}, "dilations": {"list": {"i": ["1", "1", "1", "1"]}}, "padding": {"s": "U0FNRQ=="}, "strides": {"list": {"i": ["1", "1", "1", "1"]}}, "explicit_paddings": {"list": {}}}}, {"name": "model_69/tf.math.add_39/Add", "op": "AddV2", "input": ["model_69/tf.nn.convolution_29/convolution", "model_69/tf.math.add_39/Add/y"], "attr": {"T": {"type": "DT_FLOAT"}}}, {"name": "model_69/tf.math.sigmoid_19/Sigmoid", "op": "Sigmoid", "input": ["model_69/tf.math.add_39/Add"], "attr": {"T": {"type": "DT_FLOAT"}}}, {"name": "model_69/tf.math.multiply_89/Mul", "op": "Mul", "input": ["model_69/tf.math.add_39/Add", "model_69/tf.math.sigmoid_19/Sigmoid"], "attr": {"T": {"type": "DT_FLOAT"}}}, {"name": "model_69/tf.compat.v1.pad_4/Pad", "op": "Pad", "input": ["model_69/tf.math.multiply_89/Mul", "model_69/tf.compat.v1.pad_4/Pad/paddings"], "attr": {"T": {"type": "DT_FLOAT"}, "Tpaddings": {"type": "DT_INT32"}}}, {"name": "model_69/tf.nn.convolution_30/convolution", "op": "Conv2D", "input": ["model_69/tf.compat.v1.pad_4/Pad", "model_69/tf.nn.convolution_30/convolution/filter"], "device": "/device:CPU:0", "attr": {"strides": {"list": {"i": ["1", "2", "2", "1"]}}, "T": {"type": "DT_FLOAT"}, "explicit_paddings": {"list": {}}, "padding": {"s": "VkFMSUQ="}, "data_format": {"s": "TkhXQw=="}, "use_cudnn_on_gpu": {"b": true}, "dilations": {"list": {"i": ["1", "1", "1", "1"]}}}}, {"name": "model_69/tf.math.add_40/Add", "op": "AddV2", "input": ["model_69/tf.nn.convolution_30/convolution", "model_69/tf.math.add_40/Add/y"], "attr": {"T": {"type": "DT_FLOAT"}}}, {"name": "model_69/tf.math.sigmoid_20/Sigmoid", "op": "Sigmoid", "input": ["model_69/tf.math.add_40/Add"], "attr": {"T": {"type": "DT_FLOAT"}}}, {"name": "model_69/tf.math.multiply_93/Mul", "op": "Mul", "input": ["model_69/tf.math.add_40/Add", "model_69/tf.math.sigmoid_20/Sigmoid"], "attr": {"T": {"type": "DT_FLOAT"}}}, {"name": "model_69/tf.nn.convolution_31/convolution", "op": "Conv2D", "input": ["model_69/tf.math.multiply_93/Mul", "model_69/tf.nn.convolution_31/convolution/filter"], "device": "/device:CPU:0", "attr": {"padding": {"s": "U0FNRQ=="}, "strides": {"list": {"i": ["1", "1", "1", "1"]}}, "data_format": {"s": "TkhXQw=="}, "use_cudnn_on_gpu": {"b": true}, "T": {"type": "DT_FLOAT"}, "dilations": {"list": {"i": ["1", "1", "1", "1"]}}, "explicit_paddings": {"list": {}}}}, {"name": "model_69/tf.math.add_41/Add", "op": "AddV2", "input": ["model_69/tf.nn.convolution_31/convolution", "model_69/tf.math.add_41/Add/y"], "attr": {"T": {"type": "DT_FLOAT"}}}, {"name": "model_69/tf.math.sigmoid_21/Sigmoid", "op": "Sigmoid", "input": ["model_69/tf.math.add_41/Add"], "attr": {"T": {"type": "DT_FLOAT"}}}, {"name": "model_69/tf.math.multiply_97/Mul", "op": "Mul", "input": ["model_69/tf.math.add_41/Add", "model_69/tf.math.sigmoid_21/Sigmoid"], "attr": {"T": {"type": "DT_FLOAT"}}}, {"name": "model_69/tf.strided_slice_6/StridedSlice", "op": "StridedSlice", "input": ["model_69/tf.math.multiply_97/Mul", "model_69/tf.strided_slice_6/ones_like/tensor", "model_69/tf.strided_slice_6/StridedSlice/end", "model_69/tf.strided_slice_6/ones_like"], "attr": {"new_axis_mask": {"i": "0"}, "end_mask": {"i": "7"}, "T": {"type": "DT_FLOAT"}, "shrink_axis_mask": {"i": "0"}, "Index": {"type": "DT_INT64"}, "ellipsis_mask": {"i": "0"}, "begin_mask": {"i": "15"}}}, {"name": "model_69/tf.strided_slice_7/StridedSlice", "op": "StridedSlice", "input": ["model_69/tf.math.multiply_97/Mul", "model_69/tf.strided_slice_7/ones_like/tensor", "model_69/tf.strided_slice_7/StridedSlice/end", "model_69/tf.strided_slice_7/ones_like"], "attr": {"end_mask": {"i": "7"}, "ellipsis_mask": {"i": "0"}, "begin_mask": {"i": "7"}, "shrink_axis_mask": {"i": "0"}, "Index": {"type": "DT_INT64"}, "new_axis_mask": {"i": "0"}, "T": {"type": "DT_FLOAT"}}}, {"name": "model_69/tf.nn.convolution_32/convolution", "op": "Conv2D", "input": ["model_69/tf.strided_slice_7/StridedSlice", "model_69/tf.nn.convolution_32/convolution/filter"], "device": "/device:CPU:0", "attr": {"strides": {"list": {"i": ["1", "1", "1", "1"]}}, "T": {"type": "DT_FLOAT"}, "use_cudnn_on_gpu": {"b": true}, "data_format": {"s": "TkhXQw=="}, "dilations": {"list": {"i": ["1", "1", "1", "1"]}}, "explicit_paddings": {"list": {}}, "padding": {"s": "U0FNRQ=="}}}, {"name": "model_69/tf.math.add_42/Add", "op": "AddV2", "input": ["model_69/tf.nn.convolution_32/convolution", "model_69/tf.math.add_42/Add/y"], "attr": {"T": {"type": "DT_FLOAT"}}}, {"name": "model_69/tf.math.sigmoid_22/Sigmoid", "op": "Sigmoid", "input": ["model_69/tf.math.add_42/Add"], "attr": {"T": {"type": "DT_FLOAT"}}}, {"name": "model_69/tf.math.multiply_101/Mul", "op": "Mul", "input": ["model_69/tf.math.add_42/Add", "model_69/tf.math.sigmoid_22/Sigmoid"], "attr": {"T": {"type": "DT_FLOAT"}}}, {"name": "model_69/tf.nn.convolution_33/convolution", "op": "Conv2D", "input": ["model_69/tf.math.multiply_101/Mul", "model_69/tf.nn.convolution_33/convolution/filter"], "device": "/device:CPU:0", "attr": {"data_format": {"s": "TkhXQw=="}, "strides": {"list": {"i": ["1", "1", "1", "1"]}}, "dilations": {"list": {"i": ["1", "1", "1", "1"]}}, "padding": {"s": "U0FNRQ=="}, "explicit_paddings": {"list": {}}, "T": {"type": "DT_FLOAT"}, "use_cudnn_on_gpu": {"b": true}}}, {"name": "model_69/tf.math.add_43/Add", "op": "AddV2", "input": ["model_69/tf.nn.convolution_33/convolution", "model_69/tf.math.add_43/Add/y"], "attr": {"T": {"type": "DT_FLOAT"}}}, {"name": "model_69/tf.math.sigmoid_23/Sigmoid", "op": "Sigmoid", "input": ["model_69/tf.math.add_43/Add"], "attr": {"T": {"type": "DT_FLOAT"}}}, {"name": "model_69/tf.math.multiply_105/Mul", "op": "Mul", "input": ["model_69/tf.math.add_43/Add", "model_69/tf.math.sigmoid_23/Sigmoid"], "attr": {"T": {"type": "DT_FLOAT"}}}, {"name": "model_69/tf.math.add_45/Add", "op": "AddV2", "input": ["model_69/tf.strided_slice_7/StridedSlice", "model_69/tf.math.multiply_105/Mul"], "attr": {"T": {"type": "DT_FLOAT"}}}, {"name": "model_69/tf.concat_3/concat", "op": "ConcatV2", "input": ["model_69/tf.strided_slice_6/StridedSlice", "model_69/tf.strided_slice_7/StridedSlice", "model_69/tf.math.add_45/Add", "model_69/tf.concat_3/concat/axis"], "attr": {"Tidx": {"type": "DT_INT32"}, "N": {"i": "3"}, "T": {"type": "DT_FLOAT"}}}, {"name": "model_69/tf.nn.convolution_34/convolution", "op": "Conv2D", "input": ["model_69/tf.concat_3/concat", "model_69/tf.nn.convolution_34/convolution/filter"], "device": "/device:CPU:0", "attr": {"data_format": {"s": "TkhXQw=="}, "dilations": {"list": {"i": ["1", "1", "1", "1"]}}, "explicit_paddings": {"list": {}}, "padding": {"s": "U0FNRQ=="}, "T": {"type": "DT_FLOAT"}, "strides": {"list": {"i": ["1", "1", "1", "1"]}}, "use_cudnn_on_gpu": {"b": true}}}, {"name": "model_69/tf.math.add_46/Add", "op": "AddV2", "input": ["model_69/tf.nn.convolution_34/convolution", "model_69/tf.math.add_46/Add/y"], "attr": {"T": {"type": "DT_FLOAT"}}}, {"name": "model_69/tf.math.sigmoid_24/Sigmoid", "op": "Sigmoid", "input": ["model_69/tf.math.add_46/Add"], "attr": {"T": {"type": "DT_FLOAT"}}}, {"name": "model_69/tf.math.multiply_111/Mul", "op": "Mul", "input": ["model_69/tf.math.add_46/Add", "model_69/tf.math.sigmoid_24/Sigmoid"], "attr": {"T": {"type": "DT_FLOAT"}}}, {"name": "model_69/tf.nn.convolution_35/convolution", "op": "Conv2D", "input": ["model_69/tf.math.multiply_111/Mul", "model_69/tf.nn.convolution_35/convolution/filter"], "device": "/device:CPU:0", "attr": {"explicit_paddings": {"list": {}}, "padding": {"s": "U0FNRQ=="}, "strides": {"list": {"i": ["1", "1", "1", "1"]}}, "data_format": {"s": "TkhXQw=="}, "use_cudnn_on_gpu": {"b": true}, "dilations": {"list": {"i": ["1", "1", "1", "1"]}}, "T": {"type": "DT_FLOAT"}}}, {"name": "model_69/tf.math.add_47/Add", "op": "AddV2", "input": ["model_69/tf.nn.convolution_35/convolution", "model_69/tf.math.add_47/Add/y"], "attr": {"T": {"type": "DT_FLOAT"}}}, {"name": "model_69/tf.math.sigmoid_25/Sigmoid", "op": "Sigmoid", "input": ["model_69/tf.math.add_47/Add"], "attr": {"T": {"type": "DT_FLOAT"}}}, {"name": "model_69/tf.math.multiply_115/Mul", "op": "Mul", "input": ["model_69/tf.math.add_47/Add", "model_69/tf.math.sigmoid_25/Sigmoid"], "attr": {"T": {"type": "DT_FLOAT"}}}, {"name": "model_69/tf.compat.v1.nn.pool/max_pool", "op": "MaxPool", "input": ["model_69/tf.math.multiply_115/Mul"], "attr": {"T": {"type": "DT_FLOAT"}, "explicit_paddings": {"list": {}}, "strides": {"list": {"i": ["1", "1", "1", "1"]}}, "padding": {"s": "U0FNRQ=="}, "ksize": {"list": {"i": ["1", "5", "5", "1"]}}, "data_format": {"s": "TkhXQw=="}}}, {"name": "model_69/tf.compat.v1.nn.pool_1/max_pool", "op": "MaxPool", "input": ["model_69/tf.compat.v1.nn.pool/max_pool"], "attr": {"ksize": {"list": {"i": ["1", "5", "5", "1"]}}, "data_format": {"s": "TkhXQw=="}, "explicit_paddings": {"list": {}}, "padding": {"s": "U0FNRQ=="}, "strides": {"list": {"i": ["1", "1", "1", "1"]}}, "T": {"type": "DT_FLOAT"}}}, {"name": "model_69/tf.compat.v1.nn.pool_2/max_pool", "op": "MaxPool", "input": ["model_69/tf.compat.v1.nn.pool_1/max_pool"], "attr": {"T": {"type": "DT_FLOAT"}, "ksize": {"list": {"i": ["1", "5", "5", "1"]}}, "padding": {"s": "U0FNRQ=="}, "strides": {"list": {"i": ["1", "1", "1", "1"]}}, "data_format": {"s": "TkhXQw=="}, "explicit_paddings": {"list": {}}}}, {"name": "model_69/tf.concat_4/concat", "op": "ConcatV2", "input": ["model_69/tf.math.multiply_115/Mul", "model_69/tf.compat.v1.nn.pool/max_pool", "model_69/tf.compat.v1.nn.pool_1/max_pool", "model_69/tf.compat.v1.nn.pool_2/max_pool", "model_69/tf.concat_4/concat/axis"], "attr": {"Tidx": {"type": "DT_INT32"}, "N": {"i": "4"}, "T": {"type": "DT_FLOAT"}}}, {"name": "model_69/tf.nn.convolution_36/convolution", "op": "Conv2D", "input": ["model_69/tf.concat_4/concat", "model_69/tf.nn.convolution_36/convolution/filter"], "device": "/device:CPU:0", "attr": {"padding": {"s": "U0FNRQ=="}, "explicit_paddings": {"list": {}}, "strides": {"list": {"i": ["1", "1", "1", "1"]}}, "T": {"type": "DT_FLOAT"}, "use_cudnn_on_gpu": {"b": true}, "data_format": {"s": "TkhXQw=="}, "dilations": {"list": {"i": ["1", "1", "1", "1"]}}}}, {"name": "model_69/tf.math.add_48/Add", "op": "AddV2", "input": ["model_69/tf.nn.convolution_36/convolution", "model_69/tf.math.add_48/Add/y"], "attr": {"T": {"type": "DT_FLOAT"}}}, {"name": "model_69/tf.math.sigmoid_26/Sigmoid", "op": "Sigmoid", "input": ["model_69/tf.math.add_48/Add"], "attr": {"T": {"type": "DT_FLOAT"}}}, {"name": "model_69/tf.math.multiply_119/Mul", "op": "Mul", "input": ["model_69/tf.math.add_48/Add", "model_69/tf.math.sigmoid_26/Sigmoid"], "attr": {"T": {"type": "DT_FLOAT"}}}, {"name": "model_69/tf.image.resize/resize/ResizeNearestNeighbor", "op": "ResizeNearestNeighbor", "input": ["model_69/tf.math.multiply_119/Mul", "model_69/tf.image.resize/resize/size"], "attr": {"half_pixel_centers": {"b": true}, "T": {"type": "DT_FLOAT"}, "align_corners": {"b": false}}}, {"name": "model_69/tf.concat_5/concat", "op": "ConcatV2", "input": ["model_69/tf.image.resize/resize/ResizeNearestNeighbor", "model_69/tf.math.multiply_89/Mul", "model_69/tf.concat_5/concat/axis"], "attr": {"N": {"i": "2"}, "Tidx": {"type": "DT_INT32"}, "T": {"type": "DT_FLOAT"}}}, {"name": "model_69/tf.nn.convolution_37/convolution", "op": "Conv2D", "input": ["model_69/tf.concat_5/concat", "model_69/tf.nn.convolution_37/convolution/filter"], "device": "/device:CPU:0", "attr": {"T": {"type": "DT_FLOAT"}, "use_cudnn_on_gpu": {"b": true}, "data_format": {"s": "TkhXQw=="}, "strides": {"list": {"i": ["1", "1", "1", "1"]}}, "dilations": {"list": {"i": ["1", "1", "1", "1"]}}, "explicit_paddings": {"list": {}}, "padding": {"s": "U0FNRQ=="}}}, {"name": "model_69/tf.math.add_49/Add", "op": "AddV2", "input": ["model_69/tf.nn.convolution_37/convolution", "model_69/tf.math.add_49/Add/y"], "attr": {"T": {"type": "DT_FLOAT"}}}, {"name": "model_69/tf.math.sigmoid_27/Sigmoid", "op": "Sigmoid", "input": ["model_69/tf.math.add_49/Add"], "attr": {"T": {"type": "DT_FLOAT"}}}, {"name": "model_69/tf.math.multiply_123/Mul", "op": "Mul", "input": ["model_69/tf.math.add_49/Add", "model_69/tf.math.sigmoid_27/Sigmoid"], "attr": {"T": {"type": "DT_FLOAT"}}}, {"name": "model_69/tf.strided_slice_8/StridedSlice", "op": "StridedSlice", "input": ["model_69/tf.math.multiply_123/Mul", "model_69/tf.strided_slice_8/ones_like/tensor", "model_69/tf.strided_slice_8/StridedSlice/end", "model_69/tf.strided_slice_8/ones_like"], "attr": {"T": {"type": "DT_FLOAT"}, "end_mask": {"i": "7"}, "shrink_axis_mask": {"i": "0"}, "new_axis_mask": {"i": "0"}, "ellipsis_mask": {"i": "0"}, "begin_mask": {"i": "15"}, "Index": {"type": "DT_INT64"}}}, {"name": "model_69/tf.strided_slice_9/StridedSlice", "op": "StridedSlice", "input": ["model_69/tf.math.multiply_123/Mul", "model_69/tf.strided_slice_9/ones_like/tensor", "model_69/tf.strided_slice_9/StridedSlice/end", "model_69/tf.strided_slice_9/ones_like"], "attr": {"begin_mask": {"i": "7"}, "shrink_axis_mask": {"i": "0"}, "end_mask": {"i": "7"}, "T": {"type": "DT_FLOAT"}, "new_axis_mask": {"i": "0"}, "Index": {"type": "DT_INT64"}, "ellipsis_mask": {"i": "0"}}}, {"name": "model_69/tf.nn.convolution_40/convolution", "op": "Conv2D", "input": ["model_69/tf.strided_slice_9/StridedSlice", "model_69/tf.nn.convolution_40/convolution/filter"], "device": "/device:CPU:0", "attr": {"dilations": {"list": {"i": ["1", "1", "1", "1"]}}, "use_cudnn_on_gpu": {"b": true}, "strides": {"list": {"i": ["1", "1", "1", "1"]}}, "T": {"type": "DT_FLOAT"}, "explicit_paddings": {"list": {}}, "padding": {"s": "U0FNRQ=="}, "data_format": {"s": "TkhXQw=="}}}, {"name": "model_69/tf.math.add_52/Add", "op": "AddV2", "input": ["model_69/tf.nn.convolution_40/convolution", "model_69/tf.math.add_52/Add/y"], "attr": {"T": {"type": "DT_FLOAT"}}}, {"name": "model_69/tf.math.sigmoid_28/Sigmoid", "op": "Sigmoid", "input": ["model_69/tf.math.add_52/Add"], "attr": {"T": {"type": "DT_FLOAT"}}}, {"name": "model_69/tf.math.multiply_127/Mul", "op": "Mul", "input": ["model_69/tf.math.add_52/Add", "model_69/tf.math.sigmoid_28/Sigmoid"], "attr": {"T": {"type": "DT_FLOAT"}}}, {"name": "model_69/tf.nn.convolution_43/convolution", "op": "Conv2D", "input": ["model_69/tf.math.multiply_127/Mul", "model_69/tf.nn.convolution_43/convolution/filter"], "device": "/device:CPU:0", "attr": {"data_format": {"s": "TkhXQw=="}, "T": {"type": "DT_FLOAT"}, "dilations": {"list": {"i": ["1", "1", "1", "1"]}}, "use_cudnn_on_gpu": {"b": true}, "strides": {"list": {"i": ["1", "1", "1", "1"]}}, "padding": {"s": "U0FNRQ=="}, "explicit_paddings": {"list": {}}}}, {"name": "model_69/tf.math.add_55/Add", "op": "AddV2", "input": ["model_69/tf.nn.convolution_43/convolution", "model_69/tf.math.add_55/Add/y"], "attr": {"T": {"type": "DT_FLOAT"}}}, {"name": "model_69/tf.math.sigmoid_29/Sigmoid", "op": "Sigmoid", "input": ["model_69/tf.math.add_55/Add"], "attr": {"T": {"type": "DT_FLOAT"}}}, {"name": "model_69/tf.math.multiply_131/Mul", "op": "Mul", "input": ["model_69/tf.math.add_55/Add", "model_69/tf.math.sigmoid_29/Sigmoid"], "attr": {"T": {"type": "DT_FLOAT"}}}, {"name": "model_69/tf.concat_6/concat", "op": "ConcatV2", "input": ["model_69/tf.strided_slice_8/StridedSlice", "model_69/tf.strided_slice_9/StridedSlice", "model_69/tf.math.multiply_131/Mul", "model_69/tf.concat_6/concat/axis"], "attr": {"T": {"type": "DT_FLOAT"}, "Tidx": {"type": "DT_INT32"}, "N": {"i": "3"}}}, {"name": "model_69/tf.nn.convolution_44/convolution", "op": "Conv2D", "input": ["model_69/tf.concat_6/concat", "model_69/tf.nn.convolution_44/convolution/filter"], "device": "/device:CPU:0", "attr": {"use_cudnn_on_gpu": {"b": true}, "padding": {"s": "U0FNRQ=="}, "data_format": {"s": "TkhXQw=="}, "strides": {"list": {"i": ["1", "1", "1", "1"]}}, "T": {"type": "DT_FLOAT"}, "dilations": {"list": {"i": ["1", "1", "1", "1"]}}, "explicit_paddings": {"list": {}}}}, {"name": "model_69/tf.math.add_56/Add", "op": "AddV2", "input": ["model_69/tf.nn.convolution_44/convolution", "model_69/tf.math.add_56/Add/y"], "attr": {"T": {"type": "DT_FLOAT"}}}, {"name": "model_69/tf.math.sigmoid_30/Sigmoid", "op": "Sigmoid", "input": ["model_69/tf.math.add_56/Add"], "attr": {"T": {"type": "DT_FLOAT"}}}, {"name": "model_69/tf.math.multiply_135/Mul", "op": "Mul", "input": ["model_69/tf.math.add_56/Add", "model_69/tf.math.sigmoid_30/Sigmoid"], "attr": {"T": {"type": "DT_FLOAT"}}}, {"name": "model_69/tf.image.resize_1/resize/ResizeNearestNeighbor", "op": "ResizeNearestNeighbor", "input": ["model_69/tf.math.multiply_135/Mul", "model_69/tf.image.resize_1/resize/size"], "attr": {"T": {"type": "DT_FLOAT"}, "align_corners": {"b": false}, "half_pixel_centers": {"b": true}}}, {"name": "model_69/tf.concat_9/concat", "op": "ConcatV2", "input": ["model_69/tf.image.resize_1/resize/ResizeNearestNeighbor", "model_69/tf.math.multiply_57/Mul", "model_69/tf.concat_9/concat/axis"], "attr": {"N": {"i": "2"}, "T": {"type": "DT_FLOAT"}, "Tidx": {"type": "DT_INT32"}}}, {"name": "model_69/tf.nn.convolution_45/convolution", "op": "Conv2D", "input": ["model_69/tf.concat_9/concat", "model_69/tf.nn.convolution_45/convolution/filter"], "device": "/device:CPU:0", "attr": {"T": {"type": "DT_FLOAT"}, "data_format": {"s": "TkhXQw=="}, "padding": {"s": "U0FNRQ=="}, "use_cudnn_on_gpu": {"b": true}, "strides": {"list": {"i": ["1", "1", "1", "1"]}}, "dilations": {"list": {"i": ["1", "1", "1", "1"]}}, "explicit_paddings": {"list": {}}}}, {"name": "model_69/tf.math.add_57/Add", "op": "AddV2", "input": ["model_69/tf.nn.convolution_45/convolution", "model_69/tf.math.add_57/Add/y"], "attr": {"T": {"type": "DT_FLOAT"}}}, {"name": "model_69/tf.math.sigmoid_31/Sigmoid", "op": "Sigmoid", "input": ["model_69/tf.math.add_57/Add"], "attr": {"T": {"type": "DT_FLOAT"}}}, {"name": "model_69/tf.math.multiply_139/Mul", "op": "Mul", "input": ["model_69/tf.math.add_57/Add", "model_69/tf.math.sigmoid_31/Sigmoid"], "attr": {"T": {"type": "DT_FLOAT"}}}, {"name": "model_69/tf.strided_slice_10/StridedSlice", "op": "StridedSlice", "input": ["model_69/tf.math.multiply_139/Mul", "model_69/tf.strided_slice_10/ones_like/tensor", "model_69/tf.strided_slice_10/StridedSlice/end", "model_69/tf.strided_slice_10/ones_like"], "attr": {"T": {"type": "DT_FLOAT"}, "end_mask": {"i": "7"}, "new_axis_mask": {"i": "0"}, "ellipsis_mask": {"i": "0"}, "shrink_axis_mask": {"i": "0"}, "Index": {"type": "DT_INT64"}, "begin_mask": {"i": "15"}}}, {"name": "model_69/tf.strided_slice_11/StridedSlice", "op": "StridedSlice", "input": ["model_69/tf.math.multiply_139/Mul", "model_69/tf.strided_slice_11/ones_like/tensor", "model_69/tf.strided_slice_11/StridedSlice/end", "model_69/tf.strided_slice_11/ones_like"], "attr": {"begin_mask": {"i": "7"}, "Index": {"type": "DT_INT64"}, "T": {"type": "DT_FLOAT"}, "shrink_axis_mask": {"i": "0"}, "ellipsis_mask": {"i": "0"}, "new_axis_mask": {"i": "0"}, "end_mask": {"i": "7"}}}, {"name": "model_69/tf.nn.convolution_46/convolution", "op": "Conv2D", "input": ["model_69/tf.strided_slice_11/StridedSlice", "model_69/tf.nn.convolution_46/convolution/filter"], "device": "/device:CPU:0", "attr": {"padding": {"s": "U0FNRQ=="}, "explicit_paddings": {"list": {}}, "strides": {"list": {"i": ["1", "1", "1", "1"]}}, "T": {"type": "DT_FLOAT"}, "data_format": {"s": "TkhXQw=="}, "dilations": {"list": {"i": ["1", "1", "1", "1"]}}, "use_cudnn_on_gpu": {"b": true}}}, {"name": "model_69/tf.math.add_58/Add", "op": "AddV2", "input": ["model_69/tf.nn.convolution_46/convolution", "model_69/tf.math.add_58/Add/y"], "attr": {"T": {"type": "DT_FLOAT"}}}, {"name": "model_69/tf.math.sigmoid_32/Sigmoid", "op": "Sigmoid", "input": ["model_69/tf.math.add_58/Add"], "attr": {"T": {"type": "DT_FLOAT"}}}, {"name": "model_69/tf.math.multiply_143/Mul", "op": "Mul", "input": ["model_69/tf.math.add_58/Add", "model_69/tf.math.sigmoid_32/Sigmoid"], "attr": {"T": {"type": "DT_FLOAT"}}}, {"name": "model_69/tf.nn.convolution_47/convolution", "op": "Conv2D", "input": ["model_69/tf.math.multiply_143/Mul", "model_69/tf.nn.convolution_47/convolution/filter"], "device": "/device:CPU:0", "attr": {"strides": {"list": {"i": ["1", "1", "1", "1"]}}, "T": {"type": "DT_FLOAT"}, "explicit_paddings": {"list": {}}, "padding": {"s": "U0FNRQ=="}, "data_format": {"s": "TkhXQw=="}, "use_cudnn_on_gpu": {"b": true}, "dilations": {"list": {"i": ["1", "1", "1", "1"]}}}}, {"name": "model_69/tf.math.add_59/Add", "op": "AddV2", "input": ["model_69/tf.nn.convolution_47/convolution", "model_69/tf.math.add_59/Add/y"], "attr": {"T": {"type": "DT_FLOAT"}}}, {"name": "model_69/tf.math.sigmoid_33/Sigmoid", "op": "Sigmoid", "input": ["model_69/tf.math.add_59/Add"], "attr": {"T": {"type": "DT_FLOAT"}}}, {"name": "model_69/tf.math.multiply_147/Mul", "op": "Mul", "input": ["model_69/tf.math.add_59/Add", "model_69/tf.math.sigmoid_33/Sigmoid"], "attr": {"T": {"type": "DT_FLOAT"}}}, {"name": "model_69/tf.concat_10/concat", "op": "ConcatV2", "input": ["model_69/tf.strided_slice_10/StridedSlice", "model_69/tf.strided_slice_11/StridedSlice", "model_69/tf.math.multiply_147/Mul", "model_69/tf.concat_10/concat/axis"], "attr": {"T": {"type": "DT_FLOAT"}, "N": {"i": "3"}, "Tidx": {"type": "DT_INT32"}}}, {"name": "model_69/tf.nn.convolution_48/convolution", "op": "Conv2D", "input": ["model_69/tf.concat_10/concat", "model_69/tf.nn.convolution_48/convolution/filter"], "device": "/device:CPU:0", "attr": {"explicit_paddings": {"list": {}}, "strides": {"list": {"i": ["1", "1", "1", "1"]}}, "data_format": {"s": "TkhXQw=="}, "padding": {"s": "U0FNRQ=="}, "dilations": {"list": {"i": ["1", "1", "1", "1"]}}, "use_cudnn_on_gpu": {"b": true}, "T": {"type": "DT_FLOAT"}}}, {"name": "model_69/tf.math.add_60/Add", "op": "AddV2", "input": ["model_69/tf.nn.convolution_48/convolution", "model_69/tf.math.add_60/Add/y"], "attr": {"T": {"type": "DT_FLOAT"}}}, {"name": "model_69/tf.math.sigmoid_34/Sigmoid", "op": "Sigmoid", "input": ["model_69/tf.math.add_60/Add"], "attr": {"T": {"type": "DT_FLOAT"}}}, {"name": "model_69/tf.math.multiply_151/Mul", "op": "Mul", "input": ["model_69/tf.math.add_60/Add", "model_69/tf.math.sigmoid_34/Sigmoid"], "attr": {"T": {"type": "DT_FLOAT"}}}, {"name": "model_69/tf.nn.convolution_51/convolution", "op": "Conv2D", "input": ["model_69/tf.math.multiply_151/Mul", "model_69/tf.nn.convolution_51/convolution/filter"], "device": "/device:CPU:0", "attr": {"explicit_paddings": {"list": {}}, "strides": {"list": {"i": ["1", "1", "1", "1"]}}, "T": {"type": "DT_FLOAT"}, "use_cudnn_on_gpu": {"b": true}, "data_format": {"s": "TkhXQw=="}, "dilations": {"list": {"i": ["1", "1", "1", "1"]}}, "padding": {"s": "U0FNRQ=="}}}, {"name": "model_69/tf.nn.convolution_52/convolution", "op": "Conv2D", "input": ["model_69/tf.math.multiply_151/Mul", "model_69/tf.nn.convolution_52/convolution/filter"], "device": "/device:CPU:0", "attr": {"explicit_paddings": {"list": {}}, "padding": {"s": "U0FNRQ=="}, "use_cudnn_on_gpu": {"b": true}, "data_format": {"s": "TkhXQw=="}, "T": {"type": "DT_FLOAT"}, "dilations": {"list": {"i": ["1", "1", "1", "1"]}}, "strides": {"list": {"i": ["1", "1", "1", "1"]}}}}, {"name": "model_69/tf.nn.convolution_50/convolution", "op": "Conv2D", "input": ["model_69/tf.math.multiply_151/Mul", "model_69/tf.nn.convolution_50/convolution/filter"], "device": "/device:CPU:0", "attr": {"T": {"type": "DT_FLOAT"}, "data_format": {"s": "TkhXQw=="}, "use_cudnn_on_gpu": {"b": true}, "dilations": {"list": {"i": ["1", "1", "1", "1"]}}, "padding": {"s": "U0FNRQ=="}, "strides": {"list": {"i": ["1", "1", "1", "1"]}}, "explicit_paddings": {"list": {}}}}, {"name": "model_69/tf.compat.v1.pad_5/Pad", "op": "Pad", "input": ["model_69/tf.math.multiply_151/Mul", "model_69/tf.compat.v1.pad_5/Pad/paddings"], "attr": {"Tpaddings": {"type": "DT_INT32"}, "T": {"type": "DT_FLOAT"}}}, {"name": "model_69/tf.math.add_63/Add", "op": "AddV2", "input": ["model_69/tf.nn.convolution_51/convolution", "model_69/tf.math.add_63/Add/y"], "attr": {"T": {"type": "DT_FLOAT"}}}, {"name": "model_69/tf.math.add_64/Add", "op": "AddV2", "input": ["model_69/tf.nn.convolution_52/convolution", "model_69/tf.math.add_64/Add/y"], "attr": {"T": {"type": "DT_FLOAT"}}}, {"name": "model_69/tf.math.add_62/Add", "op": "AddV2", "input": ["model_69/tf.nn.convolution_50/convolution", "model_69/tf.math.add_62/Add/y"], "attr": {"T": {"type": "DT_FLOAT"}}}, {"name": "model_69/tf.nn.convolution_49/convolution", "op": "Conv2D", "input": ["model_69/tf.compat.v1.pad_5/Pad", "model_69/tf.nn.convolution_49/convolution/filter"], "device": "/device:CPU:0", "attr": {"explicit_paddings": {"list": {}}, "padding": {"s": "VkFMSUQ="}, "data_format": {"s": "TkhXQw=="}, "dilations": {"list": {"i": ["1", "1", "1", "1"]}}, "use_cudnn_on_gpu": {"b": true}, "strides": {"list": {"i": ["1", "2", "2", "1"]}}, "T": {"type": "DT_FLOAT"}}}, {"name": "model_69/tf.math.sigmoid_37/Sigmoid", "op": "Sigmoid", "input": ["model_69/tf.math.add_63/Add"], "attr": {"T": {"type": "DT_FLOAT"}}}, {"name": "model_69/tf.math.sigmoid_38/Sigmoid", "op": "Sigmoid", "input": ["model_69/tf.math.add_64/Add"], "attr": {"T": {"type": "DT_FLOAT"}}}, {"name": "model_69/tf.math.sigmoid_36/Sigmoid", "op": "Sigmoid", "input": ["model_69/tf.math.add_62/Add"], "attr": {"T": {"type": "DT_FLOAT"}}}, {"name": "model_69/tf.math.add_61/Add", "op": "AddV2", "input": ["model_69/tf.nn.convolution_49/convolution", "model_69/tf.math.add_61/Add/y"], "attr": {"T": {"type": "DT_FLOAT"}}}, {"name": "model_69/tf.math.multiply_163/Mul", "op": "Mul", "input": ["model_69/tf.math.add_63/Add", "model_69/tf.math.sigmoid_37/Sigmoid"], "attr": {"T": {"type": "DT_FLOAT"}}}, {"name": "model_69/tf.math.multiply_167/Mul", "op": "Mul", "input": ["model_69/tf.math.add_64/Add", "model_69/tf.math.sigmoid_38/Sigmoid"], "attr": {"T": {"type": "DT_FLOAT"}}}, {"name": "model_69/tf.math.multiply_159/Mul", "op": "Mul", "input": ["model_69/tf.math.add_62/Add", "model_69/tf.math.sigmoid_36/Sigmoid"], "attr": {"T": {"type": "DT_FLOAT"}}}, {"name": "model_69/tf.math.sigmoid_35/Sigmoid", "op": "Sigmoid", "input": ["model_69/tf.math.add_61/Add"], "attr": {"T": {"type": "DT_FLOAT"}}}, {"name": "model_69/tf.nn.convolution_54/convolution", "op": "Conv2D", "input": ["model_69/tf.math.multiply_163/Mul", "model_69/tf.nn.convolution_54/convolution/filter"], "device": "/device:CPU:0", "attr": {"explicit_paddings": {"list": {}}, "strides": {"list": {"i": ["1", "1", "1", "1"]}}, "use_cudnn_on_gpu": {"b": true}, "data_format": {"s": "TkhXQw=="}, "padding": {"s": "U0FNRQ=="}, "dilations": {"list": {"i": ["1", "1", "1", "1"]}}, "T": {"type": "DT_FLOAT"}}}, {"name": "model_69/tf.nn.convolution_55/convolution", "op": "Conv2D", "input": ["model_69/tf.math.multiply_167/Mul", "model_69/tf.nn.convolution_55/convolution/filter"], "device": "/device:CPU:0", "attr": {"explicit_paddings": {"list": {}}, "strides": {"list": {"i": ["1", "1", "1", "1"]}}, "data_format": {"s": "TkhXQw=="}, "dilations": {"list": {"i": ["1", "1", "1", "1"]}}, "padding": {"s": "U0FNRQ=="}, "use_cudnn_on_gpu": {"b": true}, "T": {"type": "DT_FLOAT"}}}, {"name": "model_69/tf.nn.convolution_53/convolution", "op": "Conv2D", "input": ["model_69/tf.math.multiply_159/Mul", "model_69/tf.nn.convolution_53/convolution/filter"], "device": "/device:CPU:0", "attr": {"explicit_paddings": {"list": {}}, "padding": {"s": "U0FNRQ=="}, "data_format": {"s": "TkhXQw=="}, "dilations": {"list": {"i": ["1", "1", "1", "1"]}}, "use_cudnn_on_gpu": {"b": true}, "strides": {"list": {"i": ["1", "1", "1", "1"]}}, "T": {"type": "DT_FLOAT"}}}, {"name": "model_69/tf.math.multiply_155/Mul", "op": "Mul", "input": ["model_69/tf.math.add_61/Add", "model_69/tf.math.sigmoid_35/Sigmoid"], "attr": {"T": {"type": "DT_FLOAT"}}}, {"name": "model_69/tf.math.add_66/Add", "op": "AddV2", "input": ["model_69/tf.nn.convolution_54/convolution", "model_69/tf.math.add_66/Add/y"], "attr": {"T": {"type": "DT_FLOAT"}}}, {"name": "model_69/tf.math.add_67/Add", "op": "AddV2", "input": ["model_69/tf.nn.convolution_55/convolution", "model_69/tf.math.add_67/Add/y"], "attr": {"T": {"type": "DT_FLOAT"}}}, {"name": "model_69/tf.math.add_65/Add", "op": "AddV2", "input": ["model_69/tf.nn.convolution_53/convolution", "model_69/tf.math.add_65/Add/y"], "attr": {"T": {"type": "DT_FLOAT"}}}, {"name": "model_69/tf.concat_13/concat", "op": "ConcatV2", "input": ["model_69/tf.math.multiply_155/Mul", "model_69/tf.math.multiply_135/Mul", "model_69/tf.concat_13/concat/axis"], "attr": {"T": {"type": "DT_FLOAT"}, "N": {"i": "2"}, "Tidx": {"type": "DT_INT32"}}}, {"name": "model_69/tf.math.sigmoid_40/Sigmoid", "op": "Sigmoid", "input": ["model_69/tf.math.add_66/Add"], "attr": {"T": {"type": "DT_FLOAT"}}}, {"name": "model_69/tf.math.sigmoid_41/Sigmoid", "op": "Sigmoid", "input": ["model_69/tf.math.add_67/Add"], "attr": {"T": {"type": "DT_FLOAT"}}}, {"name": "model_69/tf.math.sigmoid_39/Sigmoid", "op": "Sigmoid", "input": ["model_69/tf.math.add_65/Add"], "attr": {"T": {"type": "DT_FLOAT"}}}, {"name": "model_69/tf.nn.convolution_56/convolution", "op": "Conv2D", "input": ["model_69/tf.concat_13/concat", "model_69/tf.nn.convolution_56/convolution/filter"], "device": "/device:CPU:0", "attr": {"use_cudnn_on_gpu": {"b": true}, "data_format": {"s": "TkhXQw=="}, "strides": {"list": {"i": ["1", "1", "1", "1"]}}, "dilations": {"list": {"i": ["1", "1", "1", "1"]}}, "padding": {"s": "U0FNRQ=="}, "explicit_paddings": {"list": {}}, "T": {"type": "DT_FLOAT"}}}, {"name": "model_69/tf.math.multiply_175/Mul", "op": "Mul", "input": ["model_69/tf.math.add_66/Add", "model_69/tf.math.sigmoid_40/Sigmoid"], "attr": {"T": {"type": "DT_FLOAT"}}}, {"name": "model_69/tf.math.multiply_179/Mul", "op": "Mul", "input": ["model_69/tf.math.add_67/Add", "model_69/tf.math.sigmoid_41/Sigmoid"], "attr": {"T": {"type": "DT_FLOAT"}}}, {"name": "model_69/tf.math.multiply_171/Mul", "op": "Mul", "input": ["model_69/tf.math.add_65/Add", "model_69/tf.math.sigmoid_39/Sigmoid"], "attr": {"T": {"type": "DT_FLOAT"}}}, {"name": "model_69/tf.math.add_68/Add", "op": "AddV2", "input": ["model_69/tf.nn.convolution_56/convolution", "model_69/tf.math.add_68/Add/y"], "attr": {"T": {"type": "DT_FLOAT"}}}, {"name": "model_69/tf.nn.convolution_58/convolution", "op": "Conv2D", "input": ["model_69/tf.math.multiply_175/Mul", "model_69/tf.nn.convolution_58/convolution/filter"], "device": "/device:CPU:0", "attr": {"padding": {"s": "U0FNRQ=="}, "T": {"type": "DT_FLOAT"}, "explicit_paddings": {"list": {}}, "strides": {"list": {"i": ["1", "1", "1", "1"]}}, "data_format": {"s": "TkhXQw=="}, "use_cudnn_on_gpu": {"b": true}, "dilations": {"list": {"i": ["1", "1", "1", "1"]}}}}, {"name": "model_69/tf.nn.convolution_59/convolution", "op": "Conv2D", "input": ["model_69/tf.math.multiply_179/Mul", "model_69/tf.nn.convolution_59/convolution/filter"], "device": "/device:CPU:0", "attr": {"data_format": {"s": "TkhXQw=="}, "dilations": {"list": {"i": ["1", "1", "1", "1"]}}, "T": {"type": "DT_FLOAT"}, "explicit_paddings": {"list": {}}, "strides": {"list": {"i": ["1", "1", "1", "1"]}}, "padding": {"s": "U0FNRQ=="}, "use_cudnn_on_gpu": {"b": true}}}, {"name": "model_69/tf.nn.convolution_57/convolution", "op": "Conv2D", "input": ["model_69/tf.math.multiply_171/Mul", "model_69/tf.nn.convolution_57/convolution/filter"], "device": "/device:CPU:0", "attr": {"explicit_paddings": {"list": {}}, "strides": {"list": {"i": ["1", "1", "1", "1"]}}, "padding": {"s": "U0FNRQ=="}, "use_cudnn_on_gpu": {"b": true}, "T": {"type": "DT_FLOAT"}, "data_format": {"s": "TkhXQw=="}, "dilations": {"list": {"i": ["1", "1", "1", "1"]}}}}, {"name": "model_69/tf.math.sigmoid_42/Sigmoid", "op": "Sigmoid", "input": ["model_69/tf.math.add_68/Add"], "attr": {"T": {"type": "DT_FLOAT"}}}, {"name": "model_69/tf.math.add_70/Add", "op": "AddV2", "input": ["model_69/tf.nn.convolution_58/convolution", "model_69/tf.math.add_70/Add/y"], "attr": {"T": {"type": "DT_FLOAT"}}}, {"name": "model_69/tf.math.add_71/Add", "op": "AddV2", "input": ["model_69/tf.nn.convolution_59/convolution", "model_69/tf.math.add_71/Add/y"], "attr": {"T": {"type": "DT_FLOAT"}}}, {"name": "model_69/tf.math.add_69/Add", "op": "AddV2", "input": ["model_69/tf.nn.convolution_57/convolution", "model_69/tf.math.add_69/Add/y"], "attr": {"T": {"type": "DT_FLOAT"}}}, {"name": "model_69/tf.math.multiply_183/Mul", "op": "Mul", "input": ["model_69/tf.math.add_68/Add", "model_69/tf.math.sigmoid_42/Sigmoid"], "attr": {"T": {"type": "DT_FLOAT"}}}, {"name": "model_69/tf.concat_14/concat", "op": "ConcatV2", "input": ["model_69/tf.math.add_70/Add", "model_69/tf.math.add_71/Add", "model_69/tf.concat_14/concat/axis"], "attr": {"Tidx": {"type": "DT_INT32"}, "T": {"type": "DT_FLOAT"}, "N": {"i": "2"}}}, {"name": "model_69/tf.compat.v1.transpose_27/transpose", "op": "Transpose", "input": ["model_69/tf.math.add_69/Add", "model_69/tf.compat.v1.transpose_27/transpose/perm"], "attr": {"T": {"type": "DT_FLOAT"}, "Tperm": {"type": "DT_INT32"}}}, {"name": "model_69/tf.strided_slice_12/StridedSlice", "op": "StridedSlice", "input": ["model_69/tf.math.multiply_183/Mul", "model_69/tf.strided_slice_12/ones_like/tensor", "model_69/tf.strided_slice_12/StridedSlice/end", "model_69/tf.strided_slice_12/ones_like"], "attr": {"new_axis_mask": {"i": "0"}, "begin_mask": {"i": "15"}, "end_mask": {"i": "7"}, "shrink_axis_mask": {"i": "0"}, "T": {"type": "DT_FLOAT"}, "ellipsis_mask": {"i": "0"}, "Index": {"type": "DT_INT64"}}}, {"name": "model_69/tf.strided_slice_13/StridedSlice", "op": "StridedSlice", "input": ["model_69/tf.math.multiply_183/Mul", "model_69/tf.strided_slice_13/ones_like/tensor", "model_69/tf.strided_slice_13/StridedSlice/end", "model_69/tf.strided_slice_13/ones_like"], "attr": {"end_mask": {"i": "7"}, "new_axis_mask": {"i": "0"}, "begin_mask": {"i": "7"}, "shrink_axis_mask": {"i": "0"}, "T": {"type": "DT_FLOAT"}, "ellipsis_mask": {"i": "0"}, "Index": {"type": "DT_INT64"}}}, {"name": "model_69/tf.compat.v1.transpose_32/transpose", "op": "Transpose", "input": ["model_69/tf.concat_14/concat", "model_69/tf.compat.v1.transpose_32/transpose/perm"], "attr": {"T": {"type": "DT_FLOAT"}, "Tperm": {"type": "DT_INT32"}}}, {"name": "model_69/tf.reshape_2/Reshape", "op": "Reshape", "input": ["model_69/tf.compat.v1.transpose_27/transpose", "model_69/tf.reshape_2/Reshape/shape"], "attr": {"Tshape": {"type": "DT_INT32"}, "T": {"type": "DT_FLOAT"}}}, {"name": "model_69/tf.nn.convolution_62/convolution", "op": "Conv2D", "input": ["model_69/tf.strided_slice_13/StridedSlice", "model_69/tf.nn.convolution_62/convolution/filter"], "device": "/device:CPU:0", "attr": {"padding": {"s": "U0FNRQ=="}, "explicit_paddings": {"list": {}}, "data_format": {"s": "TkhXQw=="}, "T": {"type": "DT_FLOAT"}, "dilations": {"list": {"i": ["1", "1", "1", "1"]}}, "use_cudnn_on_gpu": {"b": true}, "strides": {"list": {"i": ["1", "1", "1", "1"]}}}}, {"name": "model_69/tf.reshape_5/Reshape", "op": "Reshape", "input": ["model_69/tf.compat.v1.transpose_32/transpose", "model_69/tf.reshape_5/Reshape/shape"], "attr": {"Tshape": {"type": "DT_INT32"}, "T": {"type": "DT_FLOAT"}}}, {"name": "model_69/tf.math.add_74/Add", "op": "AddV2", "input": ["model_69/tf.nn.convolution_62/convolution", "model_69/tf.math.add_74/Add/y"], "attr": {"T": {"type": "DT_FLOAT"}}}, {"name": "model_69/tf.math.sigmoid_43/Sigmoid", "op": "Sigmoid", "input": ["model_69/tf.math.add_74/Add"], "attr": {"T": {"type": "DT_FLOAT"}}}, {"name": "model_69/tf.math.multiply_187/Mul", "op": "Mul", "input": ["model_69/tf.math.add_74/Add", "model_69/tf.math.sigmoid_43/Sigmoid"], "attr": {"T": {"type": "DT_FLOAT"}}}, {"name": "model_69/tf.nn.convolution_65/convolution", "op": "Conv2D", "input": ["model_69/tf.math.multiply_187/Mul", "model_69/tf.nn.convolution_65/convolution/filter"], "device": "/device:CPU:0", "attr": {"use_cudnn_on_gpu": {"b": true}, "explicit_paddings": {"list": {}}, "dilations": {"list": {"i": ["1", "1", "1", "1"]}}, "data_format": {"s": "TkhXQw=="}, "padding": {"s": "U0FNRQ=="}, "strides": {"list": {"i": ["1", "1", "1", "1"]}}, "T": {"type": "DT_FLOAT"}}}, {"name": "model_69/tf.math.add_77/Add", "op": "AddV2", "input": ["model_69/tf.nn.convolution_65/convolution", "model_69/tf.math.add_77/Add/y"], "attr": {"T": {"type": "DT_FLOAT"}}}, {"name": "model_69/tf.math.sigmoid_44/Sigmoid", "op": "Sigmoid", "input": ["model_69/tf.math.add_77/Add"], "attr": {"T": {"type": "DT_FLOAT"}}}, {"name": "model_69/tf.math.multiply_191/Mul", "op": "Mul", "input": ["model_69/tf.math.add_77/Add", "model_69/tf.math.sigmoid_44/Sigmoid"], "attr": {"T": {"type": "DT_FLOAT"}}}, {"name": "model_69/tf.concat_15/concat", "op": "ConcatV2", "input": ["model_69/tf.strided_slice_12/StridedSlice", "model_69/tf.strided_slice_13/StridedSlice", "model_69/tf.math.multiply_191/Mul", "model_69/tf.concat_15/concat/axis"], "attr": {"N": {"i": "3"}, "T": {"type": "DT_FLOAT"}, "Tidx": {"type": "DT_INT32"}}}, {"name": "model_69/tf.nn.convolution_66/convolution", "op": "Conv2D", "input": ["model_69/tf.concat_15/concat", "model_69/tf.nn.convolution_66/convolution/filter"], "device": "/device:CPU:0", "attr": {"data_format": {"s": "TkhXQw=="}, "explicit_paddings": {"list": {}}, "strides": {"list": {"i": ["1", "1", "1", "1"]}}, "dilations": {"list": {"i": ["1", "1", "1", "1"]}}, "padding": {"s": "U0FNRQ=="}, "T": {"type": "DT_FLOAT"}, "use_cudnn_on_gpu": {"b": true}}}, {"name": "model_69/tf.math.add_78/Add", "op": "AddV2", "input": ["model_69/tf.nn.convolution_66/convolution", "model_69/tf.math.add_78/Add/y"], "attr": {"T": {"type": "DT_FLOAT"}}}, {"name": "model_69/tf.math.sigmoid_45/Sigmoid", "op": "Sigmoid", "input": ["model_69/tf.math.add_78/Add"], "attr": {"T": {"type": "DT_FLOAT"}}}, {"name": "model_69/tf.math.multiply_195/Mul", "op": "Mul", "input": ["model_69/tf.math.add_78/Add", "model_69/tf.math.sigmoid_45/Sigmoid"], "attr": {"T": {"type": "DT_FLOAT"}}}, {"name": "model_69/tf.nn.convolution_69/convolution", "op": "Conv2D", "input": ["model_69/tf.math.multiply_195/Mul", "model_69/tf.nn.convolution_69/convolution/filter"], "device": "/device:CPU:0", "attr": {"padding": {"s": "U0FNRQ=="}, "explicit_paddings": {"list": {}}, "strides": {"list": {"i": ["1", "1", "1", "1"]}}, "data_format": {"s": "TkhXQw=="}, "dilations": {"list": {"i": ["1", "1", "1", "1"]}}, "use_cudnn_on_gpu": {"b": true}, "T": {"type": "DT_FLOAT"}}}, {"name": "model_69/tf.nn.convolution_70/convolution", "op": "Conv2D", "input": ["model_69/tf.math.multiply_195/Mul", "model_69/tf.nn.convolution_70/convolution/filter"], "device": "/device:CPU:0", "attr": {"strides": {"list": {"i": ["1", "1", "1", "1"]}}, "use_cudnn_on_gpu": {"b": true}, "padding": {"s": "U0FNRQ=="}, "data_format": {"s": "TkhXQw=="}, "explicit_paddings": {"list": {}}, "dilations": {"list": {"i": ["1", "1", "1", "1"]}}, "T": {"type": "DT_FLOAT"}}}, {"name": "model_69/tf.nn.convolution_68/convolution", "op": "Conv2D", "input": ["model_69/tf.math.multiply_195/Mul", "model_69/tf.nn.convolution_68/convolution/filter"], "device": "/device:CPU:0", "attr": {"dilations": {"list": {"i": ["1", "1", "1", "1"]}}, "padding": {"s": "U0FNRQ=="}, "use_cudnn_on_gpu": {"b": true}, "explicit_paddings": {"list": {}}, "strides": {"list": {"i": ["1", "1", "1", "1"]}}, "T": {"type": "DT_FLOAT"}, "data_format": {"s": "TkhXQw=="}}}, {"name": "model_69/tf.compat.v1.pad_6/Pad", "op": "Pad", "input": ["model_69/tf.math.multiply_195/Mul", "model_69/tf.compat.v1.pad_6/Pad/paddings"], "attr": {"T": {"type": "DT_FLOAT"}, "Tpaddings": {"type": "DT_INT32"}}}, {"name": "model_69/tf.math.add_81/Add", "op": "AddV2", "input": ["model_69/tf.nn.convolution_69/convolution", "model_69/tf.math.add_81/Add/y"], "attr": {"T": {"type": "DT_FLOAT"}}}, {"name": "model_69/tf.math.add_82/Add", "op": "AddV2", "input": ["model_69/tf.nn.convolution_70/convolution", "model_69/tf.math.add_82/Add/y"], "attr": {"T": {"type": "DT_FLOAT"}}}, {"name": "model_69/tf.math.add_80/Add", "op": "AddV2", "input": ["model_69/tf.nn.convolution_68/convolution", "model_69/tf.math.add_80/Add/y"], "attr": {"T": {"type": "DT_FLOAT"}}}, {"name": "model_69/tf.nn.convolution_67/convolution", "op": "Conv2D", "input": ["model_69/tf.compat.v1.pad_6/Pad", "model_69/tf.nn.convolution_67/convolution/filter"], "device": "/device:CPU:0", "attr": {"use_cudnn_on_gpu": {"b": true}, "explicit_paddings": {"list": {}}, "padding": {"s": "VkFMSUQ="}, "data_format": {"s": "TkhXQw=="}, "dilations": {"list": {"i": ["1", "1", "1", "1"]}}, "strides": {"list": {"i": ["1", "2", "2", "1"]}}, "T": {"type": "DT_FLOAT"}}}, {"name": "model_69/tf.math.sigmoid_48/Sigmoid", "op": "Sigmoid", "input": ["model_69/tf.math.add_81/Add"], "attr": {"T": {"type": "DT_FLOAT"}}}, {"name": "model_69/tf.math.sigmoid_49/Sigmoid", "op": "Sigmoid", "input": ["model_69/tf.math.add_82/Add"], "attr": {"T": {"type": "DT_FLOAT"}}}, {"name": "model_69/tf.math.sigmoid_47/Sigmoid", "op": "Sigmoid", "input": ["model_69/tf.math.add_80/Add"], "attr": {"T": {"type": "DT_FLOAT"}}}, {"name": "model_69/tf.math.add_79/Add", "op": "AddV2", "input": ["model_69/tf.nn.convolution_67/convolution", "model_69/tf.math.add_79/Add/y"], "attr": {"T": {"type": "DT_FLOAT"}}}, {"name": "model_69/tf.math.multiply_207/Mul", "op": "Mul", "input": ["model_69/tf.math.add_81/Add", "model_69/tf.math.sigmoid_48/Sigmoid"], "attr": {"T": {"type": "DT_FLOAT"}}}, {"name": "model_69/tf.math.multiply_211/Mul", "op": "Mul", "input": ["model_69/tf.math.add_82/Add", "model_69/tf.math.sigmoid_49/Sigmoid"], "attr": {"T": {"type": "DT_FLOAT"}}}, {"name": "model_69/tf.math.multiply_203/Mul", "op": "Mul", "input": ["model_69/tf.math.add_80/Add", "model_69/tf.math.sigmoid_47/Sigmoid"], "attr": {"T": {"type": "DT_FLOAT"}}}, {"name": "model_69/tf.math.sigmoid_46/Sigmoid", "op": "Sigmoid", "input": ["model_69/tf.math.add_79/Add"], "attr": {"T": {"type": "DT_FLOAT"}}}, {"name": "model_69/tf.nn.convolution_74/convolution", "op": "Conv2D", "input": ["model_69/tf.math.multiply_207/Mul", "model_69/tf.nn.convolution_74/convolution/filter"], "device": "/device:CPU:0", "attr": {"explicit_paddings": {"list": {}}, "strides": {"list": {"i": ["1", "1", "1", "1"]}}, "T": {"type": "DT_FLOAT"}, "data_format": {"s": "TkhXQw=="}, "dilations": {"list": {"i": ["1", "1", "1", "1"]}}, "padding": {"s": "U0FNRQ=="}, "use_cudnn_on_gpu": {"b": true}}}, {"name": "model_69/tf.nn.convolution_77/convolution", "op": "Conv2D", "input": ["model_69/tf.math.multiply_211/Mul", "model_69/tf.nn.convolution_77/convolution/filter"], "device": "/device:CPU:0", "attr": {"strides": {"list": {"i": ["1", "1", "1", "1"]}}, "use_cudnn_on_gpu": {"b": true}, "explicit_paddings": {"list": {}}, "data_format": {"s": "TkhXQw=="}, "dilations": {"list": {"i": ["1", "1", "1", "1"]}}, "padding": {"s": "U0FNRQ=="}, "T": {"type": "DT_FLOAT"}}}, {"name": "model_69/tf.nn.convolution_71/convolution", "op": "Conv2D", "input": ["model_69/tf.math.multiply_203/Mul", "model_69/tf.nn.convolution_71/convolution/filter"], "device": "/device:CPU:0", "attr": {"dilations": {"list": {"i": ["1", "1", "1", "1"]}}, "data_format": {"s": "TkhXQw=="}, "use_cudnn_on_gpu": {"b": true}, "T": {"type": "DT_FLOAT"}, "strides": {"list": {"i": ["1", "1", "1", "1"]}}, "explicit_paddings": {"list": {}}, "padding": {"s": "U0FNRQ=="}}}, {"name": "model_69/tf.math.multiply_199/Mul", "op": "Mul", "input": ["model_69/tf.math.add_79/Add", "model_69/tf.math.sigmoid_46/Sigmoid"], "attr": {"T": {"type": "DT_FLOAT"}}}, {"name": "model_69/tf.math.add_86/Add", "op": "AddV2", "input": ["model_69/tf.nn.convolution_74/convolution", "model_69/tf.math.add_86/Add/y"], "attr": {"T": {"type": "DT_FLOAT"}}}, {"name": "model_69/tf.math.add_89/Add", "op": "AddV2", "input": ["model_69/tf.nn.convolution_77/convolution", "model_69/tf.math.add_89/Add/y"], "attr": {"T": {"type": "DT_FLOAT"}}}, {"name": "model_69/tf.math.add_83/Add", "op": "AddV2", "input": ["model_69/tf.nn.convolution_71/convolution", "model_69/tf.math.add_83/Add/y"], "attr": {"T": {"type": "DT_FLOAT"}}}, {"name": "model_69/tf.concat_16/concat", "op": "ConcatV2", "input": ["model_69/tf.math.multiply_199/Mul", "model_69/tf.math.multiply_119/Mul", "model_69/tf.concat_16/concat/axis"], "attr": {"N": {"i": "2"}, "Tidx": {"type": "DT_INT32"}, "T": {"type": "DT_FLOAT"}}}, {"name": "model_69/tf.math.sigmoid_51/Sigmoid", "op": "Sigmoid", "input": ["model_69/tf.math.add_86/Add"], "attr": {"T": {"type": "DT_FLOAT"}}}, {"name": "model_69/tf.math.sigmoid_52/Sigmoid", "op": "Sigmoid", "input": ["model_69/tf.math.add_89/Add"], "attr": {"T": {"type": "DT_FLOAT"}}}, {"name": "model_69/tf.math.sigmoid_50/Sigmoid", "op": "Sigmoid", "input": ["model_69/tf.math.add_83/Add"], "attr": {"T": {"type": "DT_FLOAT"}}}, {"name": "model_69/tf.nn.convolution_78/convolution", "op": "Conv2D", "input": ["model_69/tf.concat_16/concat", "model_69/tf.nn.convolution_78/convolution/filter"], "device": "/device:CPU:0", "attr": {"strides": {"list": {"i": ["1", "1", "1", "1"]}}, "use_cudnn_on_gpu": {"b": true}, "T": {"type": "DT_FLOAT"}, "explicit_paddings": {"list": {}}, "data_format": {"s": "TkhXQw=="}, "dilations": {"list": {"i": ["1", "1", "1", "1"]}}, "padding": {"s": "U0FNRQ=="}}}, {"name": "model_69/tf.math.multiply_219/Mul", "op": "Mul", "input": ["model_69/tf.math.add_86/Add", "model_69/tf.math.sigmoid_51/Sigmoid"], "attr": {"T": {"type": "DT_FLOAT"}}}, {"name": "model_69/tf.math.multiply_223/Mul", "op": "Mul", "input": ["model_69/tf.math.add_89/Add", "model_69/tf.math.sigmoid_52/Sigmoid"], "attr": {"T": {"type": "DT_FLOAT"}}}, {"name": "model_69/tf.math.multiply_215/Mul", "op": "Mul", "input": ["model_69/tf.math.add_83/Add", "model_69/tf.math.sigmoid_50/Sigmoid"], "attr": {"T": {"type": "DT_FLOAT"}}}, {"name": "model_69/tf.math.add_90/Add", "op": "AddV2", "input": ["model_69/tf.nn.convolution_78/convolution", "model_69/tf.math.add_90/Add/y"], "attr": {"T": {"type": "DT_FLOAT"}}}, {"name": "model_69/tf.nn.convolution_82/convolution", "op": "Conv2D", "input": ["model_69/tf.math.multiply_219/Mul", "model_69/tf.nn.convolution_82/convolution/filter"], "device": "/device:CPU:0", "attr": {"data_format": {"s": "TkhXQw=="}, "explicit_paddings": {"list": {}}, "T": {"type": "DT_FLOAT"}, "dilations": {"list": {"i": ["1", "1", "1", "1"]}}, "use_cudnn_on_gpu": {"b": true}, "padding": {"s": "U0FNRQ=="}, "strides": {"list": {"i": ["1", "1", "1", "1"]}}}}, {"name": "model_69/tf.nn.convolution_85/convolution", "op": "Conv2D", "input": ["model_69/tf.math.multiply_223/Mul", "model_69/tf.nn.convolution_85/convolution/filter"], "device": "/device:CPU:0", "attr": {"strides": {"list": {"i": ["1", "1", "1", "1"]}}, "explicit_paddings": {"list": {}}, "data_format": {"s": "TkhXQw=="}, "dilations": {"list": {"i": ["1", "1", "1", "1"]}}, "padding": {"s": "U0FNRQ=="}, "use_cudnn_on_gpu": {"b": true}, "T": {"type": "DT_FLOAT"}}}, {"name": "model_69/tf.nn.convolution_79/convolution", "op": "Conv2D", "input": ["model_69/tf.math.multiply_215/Mul", "model_69/tf.nn.convolution_79/convolution/filter"], "device": "/device:CPU:0", "attr": {"padding": {"s": "U0FNRQ=="}, "use_cudnn_on_gpu": {"b": true}, "T": {"type": "DT_FLOAT"}, "strides": {"list": {"i": ["1", "1", "1", "1"]}}, "data_format": {"s": "TkhXQw=="}, "explicit_paddings": {"list": {}}, "dilations": {"list": {"i": ["1", "1", "1", "1"]}}}}, {"name": "model_69/tf.math.sigmoid_53/Sigmoid", "op": "Sigmoid", "input": ["model_69/tf.math.add_90/Add"], "attr": {"T": {"type": "DT_FLOAT"}}}, {"name": "model_69/tf.math.add_94/Add", "op": "AddV2", "input": ["model_69/tf.nn.convolution_82/convolution", "model_69/tf.math.add_94/Add/y"], "attr": {"T": {"type": "DT_FLOAT"}}}, {"name": "model_69/tf.math.add_97/Add", "op": "AddV2", "input": ["model_69/tf.nn.convolution_85/convolution", "model_69/tf.math.add_97/Add/y"], "attr": {"T": {"type": "DT_FLOAT"}}}, {"name": "model_69/tf.math.add_91/Add", "op": "AddV2", "input": ["model_69/tf.nn.convolution_79/convolution", "model_69/tf.math.add_91/Add/y"], "attr": {"T": {"type": "DT_FLOAT"}}}, {"name": "model_69/tf.math.multiply_227/Mul", "op": "Mul", "input": ["model_69/tf.math.add_90/Add", "model_69/tf.math.sigmoid_53/Sigmoid"], "attr": {"T": {"type": "DT_FLOAT"}}}, {"name": "model_69/tf.concat_19/concat", "op": "ConcatV2", "input": ["model_69/tf.math.add_94/Add", "model_69/tf.math.add_97/Add", "model_69/tf.concat_19/concat/axis"], "attr": {"T": {"type": "DT_FLOAT"}, "Tidx": {"type": "DT_INT32"}, "N": {"i": "2"}}}, {"name": "model_69/tf.compat.v1.transpose_55/transpose", "op": "Transpose", "input": ["model_69/tf.math.add_91/Add", "model_69/tf.compat.v1.transpose_55/transpose/perm"], "attr": {"Tperm": {"type": "DT_INT32"}, "T": {"type": "DT_FLOAT"}}}, {"name": "model_69/tf.strided_slice_14/StridedSlice", "op": "StridedSlice", "input": ["model_69/tf.math.multiply_227/Mul", "model_69/tf.strided_slice_14/ones_like/tensor", "model_69/tf.strided_slice_14/StridedSlice/end", "model_69/tf.strided_slice_14/ones_like"], "attr": {"begin_mask": {"i": "15"}, "Index": {"type": "DT_INT64"}, "T": {"type": "DT_FLOAT"}, "ellipsis_mask": {"i": "0"}, "new_axis_mask": {"i": "0"}, "end_mask": {"i": "7"}, "shrink_axis_mask": {"i": "0"}}}, {"name": "model_69/tf.strided_slice_15/StridedSlice", "op": "StridedSlice", "input": ["model_69/tf.math.multiply_227/Mul", "model_69/tf.strided_slice_15/ones_like/tensor", "model_69/tf.strided_slice_15/StridedSlice/end", "model_69/tf.strided_slice_15/ones_like"], "attr": {"T": {"type": "DT_FLOAT"}, "begin_mask": {"i": "7"}, "end_mask": {"i": "7"}, "Index": {"type": "DT_INT64"}, "ellipsis_mask": {"i": "0"}, "shrink_axis_mask": {"i": "0"}, "new_axis_mask": {"i": "0"}}}, {"name": "model_69/tf.compat.v1.transpose_60/transpose", "op": "Transpose", "input": ["model_69/tf.concat_19/concat", "model_69/tf.compat.v1.transpose_60/transpose/perm"], "attr": {"Tperm": {"type": "DT_INT32"}, "T": {"type": "DT_FLOAT"}}}, {"name": "model_69/tf.reshape_8/Reshape", "op": "Reshape", "input": ["model_69/tf.compat.v1.transpose_55/transpose", "model_69/tf.reshape_8/Reshape/shape"], "attr": {"Tshape": {"type": "DT_INT32"}, "T": {"type": "DT_FLOAT"}}}, {"name": "model_69/tf.nn.convolution_86/convolution", "op": "Conv2D", "input": ["model_69/tf.strided_slice_15/StridedSlice", "model_69/tf.nn.convolution_86/convolution/filter"], "device": "/device:CPU:0", "attr": {"data_format": {"s": "TkhXQw=="}, "explicit_paddings": {"list": {}}, "dilations": {"list": {"i": ["1", "1", "1", "1"]}}, "padding": {"s": "U0FNRQ=="}, "strides": {"list": {"i": ["1", "1", "1", "1"]}}, "use_cudnn_on_gpu": {"b": true}, "T": {"type": "DT_FLOAT"}}}, {"name": "model_69/tf.reshape_11/Reshape", "op": "Reshape", "input": ["model_69/tf.compat.v1.transpose_60/transpose", "model_69/tf.reshape_11/Reshape/shape"], "attr": {"Tshape": {"type": "DT_INT32"}, "T": {"type": "DT_FLOAT"}}}, {"name": "model_69/tf.math.add_98/Add", "op": "AddV2", "input": ["model_69/tf.nn.convolution_86/convolution", "model_69/tf.math.add_98/Add/y"], "attr": {"T": {"type": "DT_FLOAT"}}}, {"name": "model_69/tf.math.sigmoid_54/Sigmoid", "op": "Sigmoid", "input": ["model_69/tf.math.add_98/Add"], "attr": {"T": {"type": "DT_FLOAT"}}}, {"name": "model_69/tf.math.multiply_231/Mul", "op": "Mul", "input": ["model_69/tf.math.add_98/Add", "model_69/tf.math.sigmoid_54/Sigmoid"], "attr": {"T": {"type": "DT_FLOAT"}}}, {"name": "model_69/tf.nn.convolution_87/convolution", "op": "Conv2D", "input": ["model_69/tf.math.multiply_231/Mul", "model_69/tf.nn.convolution_87/convolution/filter"], "device": "/device:CPU:0", "attr": {"data_format": {"s": "TkhXQw=="}, "explicit_paddings": {"list": {}}, "dilations": {"list": {"i": ["1", "1", "1", "1"]}}, "T": {"type": "DT_FLOAT"}, "use_cudnn_on_gpu": {"b": true}, "padding": {"s": "U0FNRQ=="}, "strides": {"list": {"i": ["1", "1", "1", "1"]}}}}, {"name": "model_69/tf.math.add_99/Add", "op": "AddV2", "input": ["model_69/tf.nn.convolution_87/convolution", "model_69/tf.math.add_99/Add/y"], "attr": {"T": {"type": "DT_FLOAT"}}}, {"name": "model_69/tf.math.sigmoid_55/Sigmoid", "op": "Sigmoid", "input": ["model_69/tf.math.add_99/Add"], "attr": {"T": {"type": "DT_FLOAT"}}}, {"name": "model_69/tf.math.multiply_235/Mul", "op": "Mul", "input": ["model_69/tf.math.add_99/Add", "model_69/tf.math.sigmoid_55/Sigmoid"], "attr": {"T": {"type": "DT_FLOAT"}}}, {"name": "model_69/tf.concat_20/concat", "op": "ConcatV2", "input": ["model_69/tf.strided_slice_14/StridedSlice", "model_69/tf.strided_slice_15/StridedSlice", "model_69/tf.math.multiply_235/Mul", "model_69/tf.concat_20/concat/axis"], "attr": {"Tidx": {"type": "DT_INT32"}, "N": {"i": "3"}, "T": {"type": "DT_FLOAT"}}}, {"name": "model_69/tf.nn.convolution_88/convolution", "op": "Conv2D", "input": ["model_69/tf.concat_20/concat", "model_69/tf.nn.convolution_88/convolution/filter"], "device": "/device:CPU:0", "attr": {"use_cudnn_on_gpu": {"b": true}, "padding": {"s": "U0FNRQ=="}, "data_format": {"s": "TkhXQw=="}, "dilations": {"list": {"i": ["1", "1", "1", "1"]}}, "explicit_paddings": {"list": {}}, "T": {"type": "DT_FLOAT"}, "strides": {"list": {"i": ["1", "1", "1", "1"]}}}}, {"name": "model_69/tf.math.add_100/Add", "op": "AddV2", "input": ["model_69/tf.nn.convolution_88/convolution", "model_69/tf.math.add_100/Add/y"], "attr": {"T": {"type": "DT_FLOAT"}}}, {"name": "model_69/tf.math.sigmoid_56/Sigmoid", "op": "Sigmoid", "input": ["model_69/tf.math.add_100/Add"], "attr": {"T": {"type": "DT_FLOAT"}}}, {"name": "model_69/tf.math.multiply_239/Mul", "op": "Mul", "input": ["model_69/tf.math.add_100/Add", "model_69/tf.math.sigmoid_56/Sigmoid"], "attr": {"T": {"type": "DT_FLOAT"}}}, {"name": "model_69/tf.nn.convolution_90/convolution", "op": "Conv2D", "input": ["model_69/tf.math.multiply_239/Mul", "model_69/tf.nn.convolution_90/convolution/filter"], "device": "/device:CPU:0", "attr": {"strides": {"list": {"i": ["1", "1", "1", "1"]}}, "T": {"type": "DT_FLOAT"}, "use_cudnn_on_gpu": {"b": true}, "data_format": {"s": "TkhXQw=="}, "padding": {"s": "U0FNRQ=="}, "dilations": {"list": {"i": ["1", "1", "1", "1"]}}, "explicit_paddings": {"list": {}}}}, {"name": "model_69/tf.nn.convolution_91/convolution", "op": "Conv2D", "input": ["model_69/tf.math.multiply_239/Mul", "model_69/tf.nn.convolution_91/convolution/filter"], "device": "/device:CPU:0", "attr": {"use_cudnn_on_gpu": {"b": true}, "padding": {"s": "U0FNRQ=="}, "explicit_paddings": {"list": {}}, "data_format": {"s": "TkhXQw=="}, "strides": {"list": {"i": ["1", "1", "1", "1"]}}, "dilations": {"list": {"i": ["1", "1", "1", "1"]}}, "T": {"type": "DT_FLOAT"}}}, {"name": "model_69/tf.nn.convolution_89/convolution", "op": "Conv2D", "input": ["model_69/tf.math.multiply_239/Mul", "model_69/tf.nn.convolution_89/convolution/filter"], "device": "/device:CPU:0", "attr": {"dilations": {"list": {"i": ["1", "1", "1", "1"]}}, "explicit_paddings": {"list": {}}, "T": {"type": "DT_FLOAT"}, "strides": {"list": {"i": ["1", "1", "1", "1"]}}, "use_cudnn_on_gpu": {"b": true}, "padding": {"s": "U0FNRQ=="}, "data_format": {"s": "TkhXQw=="}}}, {"name": "model_69/tf.math.add_102/Add", "op": "AddV2", "input": ["model_69/tf.nn.convolution_90/convolution", "model_69/tf.math.add_102/Add/y"], "attr": {"T": {"type": "DT_FLOAT"}}}, {"name": "model_69/tf.math.add_103/Add", "op": "AddV2", "input": ["model_69/tf.nn.convolution_91/convolution", "model_69/tf.math.add_103/Add/y"], "attr": {"T": {"type": "DT_FLOAT"}}}, {"name": "model_69/tf.math.add_101/Add", "op": "AddV2", "input": ["model_69/tf.nn.convolution_89/convolution", "model_69/tf.math.add_101/Add/y"], "attr": {"T": {"type": "DT_FLOAT"}}}, {"name": "model_69/tf.math.sigmoid_58/Sigmoid", "op": "Sigmoid", "input": ["model_69/tf.math.add_102/Add"], "attr": {"T": {"type": "DT_FLOAT"}}}, {"name": "model_69/tf.math.sigmoid_59/Sigmoid", "op": "Sigmoid", "input": ["model_69/tf.math.add_103/Add"], "attr": {"T": {"type": "DT_FLOAT"}}}, {"name": "model_69/tf.math.sigmoid_57/Sigmoid", "op": "Sigmoid", "input": ["model_69/tf.math.add_101/Add"], "attr": {"T": {"type": "DT_FLOAT"}}}, {"name": "model_69/tf.math.multiply_247/Mul", "op": "Mul", "input": ["model_69/tf.math.add_102/Add", "model_69/tf.math.sigmoid_58/Sigmoid"], "attr": {"T": {"type": "DT_FLOAT"}}}, {"name": "model_69/tf.math.multiply_251/Mul", "op": "Mul", "input": ["model_69/tf.math.add_103/Add", "model_69/tf.math.sigmoid_59/Sigmoid"], "attr": {"T": {"type": "DT_FLOAT"}}}, {"name": "model_69/tf.math.multiply_243/Mul", "op": "Mul", "input": ["model_69/tf.math.add_101/Add", "model_69/tf.math.sigmoid_57/Sigmoid"], "attr": {"T": {"type": "DT_FLOAT"}}}, {"name": "model_69/tf.nn.convolution_93/convolution", "op": "Conv2D", "input": ["model_69/tf.math.multiply_247/Mul", "model_69/tf.nn.convolution_93/convolution/filter"], "device": "/device:CPU:0", "attr": {"use_cudnn_on_gpu": {"b": true}, "padding": {"s": "U0FNRQ=="}, "data_format": {"s": "TkhXQw=="}, "explicit_paddings": {"list": {}}, "dilations": {"list": {"i": ["1", "1", "1", "1"]}}, "T": {"type": "DT_FLOAT"}, "strides": {"list": {"i": ["1", "1", "1", "1"]}}}}, {"name": "model_69/tf.nn.convolution_94/convolution", "op": "Conv2D", "input": ["model_69/tf.math.multiply_251/Mul", "model_69/tf.nn.convolution_94/convolution/filter"], "device": "/device:CPU:0", "attr": {"use_cudnn_on_gpu": {"b": true}, "padding": {"s": "U0FNRQ=="}, "explicit_paddings": {"list": {}}, "data_format": {"s": "TkhXQw=="}, "strides": {"list": {"i": ["1", "1", "1", "1"]}}, "dilations": {"list": {"i": ["1", "1", "1", "1"]}}, "T": {"type": "DT_FLOAT"}}}, {"name": "model_69/tf.nn.convolution_92/convolution", "op": "Conv2D", "input": ["model_69/tf.math.multiply_243/Mul", "model_69/tf.nn.convolution_92/convolution/filter"], "device": "/device:CPU:0", "attr": {"T": {"type": "DT_FLOAT"}, "explicit_paddings": {"list": {}}, "data_format": {"s": "TkhXQw=="}, "strides": {"list": {"i": ["1", "1", "1", "1"]}}, "dilations": {"list": {"i": ["1", "1", "1", "1"]}}, "padding": {"s": "U0FNRQ=="}, "use_cudnn_on_gpu": {"b": true}}}, {"name": "model_69/tf.math.add_105/Add", "op": "AddV2", "input": ["model_69/tf.nn.convolution_93/convolution", "model_69/tf.math.add_105/Add/y"], "attr": {"T": {"type": "DT_FLOAT"}}}, {"name": "model_69/tf.math.add_106/Add", "op": "AddV2", "input": ["model_69/tf.nn.convolution_94/convolution", "model_69/tf.math.add_106/Add/y"], "attr": {"T": {"type": "DT_FLOAT"}}}, {"name": "model_69/tf.math.add_104/Add", "op": "AddV2", "input": ["model_69/tf.nn.convolution_92/convolution", "model_69/tf.math.add_104/Add/y"], "attr": {"T": {"type": "DT_FLOAT"}}}, {"name": "model_69/tf.math.sigmoid_61/Sigmoid", "op": "Sigmoid", "input": ["model_69/tf.math.add_105/Add"], "attr": {"T": {"type": "DT_FLOAT"}}}, {"name": "model_69/tf.math.sigmoid_62/Sigmoid", "op": "Sigmoid", "input": ["model_69/tf.math.add_106/Add"], "attr": {"T": {"type": "DT_FLOAT"}}}, {"name": "model_69/tf.math.sigmoid_60/Sigmoid", "op": "Sigmoid", "input": ["model_69/tf.math.add_104/Add"], "attr": {"T": {"type": "DT_FLOAT"}}}, {"name": "model_69/tf.math.multiply_259/Mul", "op": "Mul", "input": ["model_69/tf.math.add_105/Add", "model_69/tf.math.sigmoid_61/Sigmoid"], "attr": {"T": {"type": "DT_FLOAT"}}}, {"name": "model_69/tf.math.multiply_263/Mul", "op": "Mul", "input": ["model_69/tf.math.add_106/Add", "model_69/tf.math.sigmoid_62/Sigmoid"], "attr": {"T": {"type": "DT_FLOAT"}}}, {"name": "model_69/tf.math.multiply_255/Mul", "op": "Mul", "input": ["model_69/tf.math.add_104/Add", "model_69/tf.math.sigmoid_60/Sigmoid"], "attr": {"T": {"type": "DT_FLOAT"}}}, {"name": "model_69/tf.nn.convolution_96/convolution", "op": "Conv2D", "input": ["model_69/tf.math.multiply_259/Mul", "model_69/tf.nn.convolution_96/convolution/filter"], "device": "/device:CPU:0", "attr": {"strides": {"list": {"i": ["1", "1", "1", "1"]}}, "data_format": {"s": "TkhXQw=="}, "explicit_paddings": {"list": {}}, "dilations": {"list": {"i": ["1", "1", "1", "1"]}}, "use_cudnn_on_gpu": {"b": true}, "T": {"type": "DT_FLOAT"}, "padding": {"s": "U0FNRQ=="}}}, {"name": "model_69/tf.nn.convolution_97/convolution", "op": "Conv2D", "input": ["model_69/tf.math.multiply_263/Mul", "model_69/tf.nn.convolution_97/convolution/filter"], "device": "/device:CPU:0", "attr": {"data_format": {"s": "TkhXQw=="}, "padding": {"s": "U0FNRQ=="}, "explicit_paddings": {"list": {}}, "dilations": {"list": {"i": ["1", "1", "1", "1"]}}, "strides": {"list": {"i": ["1", "1", "1", "1"]}}, "T": {"type": "DT_FLOAT"}, "use_cudnn_on_gpu": {"b": true}}}, {"name": "model_69/tf.nn.convolution_95/convolution", "op": "Conv2D", "input": ["model_69/tf.math.multiply_255/Mul", "model_69/tf.nn.convolution_95/convolution/filter"], "device": "/device:CPU:0", "attr": {"dilations": {"list": {"i": ["1", "1", "1", "1"]}}, "explicit_paddings": {"list": {}}, "T": {"type": "DT_FLOAT"}, "padding": {"s": "U0FNRQ=="}, "strides": {"list": {"i": ["1", "1", "1", "1"]}}, "use_cudnn_on_gpu": {"b": true}, "data_format": {"s": "TkhXQw=="}}}, {"name": "model_69/tf.math.add_108/Add", "op": "AddV2", "input": ["model_69/tf.nn.convolution_96/convolution", "model_69/tf.math.add_108/Add/y"], "attr": {"T": {"type": "DT_FLOAT"}}}, {"name": "model_69/tf.math.add_109/Add", "op": "AddV2", "input": ["model_69/tf.nn.convolution_97/convolution", "model_69/tf.math.add_109/Add/y"], "attr": {"T": {"type": "DT_FLOAT"}}}, {"name": "model_69/tf.math.add_107/Add", "op": "AddV2", "input": ["model_69/tf.nn.convolution_95/convolution", "model_69/tf.math.add_107/Add/y"], "attr": {"T": {"type": "DT_FLOAT"}}}, {"name": "model_69/tf.concat_21/concat", "op": "ConcatV2", "input": ["model_69/tf.math.add_108/Add", "model_69/tf.math.add_109/Add", "model_69/tf.concat_21/concat/axis"], "attr": {"T": {"type": "DT_FLOAT"}, "N": {"i": "2"}, "Tidx": {"type": "DT_INT32"}}}, {"name": "model_69/tf.compat.v1.transpose_65/transpose", "op": "Transpose", "input": ["model_69/tf.math.add_107/Add", "model_69/tf.compat.v1.transpose_65/transpose/perm"], "attr": {"Tperm": {"type": "DT_INT32"}, "T": {"type": "DT_FLOAT"}}}, {"name": "model_69/tf.compat.v1.transpose_70/transpose", "op": "Transpose", "input": ["model_69/tf.concat_21/concat", "model_69/tf.compat.v1.transpose_70/transpose/perm"], "attr": {"T": {"type": "DT_FLOAT"}, "Tperm": {"type": "DT_INT32"}}}, {"name": "model_69/tf.reshape_14/Reshape", "op": "Reshape", "input": ["model_69/tf.compat.v1.transpose_65/transpose", "model_69/tf.reshape_14/Reshape/shape"], "attr": {"T": {"type": "DT_FLOAT"}, "Tshape": {"type": "DT_INT32"}}}, {"name": "model_69/tf.reshape_17/Reshape", "op": "Reshape", "input": ["model_69/tf.compat.v1.transpose_70/transpose", "model_69/tf.reshape_17/Reshape/shape"], "attr": {"Tshape": {"type": "DT_INT32"}, "T": {"type": "DT_FLOAT"}}}, {"name": "model_69/tf.concat_22/concat", "op": "ConcatV2", "input": ["model_69/tf.reshape_2/Reshape", "model_69/tf.reshape_8/Reshape", "model_69/tf.reshape_14/Reshape", "model_69/tf.concat_22/concat/axis"], "attr": {"Tidx": {"type": "DT_INT32"}, "N": {"i": "3"}, "T": {"type": "DT_FLOAT"}}}, {"name": "model_69/tf.concat_23/concat", "op": "ConcatV2", "input": ["model_69/tf.reshape_5/Reshape", "model_69/tf.reshape_11/Reshape", "model_69/tf.reshape_17/Reshape", "model_69/tf.concat_23/concat/axis"], "attr": {"N": {"i": "3"}, "Tidx": {"type": "DT_INT32"}, "T": {"type": "DT_FLOAT"}}}, {"name": "model_69/tf.math.sigmoid_63/Sigmoid", "op": "Sigmoid", "input": ["model_69/tf.concat_22/concat"], "attr": {"T": {"type": "DT_FLOAT"}}}, {"name": "model_69/tf.strided_slice_16/StridedSlice", "op": "StridedSlice", "input": ["model_69/tf.concat_23/concat", "model_69/tf.strided_slice_16/StridedSlice/begin", "model_69/tf.strided_slice_16/StridedSlice/end", "model_69/tf.strided_slice_16/StridedSlice/strides"], "attr": {"ellipsis_mask": {"i": "0"}, "end_mask": {"i": "5"}, "T": {"type": "DT_FLOAT"}, "shrink_axis_mask": {"i": "0"}, "Index": {"type": "DT_INT64"}, "begin_mask": {"i": "7"}, "new_axis_mask": {"i": "0"}}}, {"name": "model_69/tf.strided_slice_17/StridedSlice", "op": "StridedSlice", "input": ["model_69/tf.concat_23/concat", "model_69/tf.strided_slice_17/StridedSlice/begin", "model_69/tf.strided_slice_17/StridedSlice/end", "model_69/tf.strided_slice_17/StridedSlice/strides"], "attr": {"new_axis_mask": {"i": "0"}, "ellipsis_mask": {"i": "0"}, "shrink_axis_mask": {"i": "0"}, "Index": {"type": "DT_INT64"}, "T": {"type": "DT_FLOAT"}, "end_mask": {"i": "5"}, "begin_mask": {"i": "5"}}}, {"name": "model_69/tf.math.subtract/Sub", "op": "Sub", "input": ["model_69/tf.math.sigmoid_63/Sigmoid", "model_69/tf.math.subtract/Sub/y"], "attr": {"T": {"type": "DT_FLOAT"}}}, {"name": "model_69/tf.reshape_20/Reshape", "op": "Reshape", "input": ["model_69/tf.strided_slice_16/StridedSlice", "model_69/tf.reshape_20/Reshape/shape"], "attr": {"Tshape": {"type": "DT_INT32"}, "T": {"type": "DT_FLOAT"}}}, {"name": "model_69/tf.math.sigmoid_64/Sigmoid", "op": "Sigmoid", "input": ["model_69/tf.strided_slice_17/StridedSlice"], "attr": {"T": {"type": "DT_FLOAT"}}}, {"name": "model_69/tf.math.multiply_266/Mul", "op": "Mul", "input": ["model_69/tf.math.subtract/Sub", "model_69/tf.math.multiply_266/Mul/y"], "attr": {"T": {"type": "DT_FLOAT"}}}, {"name": "model_69/tf.compat.v1.transpose_77/transpose", "op": "Transpose", "input": ["model_69/tf.reshape_20/Reshape", "model_69/tf.compat.v1.transpose_77/transpose/perm"], "attr": {"Tperm": {"type": "DT_INT32"}, "T": {"type": "DT_FLOAT"}}}, {"name": "model_69/tf.math.sin/Sin", "op": "Sin", "input": ["model_69/tf.math.multiply_266/Mul"], "attr": {"T": {"type": "DT_FLOAT"}}}, {"name": "model_69/tf.math.cos/Cos", "op": "Cos", "input": ["model_69/tf.math.multiply_266/Mul"], "attr": {"T": {"type": "DT_FLOAT"}}}, {"name": "model_69/tf.compat.v1.transpose_78/transpose", "op": "Transpose", "input": ["model_69/tf.compat.v1.transpose_77/transpose", "model_69/tf.compat.v1.transpose_78/transpose/perm"], "attr": {"T": {"type": "DT_FLOAT"}, "Tperm": {"type": "DT_INT32"}}}, {"name": "model_69/tf.nn.softmax//model.22/dfl/Softmax", "op": "Softmax", "input": ["model_69/tf.compat.v1.transpose_78/transpose"], "attr": {"T": {"type": "DT_FLOAT"}}}, {"name": "model_69/tf.nn.convolution_98/convolution", "op": "Conv2D", "input": ["model_69/tf.nn.softmax//model.22/dfl/Softmax", "model_69/tf.nn.convolution_98/convolution/filter"], "device": "/device:CPU:0", "attr": {"padding": {"s": "U0FNRQ=="}, "dilations": {"list": {"i": ["1", "1", "1", "1"]}}, "explicit_paddings": {"list": {}}, "use_cudnn_on_gpu": {"b": true}, "strides": {"list": {"i": ["1", "1", "1", "1"]}}, "data_format": {"s": "TkhXQw=="}, "T": {"type": "DT_FLOAT"}}}, {"name": "model_69/tf.compat.v1.transpose_83/transpose", "op": "Transpose", "input": ["model_69/tf.nn.convolution_98/convolution", "model_69/tf.compat.v1.transpose_83/transpose/perm"], "attr": {"T": {"type": "DT_FLOAT"}, "Tperm": {"type": "DT_INT32"}}}, {"name": "model_69/tf.reshape_23/Reshape", "op": "Reshape", "input": ["model_69/tf.compat.v1.transpose_83/transpose", "model_69/tf.reshape_23/Reshape/shape"], "attr": {"T": {"type": "DT_FLOAT"}, "Tshape": {"type": "DT_INT32"}}}, {"name": "model_69/tf.split/split", "op": "Split", "input": ["model_69/tf.split/split/split_dim", "model_69/tf.reshape_23/Reshape"], "attr": {"T": {"type": "DT_FLOAT"}, "num_split": {"i": "2"}}}, {"name": "model_69/tf.math.subtract_1/Sub", "op": "Sub", "input": ["model_69/tf.split/split:1", "model_69/tf.split/split"], "attr": {"T": {"type": "DT_FLOAT"}}}, {"name": "model_69/tf.math.add_110/Add", "op": "AddV2", "input": ["model_69/tf.split/split", "model_69/tf.split/split:1"], "attr": {"T": {"type": "DT_FLOAT"}}}, {"name": "model_69/tf.math.divide/truediv", "op": "Mul", "input": ["model_69/tf.math.subtract_1/Sub", "ConstantFolding/model_69/tf.math.divide/truediv_recip"], "attr": {"T": {"type": "DT_FLOAT"}}}, {"name": "model_69/tf.strided_slice_18/StridedSlice", "op": "StridedSlice", "input": ["model_69/tf.math.divide/truediv", "model_69/tf.strided_slice_18/StridedSlice/begin", "model_69/tf.strided_slice_18/StridedSlice/end", "model_69/tf.strided_slice_18/ones_like"], "attr": {"T": {"type": "DT_FLOAT"}, "shrink_axis_mask": {"i": "0"}, "begin_mask": {"i": "0"}, "Index": {"type": "DT_INT32"}, "end_mask": {"i": "0"}, "new_axis_mask": {"i": "0"}, "ellipsis_mask": {"i": "0"}}}, {"name": "model_69/tf.strided_slice_19/StridedSlice", "op": "StridedSlice", "input": ["model_69/tf.math.divide/truediv", "model_69/tf.strided_slice_19/StridedSlice/begin", "model_69/tf.strided_slice_19/StridedSlice/end", "model_69/tf.strided_slice_19/ones_like"], "attr": {"ellipsis_mask": {"i": "0"}, "Index": {"type": "DT_INT32"}, "end_mask": {"i": "0"}, "new_axis_mask": {"i": "0"}, "T": {"type": "DT_FLOAT"}, "shrink_axis_mask": {"i": "0"}, "begin_mask": {"i": "0"}}}, {"name": "model_69/tf.math.multiply_285/Mul", "op": "Mul", "input": ["model_69/tf.strided_slice_18/StridedSlice", "model_69/tf.math.sin/Sin"], "attr": {"T": {"type": "DT_FLOAT"}}}, {"name": "model_69/tf.math.multiply_277/Mul", "op": "Mul", "input": ["model_69/tf.strided_slice_18/StridedSlice", "model_69/tf.math.cos/Cos"], "attr": {"T": {"type": "DT_FLOAT"}}}, {"name": "model_69/tf.math.multiply_281/Mul", "op": "Mul", "input": ["model_69/tf.strided_slice_19/StridedSlice", "model_69/tf.math.sin/Sin"], "attr": {"T": {"type": "DT_FLOAT"}}}, {"name": "model_69/tf.math.multiply_289/Mul", "op": "Mul", "input": ["model_69/tf.strided_slice_19/StridedSlice", "model_69/tf.math.cos/Cos"], "attr": {"T": {"type": "DT_FLOAT"}}}, {"name": "model_69/tf.math.subtract_2/Sub", "op": "Sub", "input": ["model_69/tf.math.multiply_277/Mul", "model_69/tf.math.multiply_281/Mul"], "attr": {"T": {"type": "DT_FLOAT"}}}, {"name": "model_69/tf.math.add_111/Add", "op": "AddV2", "input": ["model_69/tf.math.multiply_285/Mul", "model_69/tf.math.multiply_289/Mul"], "attr": {"T": {"type": "DT_FLOAT"}}}, {"name": "model_69/tf.concat_27/concat", "op": "ConcatV2", "input": ["model_69/tf.math.subtract_2/Sub", "model_69/tf.math.add_111/Add", "model_69/tf.concat_27/concat/axis"], "attr": {"Tidx": {"type": "DT_INT32"}, "T": {"type": "DT_FLOAT"}, "N": {"i": "2"}}}, {"name": "model_69/tf.math.add_112/Add", "op": "AddV2", "input": ["model_69/tf.concat_27/concat", "model_69/tf.math.add_112/Add/y"], "attr": {"T": {"type": "DT_FLOAT"}}}, {"name": "model_69/tf.concat_31/concat", "op": "ConcatV2", "input": ["model_69/tf.math.add_112/Add", "model_69/tf.math.add_110/Add", "model_69/tf.concat_31/concat/axis"], "attr": {"Tidx": {"type": "DT_INT32"}, "T": {"type": "DT_FLOAT"}, "N": {"i": "2"}}}, {"name": "model_69/tf.math.multiply_299/Mul", "op": "Mul", "input": ["model_69/tf.concat_31/concat", "model_69/tf.math.multiply_299/Mul/y"], "attr": {"T": {"type": "DT_FLOAT"}}}, {"name": "model_69/output0/concat", "op": "ConcatV2", "input": ["model_69/tf.math.multiply_299/Mul", "model_69/tf.math.sigmoid_64/Sigmoid", "model_69/tf.math.multiply_266/Mul", "model_69/output0/concat/axis"], "attr": {"T": {"type": "DT_FLOAT"}, "N": {"i": "3"}, "Tidx": {"type": "DT_INT32"}}}, {"name": "Identity", "op": "Identity", "input": ["model_69/output0/concat"], "attr": {"T": {"type": "DT_FLOAT"}}}], "library": {}, "versions": {"producer": 1482}}, "weightsManifest": [{"paths": ["group1-shard1of3.bin", "group1-shard2of3.bin", "group1-shard3of3.bin"], "weights": [{"name": "model_69/tf.strided_slice_18/StridedSlice/begin", "shape": [3], "dtype": "int32"}, {"name": "model_69/tf.strided_slice_18/StridedSlice/end", "shape": [3], "dtype": "int32"}, {"name": "model_69/tf.strided_slice_18/ones_like", "shape": [3], "dtype": "int32"}, {"name": "ConstantFolding/model_69/tf.math.divide/truediv_recip", "shape": [1, 1, 1], "dtype": "float32"}, {"name": "model_69/tf.strided_slice_19/StridedSlice/begin", "shape": [3], "dtype": "int32"}, {"name": "model_69/tf.strided_slice_19/StridedSlice/end", "shape": [3], "dtype": "int32"}, {"name": "model_69/tf.strided_slice_19/ones_like", "shape": [3], "dtype": "int32"}, {"name": "model_69/tf.concat_27/concat/axis", "shape": [], "dtype": "int32"}, {"name": "model_69/tf.math.add_112/Add/y", "shape": [1, 2, 21504], "dtype": "float32"}, {"name": "model_69/tf.split/split/split_dim", "shape": [], "dtype": "int32"}, {"name": "model_69/tf.strided_slice_16/StridedSlice/begin", "shape": [3], "dtype": "int32"}, {"name": "model_69/tf.strided_slice_16/StridedSlice/end", "shape": [3], "dtype": "int32"}, {"name": "model_69/tf.strided_slice_16/StridedSlice/strides", "shape": [3], "dtype": "int32"}, {"name": "model_69/tf.reshape_20/Reshape/shape", "shape": [4], "dtype": "int32"}, {"name": "model_69/tf.compat.v1.transpose_77/transpose/perm", "shape": [4], "dtype": "int32"}, {"name": "model_69/tf.compat.v1.transpose_78/transpose/perm", "shape": [4], "dtype": "int32"}, {"name": "model_69/tf.nn.convolution_98/convolution/filter", "shape": [1, 1, 16, 1], "dtype": "float32"}, {"name": "model_69/tf.compat.v1.transpose_83/transpose/perm", "shape": [4], "dtype": "int32"}, {"name": "model_69/tf.reshape_23/Reshape/shape", "shape": [3], "dtype": "int32"}, {"name": "model_69/tf.concat_31/concat/axis", "shape": [], "dtype": "int32"}, {"name": "model_69/tf.math.multiply_299/Mul/y", "shape": [1, 1, 21504], "dtype": "float32"}, {"name": "model_69/tf.nn.convolution_51/convolution/filter", "shape": [3, 3, 64, 64], "dtype": "float32"}, {"name": "model_69/tf.math.add_63/Add/y", "shape": [64], "dtype": "float32"}, {"name": "model_69/tf.nn.convolution_54/convolution/filter", "shape": [3, 3, 64, 64], "dtype": "float32"}, {"name": "model_69/tf.math.add_66/Add/y", "shape": [64], "dtype": "float32"}, {"name": "model_69/tf.nn.convolution_58/convolution/filter", "shape": [1, 1, 64, 64], "dtype": "float32"}, {"name": "model_69/tf.math.add_70/Add/y", "shape": [64], "dtype": "float32"}, {"name": "model_69/tf.nn.convolution_52/convolution/filter", "shape": [3, 3, 64, 64], "dtype": "float32"}, {"name": "model_69/tf.math.add_64/Add/y", "shape": [64], "dtype": "float32"}, {"name": "model_69/tf.nn.convolution_55/convolution/filter", "shape": [3, 3, 64, 64], "dtype": "float32"}, {"name": "model_69/tf.math.add_67/Add/y", "shape": [64], "dtype": "float32"}, {"name": "model_69/tf.nn.convolution_59/convolution/filter", "shape": [1, 1, 64, 15], "dtype": "float32"}, {"name": "model_69/tf.math.add_71/Add/y", "shape": [15], "dtype": "float32"}, {"name": "model_69/tf.concat_14/concat/axis", "shape": [], "dtype": "int32"}, {"name": "model_69/tf.compat.v1.transpose_32/transpose/perm", "shape": [4], "dtype": "int32"}, {"name": "model_69/tf.reshape_5/Reshape/shape", "shape": [3], "dtype": "int32"}, {"name": "model_69/tf.nn.convolution_69/convolution/filter", "shape": [3, 3, 128, 64], "dtype": "float32"}, {"name": "model_69/tf.math.add_81/Add/y", "shape": [64], "dtype": "float32"}, {"name": "model_69/tf.nn.convolution_74/convolution/filter", "shape": [3, 3, 64, 64], "dtype": "float32"}, {"name": "model_69/tf.math.add_86/Add/y", "shape": [64], "dtype": "float32"}, {"name": "model_69/tf.nn.convolution_82/convolution/filter", "shape": [1, 1, 64, 64], "dtype": "float32"}, {"name": "model_69/tf.math.add_94/Add/y", "shape": [64], "dtype": "float32"}, {"name": "model_69/tf.nn.convolution_70/convolution/filter", "shape": [3, 3, 128, 64], "dtype": "float32"}, {"name": "model_69/tf.math.add_82/Add/y", "shape": [64], "dtype": "float32"}, {"name": "model_69/tf.nn.convolution_77/convolution/filter", "shape": [3, 3, 64, 64], "dtype": "float32"}, {"name": "model_69/tf.math.add_89/Add/y", "shape": [64], "dtype": "float32"}, {"name": "model_69/tf.nn.convolution_85/convolution/filter", "shape": [1, 1, 64, 15], "dtype": "float32"}, {"name": "model_69/tf.math.add_97/Add/y", "shape": [15], "dtype": "float32"}, {"name": "model_69/tf.concat_19/concat/axis", "shape": [], "dtype": "int32"}, {"name": "model_69/tf.compat.v1.transpose_60/transpose/perm", "shape": [4], "dtype": "int32"}, {"name": "model_69/tf.reshape_11/Reshape/shape", "shape": [3], "dtype": "int32"}, {"name": "model_69/tf.nn.convolution_90/convolution/filter", "shape": [3, 3, 256, 64], "dtype": "float32"}, {"name": "model_69/tf.math.add_102/Add/y", "shape": [64], "dtype": "float32"}, {"name": "model_69/tf.nn.convolution_93/convolution/filter", "shape": [3, 3, 64, 64], "dtype": "float32"}, {"name": "model_69/tf.math.add_105/Add/y", "shape": [64], "dtype": "float32"}, {"name": "model_69/tf.nn.convolution_96/convolution/filter", "shape": [1, 1, 64, 64], "dtype": "float32"}, {"name": "model_69/tf.math.add_108/Add/y", "shape": [64], "dtype": "float32"}, {"name": "model_69/tf.nn.convolution_91/convolution/filter", "shape": [3, 3, 256, 64], "dtype": "float32"}, {"name": "model_69/tf.math.add_103/Add/y", "shape": [64], "dtype": "float32"}, {"name": "model_69/tf.nn.convolution_94/convolution/filter", "shape": [3, 3, 64, 64], "dtype": "float32"}, {"name": "model_69/tf.math.add_106/Add/y", "shape": [64], "dtype": "float32"}, {"name": "model_69/tf.nn.convolution_97/convolution/filter", "shape": [1, 1, 64, 15], "dtype": "float32"}, {"name": "model_69/tf.math.add_109/Add/y", "shape": [15], "dtype": "float32"}, {"name": "model_69/tf.concat_21/concat/axis", "shape": [], "dtype": "int32"}, {"name": "model_69/tf.compat.v1.transpose_70/transpose/perm", "shape": [4], "dtype": "int32"}, {"name": "model_69/tf.reshape_17/Reshape/shape", "shape": [3], "dtype": "int32"}, {"name": "model_69/tf.concat_23/concat/axis", "shape": [], "dtype": "int32"}, {"name": "model_69/tf.strided_slice_17/StridedSlice/begin", "shape": [3], "dtype": "int32"}, {"name": "model_69/tf.strided_slice_17/StridedSlice/end", "shape": [3], "dtype": "int32"}, {"name": "model_69/tf.strided_slice_17/StridedSlice/strides", "shape": [3], "dtype": "int32"}, {"name": "model_69/tf.nn.convolution_50/convolution/filter", "shape": [3, 3, 64, 16], "dtype": "float32"}, {"name": "model_69/tf.math.add_62/Add/y", "shape": [16], "dtype": "float32"}, {"name": "model_69/tf.nn.convolution_53/convolution/filter", "shape": [3, 3, 16, 16], "dtype": "float32"}, {"name": "model_69/tf.math.add_65/Add/y", "shape": [16], "dtype": "float32"}, {"name": "model_69/tf.nn.convolution_57/convolution/filter", "shape": [1, 1, 16, 1], "dtype": "float32"}, {"name": "model_69/tf.math.add_69/Add/y", "shape": [1], "dtype": "float32"}, {"name": "model_69/tf.compat.v1.transpose_27/transpose/perm", "shape": [4], "dtype": "int32"}, {"name": "model_69/tf.reshape_2/Reshape/shape", "shape": [3], "dtype": "int32"}, {"name": "model_69/tf.nn.convolution_68/convolution/filter", "shape": [3, 3, 128, 16], "dtype": "float32"}, {"name": "model_69/tf.math.add_80/Add/y", "shape": [16], "dtype": "float32"}, {"name": "model_69/tf.nn.convolution_71/convolution/filter", "shape": [3, 3, 16, 16], "dtype": "float32"}, {"name": "model_69/tf.math.add_83/Add/y", "shape": [16], "dtype": "float32"}, {"name": "model_69/tf.nn.convolution_79/convolution/filter", "shape": [1, 1, 16, 1], "dtype": "float32"}, {"name": "model_69/tf.math.add_91/Add/y", "shape": [1], "dtype": "float32"}, {"name": "model_69/tf.compat.v1.transpose_55/transpose/perm", "shape": [4], "dtype": "int32"}, {"name": "model_69/tf.reshape_8/Reshape/shape", "shape": [3], "dtype": "int32"}, {"name": "model_69/tf.strided_slice_14/ones_like/tensor", "shape": [4], "dtype": "int32"}, {"name": "model_69/tf.strided_slice_14/StridedSlice/end", "shape": [4], "dtype": "int32"}, {"name": "model_69/tf.strided_slice_14/ones_like", "shape": [4], "dtype": "int32"}, {"name": "model_69/tf.strided_slice_12/ones_like/tensor", "shape": [4], "dtype": "int32"}, {"name": "model_69/tf.strided_slice_12/StridedSlice/end", "shape": [4], "dtype": "int32"}, {"name": "model_69/tf.strided_slice_12/ones_like", "shape": [4], "dtype": "int32"}, {"name": "model_69/tf.strided_slice_10/ones_like/tensor", "shape": [4], "dtype": "int32"}, {"name": "model_69/tf.strided_slice_10/StridedSlice/end", "shape": [4], "dtype": "int32"}, {"name": "model_69/tf.strided_slice_10/ones_like", "shape": [4], "dtype": "int32"}, {"name": "model_69/tf.image.resize_1/resize/size", "shape": [2], "dtype": "int32"}, {"name": "model_69/tf.concat_9/concat/axis", "shape": [], "dtype": "int32"}, {"name": "model_69/tf.nn.convolution_45/convolution/filter", "shape": [1, 1, 192, 64], "dtype": "float32"}, {"name": "model_69/tf.math.add_57/Add/y", "shape": [64], "dtype": "float32"}, {"name": "model_69/tf.strided_slice_11/ones_like/tensor", "shape": [4], "dtype": "int32"}, {"name": "model_69/tf.strided_slice_11/StridedSlice/end", "shape": [4], "dtype": "int32"}, {"name": "model_69/tf.strided_slice_11/ones_like", "shape": [4], "dtype": "int32"}, {"name": "model_69/tf.nn.convolution_46/convolution/filter", "shape": [3, 3, 32, 32], "dtype": "float32"}, {"name": "model_69/tf.math.add_58/Add/y", "shape": [32], "dtype": "float32"}, {"name": "model_69/tf.nn.convolution_47/convolution/filter", "shape": [3, 3, 32, 32], "dtype": "float32"}, {"name": "model_69/tf.math.add_59/Add/y", "shape": [32], "dtype": "float32"}, {"name": "model_69/tf.concat_10/concat/axis", "shape": [], "dtype": "int32"}, {"name": "model_69/tf.nn.convolution_48/convolution/filter", "shape": [1, 1, 96, 64], "dtype": "float32"}, {"name": "model_69/tf.math.add_60/Add/y", "shape": [64], "dtype": "float32"}, {"name": "model_69/tf.compat.v1.pad_5/Pad/paddings", "shape": [4, 2], "dtype": "int32"}, {"name": "model_69/tf.nn.convolution_49/convolution/filter", "shape": [3, 3, 64, 64], "dtype": "float32"}, {"name": "model_69/tf.math.add_61/Add/y", "shape": [64], "dtype": "float32"}, {"name": "model_69/tf.strided_slice_8/ones_like/tensor", "shape": [4], "dtype": "int32"}, {"name": "model_69/tf.strided_slice_8/StridedSlice/end", "shape": [4], "dtype": "int32"}, {"name": "model_69/tf.strided_slice_8/ones_like", "shape": [4], "dtype": "int32"}, {"name": "model_69/tf.image.resize/resize/size", "shape": [2], "dtype": "int32"}, {"name": "model_69/tf.concat_5/concat/axis", "shape": [], "dtype": "int32"}, {"name": "model_69/tf.nn.convolution_37/convolution/filter", "shape": [1, 1, 384, 128], "dtype": "float32"}, {"name": "model_69/tf.math.add_49/Add/y", "shape": [128], "dtype": "float32"}, {"name": "model_69/tf.strided_slice_9/ones_like/tensor", "shape": [4], "dtype": "int32"}, {"name": "model_69/tf.strided_slice_9/StridedSlice/end", "shape": [4], "dtype": "int32"}, {"name": "model_69/tf.strided_slice_9/ones_like", "shape": [4], "dtype": "int32"}, {"name": "model_69/tf.nn.convolution_40/convolution/filter", "shape": [3, 3, 64, 64], "dtype": "float32"}, {"name": "model_69/tf.math.add_52/Add/y", "shape": [64], "dtype": "float32"}, {"name": "model_69/tf.nn.convolution_43/convolution/filter", "shape": [3, 3, 64, 64], "dtype": "float32"}, {"name": "model_69/tf.math.add_55/Add/y", "shape": [64], "dtype": "float32"}, {"name": "model_69/tf.concat_6/concat/axis", "shape": [], "dtype": "int32"}, {"name": "model_69/tf.nn.convolution_44/convolution/filter", "shape": [1, 1, 192, 128], "dtype": "float32"}, {"name": "model_69/tf.math.add_56/Add/y", "shape": [128], "dtype": "float32"}, {"name": "model_69/tf.concat_13/concat/axis", "shape": [], "dtype": "int32"}, {"name": "model_69/tf.nn.convolution_56/convolution/filter", "shape": [1, 1, 192, 128], "dtype": "float32"}, {"name": "model_69/tf.math.add_68/Add/y", "shape": [128], "dtype": "float32"}, {"name": "model_69/tf.strided_slice_13/ones_like/tensor", "shape": [4], "dtype": "int32"}, {"name": "model_69/tf.strided_slice_13/StridedSlice/end", "shape": [4], "dtype": "int32"}, {"name": "model_69/tf.strided_slice_13/ones_like", "shape": [4], "dtype": "int32"}, {"name": "model_69/tf.nn.convolution_62/convolution/filter", "shape": [3, 3, 64, 64], "dtype": "float32"}, {"name": "model_69/tf.math.add_74/Add/y", "shape": [64], "dtype": "float32"}, {"name": "model_69/tf.nn.convolution_65/convolution/filter", "shape": [3, 3, 64, 64], "dtype": "float32"}, {"name": "model_69/tf.math.add_77/Add/y", "shape": [64], "dtype": "float32"}, {"name": "model_69/tf.concat_15/concat/axis", "shape": [], "dtype": "int32"}, {"name": "model_69/tf.nn.convolution_66/convolution/filter", "shape": [1, 1, 192, 128], "dtype": "float32"}, {"name": "model_69/tf.math.add_78/Add/y", "shape": [128], "dtype": "float32"}, {"name": "model_69/tf.compat.v1.pad_6/Pad/paddings", "shape": [4, 2], "dtype": "int32"}, {"name": "model_69/tf.nn.convolution_67/convolution/filter", "shape": [3, 3, 128, 128], "dtype": "float32"}, {"name": "model_69/tf.math.add_79/Add/y", "shape": [128], "dtype": "float32"}, {"name": "model_69/tf.strided_slice_6/ones_like/tensor", "shape": [4], "dtype": "int32"}, {"name": "model_69/tf.strided_slice_6/StridedSlice/end", "shape": [4], "dtype": "int32"}, {"name": "model_69/tf.strided_slice_6/ones_like", "shape": [4], "dtype": "int32"}, {"name": "model_69/tf.strided_slice_4/ones_like/tensor", "shape": [4], "dtype": "int32"}, {"name": "model_69/tf.strided_slice_4/StridedSlice/end", "shape": [4], "dtype": "int32"}, {"name": "model_69/tf.strided_slice_4/ones_like", "shape": [4], "dtype": "int32"}, {"name": "model_69/tf.strided_slice_2/ones_like/tensor", "shape": [4], "dtype": "int32"}, {"name": "model_69/tf.strided_slice_2/StridedSlice/end", "shape": [4], "dtype": "int32"}, {"name": "model_69/tf.strided_slice_2/ones_like", "shape": [4], "dtype": "int32"}, {"name": "model_69/tf.strided_slice/ones_like/tensor", "shape": [4], "dtype": "int32"}, {"name": "model_69/tf.strided_slice/StridedSlice/end", "shape": [4], "dtype": "int32"}, {"name": "model_69/tf.strided_slice/ones_like", "shape": [4], "dtype": "int32"}, {"name": "model_69/tf.compat.v1.pad/Pad/paddings", "shape": [4, 2], "dtype": "int32"}, {"name": "model_69/tf.nn.convolution/convolution/filter", "shape": [3, 3, 3, 16], "dtype": "float32"}, {"name": "model_69/tf.math.add/Add/y", "shape": [16], "dtype": "float32"}, {"name": "model_69/tf.compat.v1.pad_1/Pad/paddings", "shape": [4, 2], "dtype": "int32"}, {"name": "model_69/tf.nn.convolution_1/convolution/filter", "shape": [3, 3, 16, 32], "dtype": "float32"}, {"name": "model_69/tf.math.add_1/Add/y", "shape": [32], "dtype": "float32"}, {"name": "model_69/tf.nn.convolution_2/convolution/filter", "shape": [1, 1, 32, 32], "dtype": "float32"}, {"name": "model_69/tf.math.add_2/Add/y", "shape": [32], "dtype": "float32"}, {"name": "model_69/tf.strided_slice_1/ones_like/tensor", "shape": [4], "dtype": "int32"}, {"name": "model_69/tf.strided_slice_1/StridedSlice/end", "shape": [4], "dtype": "int32"}, {"name": "model_69/tf.strided_slice_1/ones_like", "shape": [4], "dtype": "int32"}, {"name": "model_69/tf.nn.convolution_3/convolution/filter", "shape": [3, 3, 16, 16], "dtype": "float32"}, {"name": "model_69/tf.math.add_3/Add/y", "shape": [16], "dtype": "float32"}, {"name": "model_69/tf.nn.convolution_4/convolution/filter", "shape": [3, 3, 16, 16], "dtype": "float32"}, {"name": "model_69/tf.math.add_4/Add/y", "shape": [16], "dtype": "float32"}, {"name": "model_69/tf.concat/concat/axis", "shape": [], "dtype": "int32"}, {"name": "model_69/tf.nn.convolution_5/convolution/filter", "shape": [1, 1, 48, 32], "dtype": "float32"}, {"name": "model_69/tf.math.add_7/Add/y", "shape": [32], "dtype": "float32"}, {"name": "model_69/tf.compat.v1.pad_2/Pad/paddings", "shape": [4, 2], "dtype": "int32"}, {"name": "model_69/tf.nn.convolution_6/convolution/filter", "shape": [3, 3, 32, 64], "dtype": "float32"}, {"name": "model_69/tf.math.add_8/Add/y", "shape": [64], "dtype": "float32"}, {"name": "model_69/tf.nn.convolution_7/convolution/filter", "shape": [1, 1, 64, 64], "dtype": "float32"}, {"name": "model_69/tf.math.add_9/Add/y", "shape": [64], "dtype": "float32"}, {"name": "model_69/tf.strided_slice_3/ones_like/tensor", "shape": [4], "dtype": "int32"}, {"name": "model_69/tf.strided_slice_3/StridedSlice/end", "shape": [4], "dtype": "int32"}, {"name": "model_69/tf.strided_slice_3/ones_like", "shape": [4], "dtype": "int32"}, {"name": "model_69/tf.nn.convolution_8/convolution/filter", "shape": [3, 3, 32, 32], "dtype": "float32"}, {"name": "model_69/tf.math.add_10/Add/y", "shape": [32], "dtype": "float32"}, {"name": "model_69/tf.nn.convolution_9/convolution/filter", "shape": [3, 3, 32, 32], "dtype": "float32"}, {"name": "model_69/tf.math.add_11/Add/y", "shape": [32], "dtype": "float32"}, {"name": "model_69/tf.nn.convolution_10/convolution/filter", "shape": [3, 3, 32, 32], "dtype": "float32"}, {"name": "model_69/tf.math.add_14/Add/y", "shape": [32], "dtype": "float32"}, {"name": "model_69/tf.nn.convolution_11/convolution/filter", "shape": [3, 3, 32, 32], "dtype": "float32"}, {"name": "model_69/tf.math.add_15/Add/y", "shape": [32], "dtype": "float32"}, {"name": "model_69/tf.concat_1/concat/axis", "shape": [], "dtype": "int32"}, {"name": "model_69/tf.nn.convolution_14/convolution/filter", "shape": [1, 1, 128, 64], "dtype": "float32"}, {"name": "model_69/tf.math.add_20/Add/y", "shape": [64], "dtype": "float32"}, {"name": "model_69/tf.compat.v1.pad_3/Pad/paddings", "shape": [4, 2], "dtype": "int32"}, {"name": "model_69/tf.nn.convolution_15/convolution/filter", "shape": [3, 3, 64, 128], "dtype": "float32"}, {"name": "model_69/tf.math.add_21/Add/y", "shape": [128], "dtype": "float32"}, {"name": "model_69/tf.nn.convolution_16/convolution/filter", "shape": [1, 1, 128, 128], "dtype": "float32"}, {"name": "model_69/tf.math.add_22/Add/y", "shape": [128], "dtype": "float32"}, {"name": "model_69/tf.strided_slice_5/ones_like/tensor", "shape": [4], "dtype": "int32"}, {"name": "model_69/tf.strided_slice_5/StridedSlice/end", "shape": [4], "dtype": "int32"}, {"name": "model_69/tf.strided_slice_5/ones_like", "shape": [4], "dtype": "int32"}, {"name": "model_69/tf.nn.convolution_19/convolution/filter", "shape": [3, 3, 64, 64], "dtype": "float32"}, {"name": "model_69/tf.math.add_25/Add/y", "shape": [64], "dtype": "float32"}, {"name": "model_69/tf.nn.convolution_22/convolution/filter", "shape": [3, 3, 64, 64], "dtype": "float32"}, {"name": "model_69/tf.math.add_28/Add/y", "shape": [64], "dtype": "float32"}, {"name": "model_69/tf.nn.convolution_25/convolution/filter", "shape": [3, 3, 64, 64], "dtype": "float32"}, {"name": "model_69/tf.math.add_33/Add/y", "shape": [64], "dtype": "float32"}, {"name": "model_69/tf.nn.convolution_28/convolution/filter", "shape": [3, 3, 64, 64], "dtype": "float32"}, {"name": "model_69/tf.math.add_36/Add/y", "shape": [64], "dtype": "float32"}, {"name": "model_69/tf.concat_2/concat/axis", "shape": [], "dtype": "int32"}, {"name": "model_69/tf.nn.convolution_29/convolution/filter", "shape": [1, 1, 256, 128], "dtype": "float32"}, {"name": "model_69/tf.math.add_39/Add/y", "shape": [128], "dtype": "float32"}, {"name": "model_69/tf.compat.v1.pad_4/Pad/paddings", "shape": [4, 2], "dtype": "int32"}, {"name": "model_69/tf.nn.convolution_30/convolution/filter", "shape": [3, 3, 128, 256], "dtype": "float32"}, {"name": "model_69/tf.math.add_40/Add/y", "shape": [256], "dtype": "float32"}, {"name": "model_69/tf.nn.convolution_31/convolution/filter", "shape": [1, 1, 256, 256], "dtype": "float32"}, {"name": "model_69/tf.math.add_41/Add/y", "shape": [256], "dtype": "float32"}, {"name": "model_69/tf.strided_slice_7/ones_like/tensor", "shape": [4], "dtype": "int32"}, {"name": "model_69/tf.strided_slice_7/StridedSlice/end", "shape": [4], "dtype": "int32"}, {"name": "model_69/tf.strided_slice_7/ones_like", "shape": [4], "dtype": "int32"}, {"name": "model_69/tf.nn.convolution_32/convolution/filter", "shape": [3, 3, 128, 128], "dtype": "float32"}, {"name": "model_69/tf.math.add_42/Add/y", "shape": [128], "dtype": "float32"}, {"name": "model_69/tf.nn.convolution_33/convolution/filter", "shape": [3, 3, 128, 128], "dtype": "float32"}, {"name": "model_69/tf.math.add_43/Add/y", "shape": [128], "dtype": "float32"}, {"name": "model_69/tf.concat_3/concat/axis", "shape": [], "dtype": "int32"}, {"name": "model_69/tf.nn.convolution_34/convolution/filter", "shape": [1, 1, 384, 256], "dtype": "float32"}, {"name": "model_69/tf.math.add_46/Add/y", "shape": [256], "dtype": "float32"}, {"name": "model_69/tf.nn.convolution_35/convolution/filter", "shape": [1, 1, 256, 128], "dtype": "float32"}, {"name": "model_69/tf.math.add_47/Add/y", "shape": [128], "dtype": "float32"}, {"name": "model_69/tf.concat_4/concat/axis", "shape": [], "dtype": "int32"}, {"name": "model_69/tf.nn.convolution_36/convolution/filter", "shape": [1, 1, 512, 256], "dtype": "float32"}, {"name": "model_69/tf.math.add_48/Add/y", "shape": [256], "dtype": "float32"}, {"name": "model_69/tf.concat_16/concat/axis", "shape": [], "dtype": "int32"}, {"name": "model_69/tf.nn.convolution_78/convolution/filter", "shape": [1, 1, 384, 256], "dtype": "float32"}, {"name": "model_69/tf.math.add_90/Add/y", "shape": [256], "dtype": "float32"}, {"name": "model_69/tf.strided_slice_15/ones_like/tensor", "shape": [4], "dtype": "int32"}, {"name": "model_69/tf.strided_slice_15/StridedSlice/end", "shape": [4], "dtype": "int32"}, {"name": "model_69/tf.strided_slice_15/ones_like", "shape": [4], "dtype": "int32"}, {"name": "model_69/tf.nn.convolution_86/convolution/filter", "shape": [3, 3, 128, 128], "dtype": "float32"}, {"name": "model_69/tf.math.add_98/Add/y", "shape": [128], "dtype": "float32"}, {"name": "model_69/tf.nn.convolution_87/convolution/filter", "shape": [3, 3, 128, 128], "dtype": "float32"}, {"name": "model_69/tf.math.add_99/Add/y", "shape": [128], "dtype": "float32"}, {"name": "model_69/tf.concat_20/concat/axis", "shape": [], "dtype": "int32"}, {"name": "model_69/tf.nn.convolution_88/convolution/filter", "shape": [1, 1, 384, 256], "dtype": "float32"}, {"name": "model_69/tf.math.add_100/Add/y", "shape": [256], "dtype": "float32"}, {"name": "model_69/tf.nn.convolution_89/convolution/filter", "shape": [3, 3, 256, 16], "dtype": "float32"}, {"name": "model_69/tf.math.add_101/Add/y", "shape": [16], "dtype": "float32"}, {"name": "model_69/tf.nn.convolution_92/convolution/filter", "shape": [3, 3, 16, 16], "dtype": "float32"}, {"name": "model_69/tf.math.add_104/Add/y", "shape": [16], "dtype": "float32"}, {"name": "model_69/tf.nn.convolution_95/convolution/filter", "shape": [1, 1, 16, 1], "dtype": "float32"}, {"name": "model_69/tf.math.add_107/Add/y", "shape": [1], "dtype": "float32"}, {"name": "model_69/tf.compat.v1.transpose_65/transpose/perm", "shape": [4], "dtype": "int32"}, {"name": "model_69/tf.reshape_14/Reshape/shape", "shape": [3], "dtype": "int32"}, {"name": "model_69/tf.concat_22/concat/axis", "shape": [], "dtype": "int32"}, {"name": "model_69/tf.math.subtract/Sub/y", "shape": [1, 1, 1], "dtype": "float32"}, {"name": "model_69/tf.math.multiply_266/Mul/y", "shape": [1, 1, 1], "dtype": "float32"}, {"name": "model_69/output0/concat/axis", "shape": [], "dtype": "int32"}]}]}